mujoco_simulation/unified_scene/replans/replan_data/replan_ini_shelf_52_20250317_143018/logs/2025_03_18_11_44_18/model_latest.pth (torch, 567254 bytes, 21 tensors)

tokenizing_net.0.weight f4 [128, 52]
0.15662782 -0.08474236 -0.07182265 -0.1382713 0.013865458 0.10489554 0.018091079 0.031210154
0.017037181 -0.051563136 -0.09474473 0.11138565 -0.13605756 0.060623482 -0.08915631 0.08582992
0.03152435 0.12762953 0.04320241 -0.10360145 0.06288049 -0.07192051 -0.05204467 -0.0616132
-0.047752157 -0.002038576 -0.048137292 -0.06245261 -0.07517548 0.117815025 -0.10309402 -0.018342745
-0.124054104 0.09674306 -0.06597266 0.10357004 0.04995713 -0.04696475 0.07210211 -0.022062512
-0.03096309 0.015727889 0.0069975303 -0.11699387 -0.04449086 -0.13371542 0.091574 0.12449058
-0.041126627 -0.08135845 0.02815349 0.02648443 -0.08379527 -0.07110363 0.0723089 -0.024004875
0.13385077 0.03560539 -0.0042124745 0.08176503 -0.10264174 0.060818434 -0.08378964 0.1363699
-0.10770212 -0.07507793 -0.121517636 0.051637974 0.0965611 0.029794421 -0.025994482 -0.022459002
-0.06686265 0.03615869 0.13455702 -0.07559235 0.041078433 -0.026853062 -0.09107814 -0.028081905
-0.07080459 0.016999394 0.13438115 -0.052454486 0.07108031 0.12187103 -0.12246609 0.13768359
-0.010735805 0.07538674 -0.0053121806 0.028077606 0.08297419 0.023768403 0.08462272 0.025737803
0.089439906 -0.03360446 -0.07042488 -0.04182413 0.025501614 0.09415739 0.13221733 -0.10929658
-0.0028522508 -0.12210831 0.10428952 0.12807894 -0.0073866225 -0.093947396 -0.06867947 0.106785804
-0.09361643 -0.020671545 0.12725186 0.10792147 0.05058345 0.1295369 -0.10337969 -0.06072208
-0.016500672 0.070842855 -0.017153418 -0.08232598 -0.0480241 -0.13016921 0.080851845 -0.009046233
-0.14346743 -0.09343 0.014249939 -0.008265541 -0.06490963 0.05291712 0.12101358 -0.02729565
-0.03128593 -0.021208072 -0.121530935 -0.01074036 0.009035776 0.11769663 0.09722527 -0.06537469
-0.11865949 -0.11191516 0.049562108 -0.095263995 -0.13187744 0.10748333 0.08552792 0.09937932
-0.12940355 0.021356508 0.1411626 0.052373804 -0.09282419 0.021759592 -0.005539505 -0.13755147
0.010672362 0.12996735 -0.018994574 0.064788826 0.023279767 -0.04725014 0.12440885 0.044876065
-0.1256326 0.074086614 -0.09360223 -0.052896854 0.1268071 -0.11953672 0.031988733 -0.026904663
0.070306234 0.038206734 -0.07135742 0.007890904 -0.116802424 0.019943688 -0.035414107 0.106440835
0.011744669 0.00032791588 -0.05266604 0.12816332 0.07470236 -0.05053783 0.016068043 -0.14614728
-0.010739418 -0.05926628 -0.033211824 0.027596595 -0.087957464 -0.14293712 0.023104118 -0.08252508
0.030656636 0.024289725 0.020095894 0.111177176 -0.08963099 -0.093486436 0.043016627 -0.092458226
-0.03762644 -0.14708363 -0.014073476 -0.012320521 -0.030869989 -0.047262166 -0.054374248 0.08129953
-0.100597866 0.11663132 0.07973812 0.090213865 0.06834582 0.11138988 -0.03733939 0.023584632
-0.084726 0.12544861 -0.008032022 0.03004352 0.043093212 0.0802653 0.07956129 -0.06565196
0.08728396 -0.062012486 -0.1174894 -0.04446397 0.008439193 0.026649192 0.09869458 0.030329771
0.04113409 0.057461787 -0.08283363 -0.101024464 -0.05960269 0.066851795 -0.045401298 0.053256698
0.03980381 0.12278573 -0.07710661 0.089871906 -0.039547548 0.13782898 -0.13340281 0.13501585
00000000: 0b63 203e 678d adbd c117 93bd fe96 0dbe
00000010: f22b 633c 79d3 d63d be33 943c 70ac ff3c
00000020: 8f91 8b3c de33 53bd 8609 c2bd 291e e43d
00000030: ac52 0bbe 5450 783d 9597 b6bd 99c7 af3d
00000040: ad1f 013d 51b1 023e 03f5 303d ff2c d4bd
00000050: 7dc7 803d 0f4b 93bd cb2c 55bd 1f5e 7cbd
00000060: c497 43bd a199 05bb 9c2b 45bd 4fce 7fbd
00000070: 9af5 99bd 0149 f13d f522 d3bd 8643 96bc
00000080: 1410 febd 3a21 c63d ad1c 87bd 871c d43d
00000090: d99f 4c3d 1c5e 40bd 45aa 933d 71bc b4bc
000000a0: 4ea6 fdbc c6d7 803c 8a4b e53b 7b9a efbd
000000b0: 0c3c 36bd b2ec 08be 268b bb3d ebf4 fe3d
000000c0: 6574 28bd 429f a6bd 26a2 e63c e0f5 d83c
000000d0: db9c abbd c89e 91bd b016 943d dfa5 c4bc
000000e0: 2d10 093e f5d6 113d cc08 8abb 6d74 a73d
000000f0: d535 d2bd c01c 793d e799 abbd 8da4 0b3e
00000100: ee92 dcbd 75c2 99bd 3dde f8bd 5782 533d
00000110: d3c1 c53d 6e13 f43c 61f2 d4bc f1fb b7bc
00000120: 49ef 88bd 221b 143d 51c9 093e 29d0 9abd
00000130: dc41 283d f4fa dbbc 2d87 babd 060c e6bc
00000140: ff01 91bd 5042 8b3c 369b 093e 84da 56bd
00000150: 8e92 913d 8597 f93d 80cf fabd edfc 0c3e
00000160: 3be5 2fbc 5d64 9a3d cd11 aebb 0203 e63c
00000170: 5fee a93d f4b5 c23c ad4e ad3d 16d8 d23c
00000180: 452c b73d d5a4 09bd eb3a 90bd c74f 2bbd
00000190: c3e8 d03c 97d5 c03d fb63 073e e3d6 dfbd
000001a0: d4ec 3abb ec13 fabd be95 d53d 2027 033e
000001b0: 7b0b f2bb 7e67 c0bd d2a7 8cbd 84b2 da3d
000001c0: f9b9 bfbd 5f57 a9bc 504e 023e ef05 dd3d
000001d0: 9730 4f3d 52a5 043e bbb8 d3bd b7b7 78bd
000001e0: 6b2c 87bc 0f16 913d 5385 8cbc 869a a8bd
000001f0: ebb4 44bd 144b 05be a795 a53d a736 14bc
00000200: 20e9 12be 3a58 bfbd 9378 693c 316c 07bc
00000210: 57ef 84bd 9fbf 583d f8d5 f73d 219b dfbc
00000220: ad25 00bd 8dbc adbc 36e5 f8bd 56f8 2fbc
00000230: cb0a 143c ee0a f13d 0b1e c73d 2ae3 85bd
00000240: bf03 f3bd c733 e5bd a301 4b3d c519 c3bd
00000250: e10a 07be 3820 dc3d 4329 af3d 6387 cb3d
00000260: 5d82 04be d8f3 ae3c ee8c 103e ea85 563d
00000270: 9c1a bebd 2c41 b23c bc84 b5bb 4bda 0cbe
00000280: 21db 2e3c 2916 053e 829a 9bbc 01b0 843d
00000290: 36b5 be3c 5d89 41bd 11ca fe3d f7cf 373d
000002a0: d5a5 00be b9ba 973d 87b2 bfbd 5faa 58bd
000002b0: b8d9 013e abcf f4bd 9e06 033d 2b67 dcbc
000002c0: b7fc 8f3d aa7e 1c3d d723 92bd da48 013c
000002d0: 1c36 efbd f260 a33c 620e 11bd a7fd d93d
000002e0: b66c 403c 20ec ab39 58b8 57bd 3f3d 033e
000002f0: 8dfd 983d c100 4fbd 21a1 833c a2a7 15be
00000300: 62f4 2fbc 33c1 72bd 1f09 08bd 4112 e23c
00000310: 0b23 b4bd 1c5e 12be d944 bd3c e902 a9bd
00000320: a023 fb3c 3ffb c63c 25a0 a43c dcb0 e33d
00000330: 7490 b7bd d175 bfbd 3432 303d bd5a bdbd
00000340: 2f1e 1abd 179d 16be 7094 66bc 03dc 49bc
00000350: 0fe3 fcbc f995 41bd 88b7 5ebd 5e80 a63d
00000360: 4106 cebd 67dc ee3d bd4d a33d 0cc2 b83d
00000370: e5f8 8b3d 6120 e43d 30f1 18bd 8f34 c13c
00000380: d384 adbd 9a75 003e be98 03bc d41d f63c
00000390: 8282 303d 2262 a43d 08f1 a23d 8974 86bd
000003a0: efc1 b23d ce00 7ebd 489e f0bd da1f 36bd
000003b0: 8a44 0a3c 684f da3c 6220 ca3d 2476 f83c
000003c0: 387c 283d 0d5d 6b3d aea4 a9bd eae5 cebd
000003d0: f321 74bd 98e9 883d b6f6 39bd b223 5a3d
000003e0: 5209 233d 1677 fb3d 12ea 9dbd c30e b83d
000003f0: 9cfc 21bd 0a23 0d3e bf9a 08be 9841 0a3e

tokenizing_net.0.bias f4 [128]
0.033777267 0.042802658 -0.029719343 0.105971806 -0.13644901 0.060689274 -0.10097922 0.08075391
-0.0064196936 0.037059918 0.1210402 0.0007235566 0.11546173 -0.021813449 0.09116066 0.04728756
-0.030040689 -0.104399465 0.12807569 -0.014036065 -0.10619065 0.069477364 0.12222009 0.024249151
0.10847559 0.10202282 0.06440754 0.078785166 -0.053865537 0.10870497 -0.05860206 0.034506463
-0.050080057 0.10169172 -0.05301068 0.08044889 -0.02183932 -0.07592492 -0.06055639 -0.12563296
0.089197695 -0.058805674 0.1364842 -0.12790892 -0.06358336 -0.051399965 -0.121813156 0.057098836
-0.102532975 0.12916699 -0.07513917 -0.08060805 0.09012622 0.049249362 0.08051614 -0.08826397
0.08212764 0.07569378 -0.04877342 0.019081388 0.03658828 -0.12021171 -0.12382522 0.10355468
-0.103697106 -0.053039674 -0.06949231 -0.12868507 -0.07249807 0.13274768 -0.09580385 -0.07234638
0.12331946 -0.044610385 -0.12522401 0.058499083 0.0071105333 0.07728278 -0.029809618 -0.10368104
0.09165313 -0.058061473 -0.08539132 0.11340514 0.08525676 -0.055250797 -0.027719328 -0.09322412
-0.011818715 0.0061668227 -0.11510856 0.02691375 -0.010791178 -0.09232826 -0.03281669 0.12099831
-0.106491625 0.09007408 0.120671645 -0.08756922 0.01828935 0.13505642 0.081324555 0.07261131
0.05996237 0.003349179 0.051442415 0.04311972 -0.102019385 -0.039294504 0.009715925 0.08798324
-0.049777657 0.12476407 -0.11450164 -0.07520175 0.058441427 -0.09144327 -0.019020883 -0.04340456
0.04599262 0.030258857 -0.03657976 -0.018160772 -0.039218888 -0.052041527 -0.08463308 0.00939133
00000000: 085a 0a3d d751 2f3d fb75 f3bc bf07 d93d
00000010: 4ab9 0bbe 5195 783d 31ce cebd 4e62 a53d
00000020: 4b5c d2bb 24cc 173d ede3 f73d 10ad 3d3a
00000030: 3377 ec3d 1eb2 b2bc 71b2 ba3d 9ab0 413d
00000040: e417 f6bc 63cf d5bd 4626 033e 86f7 65bc
00000050: 7c7a d9bd 264a 8e3d 874e fa3d 28a6 c63c
00000060: 7328 de3d 57f1 d03d 1ae8 833d 1e5a a13d
00000070: 1ca2 5cbd b6a0 de3d b708 70bd a656 0d3d
00000080: bf20 4dbd c043 d03d ba21 59bd 63c2 a43d
00000090: 60e8 b2bc 867e 9bbd fa09 78bd eda5 00be
000000a0: 48ad b63d 38de 70bd 84c2 0b3e 8efa 02be
000000b0: fe37 82bd c588 52bd 2d79 f9bd 78e0 693d
000000c0: cffc d1bd 5a44 043e 91e2 99bd d515 a5bd
000000d0: 1894 b83d b3b9 493d a5e5 a43d bec3 b4bd
000000e0: 8932 a83d 5705 9b3d a3c6 47bd 9250 9c3c
000000f0: 98dd 153d 8f31 f6bd 1498 fdbd 7a14 d43d
00000100: 265f d4bd 2140 59bd fc51 8ebd 05c6 03be
00000110: de79 94bd 02ef 073e cf34 c4bd 572a 94bd
00000120: ea8e fc3d 61b9 36bd b93a 00be bc9c 6f3d
00000130: 7aff e83b 6f46 9e3d 4d33 f4bc ba56 d4bd
00000140: a3b4 bb3d ded1 6dbd a5e1 aebd f440 e83d
00000150: 199b ae3d a94e 62bd a513 e3bc 4aec bebd
00000160: 49a3 41bc 0f13 ca3b 09be ebbd 3a7a dc3c
00000170: 7bcd 30bc 9916 bdbd cb6a 06bd f6cd f73d
00000180: 4818 dabd c278 b83d b222 f73d 7e57 b3bd
00000190: 8cd3 953c 3b4c 0a3e 7d8d a63d 3db5 943d
000001a0: 1a9b 753d e67d 5b3b 48b5 523d 4e9e 303d
000001b0: 8aef d0bd 46f3 20bd 8b2f 1f3c 8f30 b43d
000001c0: a8e3 4bbd 4e84 ff3d d67f eabd 6003 9abd
000001d0: 4760 6f3d 9c46 bbbd afd1 9bbc fbc8 31bd
000001e0: c262 3c3d 6ce1 f73c a9d4 15bd e6c5 94bc
000001f0: fca3 20bd 7f29 55bd 1c54 adbd 18de 193c

tokenizing_net.1.weight f4 [128]
1.00096 0.99479634 1.0003473 0.9983243 0.99906105 0.99721515 0.99694455 0.99359906
0.9909565 0.9990316 1.0026932 1.0071232 0.9981818 1.004224 0.9969676 0.99996156
1.0026503 1.0016434 1.0035448 1.0031148 0.9967117 1.0038941 1.000764 0.99287415
1.0056796 1.0054191 0.99755186 1.0011792 0.9969974 1.0020418 0.9996094 0.9994064
1.0113539 1.0186915 1.0121806 0.99233395 1.0105878 0.9931986 0.9855627 1.0093209
1.0002406 0.9978632 0.9994311 0.9925981 0.99437964 0.9888542 0.9889203 1.0033922
1.0003422 1.0104747 0.99977165 0.9929127 0.9909823 1.0006807 0.9993784 0.9920761
0.997863 0.9897221 0.99121606 1.0024844 1.0002068 0.9925943 0.99563164 0.99489194
0.99269205 1.0061883 1.0066117 1.0023315 0.99649686 1.0041418 0.9997147 0.9887852
0.99554 0.99471885 0.99789274 0.9922129 0.9906509 1.0016629 0.98932505 0.9971689
0.9999808 1.0095642 0.9973757 0.9987682 0.99532276 0.99321693 1.0030153 0.9988397
0.9907447 1.0134486 0.99896413 1.0057744 1.002656 1.0018564 1.0132592 1.0072584
1.005267 1.0051014 0.99451476 1.0043617 0.99855673 1.0218265 0.993945 0.9969172
0.9979321 0.9989172 0.9928144 1.002097 1.0002931 0.9891444 1.0036886 0.99319655
1.0059085 1.0010331 0.99795985 1.0019389 1.0078181 0.9982701 0.9955015 1.0156204
0.9941432 0.99552566 1.0038154 0.9970599 1.0073503 1.0010166 0.9846871 1.0120173
00000000: 751f 803f f9aa 7e3f 610b 803f 2e92 7f3f
00000010: 77c2 7f3f 7e49 7f3f c237 7f3f 825c 7e3f
00000020: 53af 7d3f 89c0 7f3f 4058 803f 6ae9 803f
00000030: d888 7f3f 698a 803f 4539 7f3f 7bfd 7f3f
00000040: d856 803f da35 803f 2874 803f 1166 803f
00000050: 7f28 7f3f 9a7f 803f 0919 803f 002d 7e3f
00000060: 1cba 803f 93b1 803f 8f5f 7f3f a426 803f
00000070: 393b 7f3f e842 803f 67e6 7f3f 19d9 7f3f
00000080: 0b74 813f 7c64 823f 228f 813f 9909 7e3f
00000090: f15a 813f 4342 7e3f d64d 7c3f 6d31 813f
000000a0: e207 803f f673 7f3f b7da 7f3f e91a 7e3f
000000b0: aa8f 7e3f 8d25 7d3f e129 7d3f 286f 803f
000000c0: 370b 803f 3c57 813f 09f1 7f3f 872f 7e3f
000000d0: 04b1 7d3f 4e16 803f 43d7 7f3f b3f8 7d3f
000000e0: f373 7f3f 6d5e 7d3f 56c0 7d3f 6951 803f
000000f0: c706 803f a91a 7e3f b7e1 7e3f 3db1 7e3f
00000100: 1121 7e3f c7ca 803f a7d8 803f 664c 803f
00000110: 6b1a 7f3f b887 803f 4ded 7f3f 0721 7d3f
00000120: b6db 7e3f e5a5 7e3f e675 7f3f aa01 7e3f
00000130: 4c9b 7d3f 7d36 803f 6844 7d3f 7646 7f3f
00000140: befe 7f3f 6639 813f 0454 7f3f 46af 7f3f
00000150: 79cd 7e3f 7743 7e3f ce62 803f f5b3 7f3f
00000160: 72a1 7d3f afb8 813f 1dbc 7f3f 37bd 803f
00000170: 0857 803f d53c 803f 7ab2 813f d8ed 803f
00000180: 97ac 803f 2aa7 803f 8598 7e3f ed8e 803f
00000190: 6aa1 7f3f 36cb 823f 2e73 7e3f f735 7f3f
000001a0: 7a78 7f3f 0ab9 7f3f 1629 7e3f b744 803f
000001b0: 9b09 803f 9138 7d3f de78 803f 2142 7e3f
000001c0: 9cc1 803f da21 803f 4c7a 7f3f 893f 803f
000001d0: 2f00 813f a18e 7f3f 30d9 7e3f d9ff 813f
000001e0: 2b80 7e3f c5da 7e3f 067d 803f 513f 7f3f
000001f0: dbf0 803f 5021 803f 7414 7c3f c889 813f

tokenizing_net.1.bias f4 [128]
0.002136912 0.003081475 0.002913166 -0.00068947836 0.00019483028 -0.0034669598 0.0031740624 0.004769384
-0.0005021637 -0.001725072 0.0024884816 -0.00093491015 0.0016379806 -0.004121692 -0.0045926506 0.0022378063
-0.002521834 0.00059615605 0.0018140458 0.002998215 -0.00059878855 -0.0012657967 -0.0054386463 0.00032063745
0.001458918 -0.00384967 0.00454312 4.0950516e-05 -0.0064653065 -0.0044138553 -0.008815548 -0.0013571939
0.00018099452 0.0011004314 0.00050913746 -0.0012353306 5.259531e-05 0.006792456 0.012494356 0.0008979426
0.007049627 -0.0028674097 0.001187124 0.0063986075 0.0055701504 -0.0009880618 0.0032314428 0.00014645526
0.0037024145 0.0020012793 0.002135266 -0.005778541 -0.0057842927 -0.0016122522 -0.0048583765 0.0028940968
0.0013702743 0.0015549022 0.0042955033 0.00715678 0.0004899174 -0.0058062067 0.00010768918 -0.0011509437
0.001116659 0.0015628755 0.0020962826 -0.00030238437 -0.00458386 0.00026785114 -0.0011439167 0.011970902
-0.0053725606 0.0034715978 -0.0015847494 -0.0057378355 -0.004853326 0.0009728896 0.0070249178 -0.006603237
-0.007717293 7.266549e-05 0.00014528458 -0.0039516864 -0.0057856953 0.0046759127 -0.0032905042 0.0034294485
0.0007513399 -0.0005014581 0.0022069155 -0.0019333616 0.0007728223 0.0018876316 0.0022283136 -0.0034292913
-0.004035368 -0.00091596687 -0.00611338 0.00376699 -0.0029088948 -0.0014354674 -0.007521558 0.0037488076
0.00026810062 -0.006111721 0.0040449793 0.0022823534 0.0032479195 0.009508127 -0.0033375486 0.006829915
-0.0019504048 0.003907027 -0.0040131076 0.0061597093 -0.0013999378 0.012149738 -0.010105307 0.0033559403
-0.004661794 -0.0016985383 0.002909874 0.0025449137 0.0024456151 0.0026931094 -0.01005085 7.399073e-05
00000000: 6f0b 0c3b 92f2 493b d1ea 3e3b 1cbe 34ba
00000010: 5b4b 4c39 ef35 63bb ee03 503b 7e48 9c3b
00000020: a3a3 03ba d01b e2ba cb15 233b c214 75ba
00000030: 82b1 d63a 420f 87bb f27d 96bb 29a8 123b
00000040: 5b45 25bb 5b47 1c3a 47c5 ed3a b37d 443b
00000050: 05f8 1cba 17e9 a5ba ac36 b2bb 3b1b a839
00000060: 2a39 bf3a bf4a 7cbb 74de 943b 48c2 2b38
00000070: ecda d3bb 1aa2 90bb 176f 10bc dfe3 b1ba
00000080: 59c9 3d39 5a3c 903a a377 053a d1ea a1ba
00000090: c999 5c38 4093 de3b 21b5 4c3c e863 6b3a
000000a0: 8f00 e73b 27eb 3bbb 4699 9b3a 69ab d13b
000000b0: cf85 b63b da81 81ba 9dc6 533b c991 1939
000000c0: 35a4 723b e527 033b d2ef 0b3b ea59 bdbb
000000d0: 2a8a bdbb 3552 d3ba 0433 9fbb e3aa 3d3b
000000e0: c79a b33a dccd cb3a 4bc1 8c3b 6c83 ea3b
000000f0: cd6d 003a fe41 bebb 30d7 e138 43db 96ba
00000100: dc5c 923a 66d9 cc3a c961 093b 5889 9eb9
00000110: 3434 96bb 5f6e 8c39 7aef 95ba 9a21 443c
00000120: 4e0c b0bb bf83 633b 5eb7 cfba 7404 bcbb
00000130: a608 9fbb 8409 7f3a 4831 e63b f75f d8bb
00000140: 59e1 fcbb fd63 9838 8857 1839 267d 81bb
00000150: ee95 bdbb 6638 993b 80a5 57bb 99c0 603b
00000160: 91f5 443a 4974 03ba e6a1 103b da68 fdba
00000170: 3a97 4a3a 686a f73a e608 123b f6bd 60bb
00000180: 1f3b 84bb 7f1d 70ba c052 c8bb 9bdf 763b
00000190: 28a3 3ebb 4b26 bcba 6777 f6bb 8eae 753b
000001a0: db8f 8c39 d544 c8bb bf8b 843b 8993 153b
000001b0: 0cdb 543b fac7 1b3c c6ba 5abb 7bcd df3b
000001c0: baa4 ffba 8506 803b 6380 83bb 63d7 c93b
000001d0: 1e7e b7ba b20f 473c bb90 25bc 56ef 5b3b
000001e0: f6c1 98bb 7da1 deba 96b3 3e3b 91c8 263b
000001f0: 9d46 203b e17e 303b 52ac 24bc 782b 9b38

regression_net.0.weight f4 [128, 128]
-0.042895228 -0.054655947 -0.02307849 -0.055983774 0.046839617 0.08209801 0.06980341 -0.068963975
0.039463643 -0.036033582 0.05758707 0.034316204 0.06799663 -0.047240965 0.031409502 0.07057602
0.09399334 -0.008506748 -0.08470356 -0.086387604 0.012881946 -0.08722669 0.09480169 -0.004033121
0.047814976 0.04710973 -0.008453478 -0.03400591 -0.021938235 0.04311275 0.079956144 -0.0036387546
-0.05365947 0.021494672 0.021198483 -0.010120723 -0.0056386087 0.012017553 0.075251624 -0.052724507
0.04640702 0.093768775 -0.06426684 0.0038204344 0.0867852 0.07835063 -0.08613664 -0.009029344
-0.055146564 -0.081432104 0.026514048 -0.012973285 -0.0029044994 -0.08026145 0.052606903 -0.053860616
-0.03782298 -0.037538815 -0.072850555 0.07830044 0.07107991 0.06917398 0.039320838 -0.0046068868
0.033588473 0.04160571 -0.0218327 0.07056494 -0.024980448 -0.028345952 -0.07812965 0.015177586
-0.027704537 0.037397735 -0.014983373 -0.016978255 -0.022754094 0.016766837 0.0064087226 -0.052551158
0.086457856 -0.07448573 0.060347352 0.03868606 -0.028165415 -0.03231253 -0.06265487 0.063639924
-0.06890234 -0.07175909 0.035917632 0.059029285 -0.012596515 0.07581016 -0.018656956 -0.026155964
-0.06435574 -0.06281513 -0.03526531 0.079229765 -0.045839757 0.0052077626 -0.004794104 0.056969937
0.05034297 -0.06240109 -0.08953959 0.023057599 -0.009340645 -0.014386318 -0.04449506 -0.0852857
0.019851424 0.050231203 0.0739598 -0.016950952 -0.029524762 -0.046465136 -0.011027195 -0.006412163
0.065329336 -0.023581265 0.06559693 -0.0001519606 0.07897153 0.02195578 0.077735424 0.013452175
0.038557936 -0.079836555 -0.040195625 0.006494453 -0.0058644162 0.0065162643 0.071267836 0.032381065
0.036784355 0.051565286 -0.0005396914 0.009726205 -0.014886577 -0.019963143 0.06260909 -0.024464775
-0.052915536 0.04168818 0.08392573 -0.0766581 -0.0217105 0.02015104 0.089136645 -0.02638446
-0.0747553 0.06432795 0.06561627 0.048274517 0.04880934 -0.070154995 -0.072911866 0.070773244
0.08425182 0.05335425 0.017868822 -0.010855158 0.04147803 -0.04799651 -0.017075915 0.0312419
-0.018203802 -0.0078249825 0.026740806 -0.00732081 -0.053403933 0.0026262577 0.04714768 0.029359369
0.07892914 -0.06322332 -0.0062004384 -0.06433604 0.011069716 -0.06670267 0.060127962 0.06568494
-0.06714215 0.042102396 -0.025287481 -0.022956267 -0.063929565 -0.06344144 0.04383557 -0.008066013
0.07971793 0.0788171 0.035169553 0.0365933 0.0079552075 0.055052724 0.050317682 0.022360327
-0.052439544 0.0047891145 -0.021110738 -0.061588697 -0.06837952 0.032339424 -0.098443516 -0.005181117
-0.019345922 0.03515357 0.035284147 -0.03871494 -0.05262492 0.017264862 0.0049375044 0.027435964
0.008811427 0.05216138 -0.013768159 -0.069100335 -0.0024326558 0.029585069 0.080730885 0.076151475
-0.08275211 0.03630668 -0.022525402 0.089152224 -0.07492149 0.017260006 -0.009492846 -0.06389759
0.084667325 -0.06613043 0.069178164 -0.010324652 0.041880954 0.02834527 0.04185883 0.06406588
0.06281908 0.04614317 0.06646058 0.014741231 -0.0013805659 0.03851729 0.057506092 -0.03948123
-0.040935107 -0.050007116 0.0012427558 0.05510848 -0.07978821 0.07152918 0.07628015 0.07475843
00000000: e8b2 2fbd eade 5fbd 1a0f bdbc 3e4f 65bd
00000010: e6da 3f3d 0023 a83d 17f5 8e3d fc3c 8dbd
00000020: a1a4 213d f397 13bd 6be0 6b3d 268f 0c3d
00000030: d141 8b3d be7f 41bd 40a7 003d 298a 903d
00000040: 957f c03d e35f 0bbc 0f79 adbd fceb b0bd
00000050: cc0e 533c e8a3 b2bd 6327 c23d 4528 84bb
00000060: a3d9 433d 22f6 403d 7580 0abc c849 0bbd
00000070: d0b7 b3bc ff96 303d 0cc0 a33d 2c78 6ebb
00000080: 08ca 5bbd 9815 b03c 71a8 ad3c 64d1 25bc
00000090: 14c4 b8bb 45e5 443c 861d 9a3d a7f5 57bd
000000a0: 4a15 3e3d d809 c03d 559e 83bd 4160 7a3b
000000b0: 70bc b13d 4c76 a03d 6868 b0bd d0ef 13bc
000000c0: 5de1 61bd e0c5 a6bd fd33 d93c e78d 54bc
000000d0: 6a59 3ebb 1d60 a4bd 567a 573d f39c 5cbd
000000e0: 45ec 1abd 4dc2 19bd ac32 95bd fb5b a03d
000000f0: 5892 913d 16ab 8d3d e30e 213d 5ef5 96bb
00000100: 1194 093d c06a 2a3d 7eda b2bc 5a84 903d
00000110: cca3 ccbc c535 e8bc 7002 a0bd 69ab 783c
00000120: a0f4 e2bc 5e2e 193d d27c 75bc fb15 8bbc
00000130: cb66 babc 9b5a 893c 4300 d23b e23f 57bd
00000140: d110 b13d f98b 98bd c92e 773d 4675 1e3d
00000150: 28bb e6bc 255a 04bd 3251 80bd a655 823d
00000160: ac1c 8dbd 6ef6 92bd 5e1e 133d b1c8 713d
00000170: 9d61 4ebc 5b42 9b3d 79d6 98bc 0845 d6bc
00000180: f1cc 83bd 38a5 80bd 5c72 10bd 3743 a23d
00000190: 78c2 3bbd e1a5 aa3b dc17 9dbb 4f59 693d
000001a0: 6e34 4e3d 4998 7fbd 8860 b7bd 4ae3 bc3c
000001b0: 8109 19bc 97b4 6bbc 7440 36bd 45aa aebd
000001c0: 749f a23c 3cbf 4d3d 3c78 973d b9dc 8abc
000001d0: eadd f1bc 3a52 3ebd 68ab 34bc 1f1d d2bb
000001e0: 63cb 853d 7f2d c1bc af57 863d 9d57 1fb9
000001f0: d3bb a13d 9cdc b33c c033 9f3d 8366 5c3c
00000200: edee 1d3d 5981 a3bd 2ba4 24bd 6ccf d43b
00000210: 4a2a c0bb 6386 d53b dff4 913d 02a2 043d
00000220: 31ab 163d 1f36 533d 147a 0dba a95a 1f3c
00000230: d4e6 73bc bf89 a3bc 3239 803d 5a6a c8bc
00000240: f6bd 58bd 3ac1 2a3d 41e1 ab3d ecfe 9cbd
00000250: 38da b1bc cb13 a53c 468d b63d 3924 d8bc
00000260: 4f19 99bd 5fbe 833d d361 863d 80bb 453d
00000270: 4dec 473d 6cad 8fbd d152 95bd 90f1 903d
00000280: 388c ac3d fc89 5a3d a361 923c d5d9 31bc
00000290: dee4 293d fd97 44bd cae2 8bbc 03ef ff3c
000002a0: 2420 95bc 5b34 00bc 890f db3c 68e3 efbb
000002b0: 15be 5abd 4b1d 2c3b ed1d 413d 0f83 f03c
000002c0: 9aa5 a13d 3a7b 81bd 0c2d cbbb 9dc2 83bd
000002d0: c15d 353c 699b 88bd bd48 763d d385 863d
000002e0: d381 89bd 9073 2c3d b127 cfbc c80e bcbc
000002f0: 81ed 82bd 96ed 81bd ed8c 333d 5027 04bc
00000300: 2743 a33d dc6a a13d f30d 103d dbe2 153d
00000310: 8f56 023c f77e 613d ea19 4e3d 012d b73c
00000320: d9ca 56bd 01ee 9c3b 6df0 acbc 6e44 7cbd
00000330: 900a 8cbd 5876 043d c19c c9bd 5cc6 a9bb
00000340: 577b 9ebc 31fd 0f3d 1c86 103d 8f93 1ebd
00000350: 3a8d 57bd 0a6f 8d3c caca a13b 63c1 e03c
00000360: ce5d 103c 2ca7 553d d893 61bc 7a84 8dbd
00000370: 316d 1fbb 635c f23c 3c56 a53d 4ef5 9b3d
00000380: f079 a9bd 50b6 143d 3187 b8bc 7195 b63d
00000390: 7070 99bd db64 8d3c e287 1bbc bddc 82bd
000003a0: 1066 ad3d 646f 87bd 48ad 8d3d bb28 29bc
000003b0: 5d8b 2b3d 5734 e83c 2a74 2b3d f934 833d
000003c0: 4aa7 803d 9f00 3d3d 7c1c 883d 3485 713c
000003d0: 1bf4 b4ba 4ec4 1d3d 828b 6b3d 12b7 21bd
000003e0: 92ab 27bd 43d4 4cbd f7e3 a23a 6eb9 613d
000003f0: 0068 a3bd e47d 923d c438 9c3d f31a 993d

regression_net.0.bias f4 [128]
0.06388946 -0.08167255 -0.032796353 -0.048587926 -0.048899796 -0.027610026 -0.0026273585 -0.05953286
0.00059593946 0.05692842 -0.020293778 -0.021267472 0.071382105 0.04495516 -0.061891112 -0.023878664
0.06282479 0.06847539 0.00018331845 -0.0514499 0.06745385 -0.045348547 -0.07005776 0.04841813
-0.0008481811 0.0769539 0.05749004 -0.03263114 -0.029686633 0.03128426 0.023646414 0.005822985
0.07059357 -3.8236078e-05 -0.06365668 -0.06928936 0.04313637 0.003083566 0.0014170409 -0.05769409
-0.023293681 -0.030847881 -0.028918274 0.000100682075 0.06348337 0.05458898 0.036211424 -0.05329847
0.039434113 0.07736699 0.056055225 0.034464497 0.08561479 -0.07619629 0.06644239 0.07778297
0.05166747 0.05703185 -0.04986918 0.0016012277 0.070309535 0.005816442 0.036418073 -0.047087725
0.0048004454 -0.0050258525 0.04179485 -0.01519195 -0.017458867 -0.028356714 0.055562958 0.081466295
-0.049880635 0.055393435 -0.046961345 0.02194654 0.0616361 0.006871862 -0.011814679 -0.062120177
-0.017478008 0.019791111 0.07682968 0.057507176 0.0101064155 0.034579296 -0.07742173 0.018701766
-0.04817028 0.04460972 0.08551085 -0.009770435 -0.084892176 -0.03410655 0.0025693756 0.03544645
-0.052904107 0.04123055 -0.084351875 0.002817463 -0.071386576 0.046340764 0.0038148782 -0.08282687
0.025923654 0.0812404 0.007296582 0.0492519 0.0024680302 0.007886875 -0.025814869 0.069768555
0.038838927 0.02909501 0.020906802 0.0031061226 0.016093379 0.08191643 -0.063273765 -0.027055457
0.060380474 -0.034485657 -0.01624326 0.07883674 0.03714421 -0.015900813 -0.0341711 0.063714474
00000000: 7ad8 823d f043 a7bd 7855 06bd 2204 47bd
00000010: 274b 48bd 6c2e e2bc c32f 2cbb bad8 73bd
00000020: d238 1c3a c62d 693d 233f a6bc 1f39 aebc
00000030: c830 923d e722 383d 8981 7dbd 309d c3bc
00000040: 49aa 803d d33c 8c3d 2c39 4039 21bd 52bd
00000050: 3e25 8a3d 66bf 39bd 717a 8fbd 1752 463d
00000060: 7858 5eba 029a 9d3d ad7a 6b3d 3ba8 05bd
00000070: 6231 f3bc ed23 003d 20b6 c13c bdce be3b
00000080: 5d93 903d ad5f 20b8 6f5e 82bd 94e7 8dbd
00000090: c3af 303d a715 4a3b 01bc b93a a350 6cbd
000000a0: 64d2 bebc b2b4 fcbc 04e6 ecbc 4725 d338
000000b0: 9203 823d b298 5f3d 6e52 143d 7f4f 5abd
000000c0: aa85 213d 9672 9e3d 2a9a 653d a52a 0d3d
000000d0: cf56 af3d cd0c 9cbd f312 883d ae4c 9f3d
000000e0: 45a1 533d 3b9a 693d a043 4cbd 49e0 d13a
000000f0: 72fe 8f3d da97 be3b 1e2b 153d 0fdf 40bd
00000100: 0e4d 9d3b e8af a4bb 1431 2b3d a8e7 78bc
00000110: e605 8fbc 574c e8bc fc95 633d cdd7 a63d
00000120: a34f 4cbd 3ae4 623d 8a5a 40bd 3bc9 b33c
00000130: 2376 7c3d 5b2d e13b 5b92 41bc ba71 7ebd
00000140: 0a2e 8fbc f820 a23c e158 9d3d a58c 6b3d
00000150: 6195 253c 05a3 0d3d 498f 9ebd 7234 993c
00000160: 334e 45bd afb8 363d 5020 af3d 2d14 20bc
00000170: f3db adbd 4fb3 0bbd f862 283b 4c30 113d
00000180: fab1 58bd 5de1 283d adc0 acbd 2fa5 383b
00000190: 2033 92bd d0cf 3d3d 0903 7a3b 22a1 a9bd
000001a0: d85d d43c 5e61 a63d 2b18 ef3b 5cbc 493d
000001b0: adbe 213b f437 013c b479 d3bc d1e2 8e3d
000001c0: 9115 1f3d a958 ee3c be44 ab3c 1790 4b3b
000001d0: 43d6 833c cdc3 a73d ad95 81bd 68a3 ddbc
000001e0: 8451 773d d540 0dbd 9610 85bc 2875 a13d
000001f0: 8724 183d 6c42 82bc fff6 0bbd bc7c 823d

regression_net.2.weight f4 [128, 128]
-0.065666765 -0.022544298 0.011910266 0.055514 -0.03106999 0.044485558 0.0283178 0.030877434
0.018087983 -0.08620559 -0.0021309692 -0.021835377 -0.08586184 -0.042731617 0.003729527 -0.03506134
-0.0064360616 0.0013505204 -0.009917924 -0.07010991 0.0052676992 -0.025941892 0.06396834 0.011915222
0.07740807 0.0005398186 -0.040204965 -0.045133065 -0.06281097 0.038190458 0.03394689 0.037565403
0.07276447 0.08173829 0.063237175 0.046742395 0.043670215 -0.045932163 0.06597636 -0.031558763
0.01795991 0.00067950477 0.017412988 0.069842584 0.049419764 -0.0757091 -0.08304937 0.078783
0.043533217 0.035483096 -0.088261716 0.013114383 -7.3289884e-05 0.080026954 0.013620227 0.050524056
0.06867425 -0.06432445 -0.037675295 -0.023689082 -0.0018604832 -0.016227083 -0.021933509 0.029257022
0.019744704 0.0039815623 0.0126427645 0.0098907845 -0.050483383 -0.0027907598 -0.08351018 0.030608756
-0.055507954 0.021239853 -0.021790335 0.061051615 -0.06343787 -0.061470322 0.0047397427 -0.0046167024
-0.07757441 -0.041861877 -0.026361646 -0.05039215 0.07689058 -0.0020463436 0.0117103495 0.047965843
-0.061655425 -0.05713154 -0.03849401 0.044385884 -0.062103145 -0.008884255 0.029729823 -0.04512443
0.047288463 -0.028104937 0.05406337 -0.059922513 -0.041607402 -0.038372252 0.035225507 -0.077852994
0.025423083 0.02796775 0.06726278 0.07884565 0.054024413 0.02309266 -0.09114953 0.05321794
-0.06031199 -0.010878112 -0.0155127095 -0.076101795 0.0319241 0.04512782 -0.011115243 -0.032437537
0.07856662 -0.026609076 -0.06835376 0.04025738 0.04016618 -0.076381184 0.007467139 0.029292662
-0.021412246 0.041427866 0.02221953 0.08091268 0.048334215 -0.08209703 -0.05432805 -0.059140973
-0.04999581 0.005591658 0.07485063 -0.025532145 0.07154666 -0.02791651 0.09508255 -0.025010955
0.050443165 0.05798625 0.015378628 0.05549515 -0.056416776 -0.083876476 -0.023817765 0.052051716
0.034562793 -0.08042956 0.0042977543 -0.064492285 0.0633029 -0.07952732 0.013771112 0.039123915
0.012275168 -0.07963347 -0.06762859 0.08304176 0.0646994 0.026991064 -0.048995405 0.021822074
0.053334665 -0.060388874 -0.025454484 -0.08187092 -0.08687964 0.030243581 -0.03539213 -0.030925902
-0.07220845 -0.0546779 -0.07990181 -0.085915096 0.004543641 -0.00694458 -0.07497786 0.087252244
-0.090542935 -0.07767139 -0.09507421 -0.06922845 -0.02589836 0.027113361 -0.014202259 -0.06723668
0.101811446 0.015401511 -0.07455805 0.083543666 -0.060110625 0.024383388 0.029548086 -0.065948635
0.079802014 -0.07631017 -0.049961936 0.023866884 0.07079526 -0.0018942251 0.025813255 0.05831111
-0.0053125396 -0.042486355 0.01918912 -0.01380429 -0.047802452 -0.08163918 0.0648567 -0.021154074
-0.045621775 0.02552861 0.019094247 0.03149479 -0.038439807 0.031201178 -0.0009838552 0.037569817
0.012348698 -0.016101588 -0.060774405 -0.06101611 -0.017672617 -0.09893045 0.04148535 0.045321375
-0.058856454 0.09141224 0.028292708 0.0069319783 0.052160088 0.020991277 0.06352685 0.06235982
-0.017286615 -0.011198751 -0.08645634 0.0041768807 0.06869071 -0.07067462 0.010962204 -0.03566232
0.00030095555 -0.06269885 -0.05770988 0.028630432 -0.02110582 -0.037358847 -0.087841 0.07605982
00000000: 4c7c 86bd d2ae b8bc 4723 433c a662 633d
00000010: 7e86 febc 7d36 363d bbfa e73c acf2 fc3c
00000020: 402d 943c 8e8c b0bd bba7 0bbb 1be0 b2bc
00000030: 55d8 afbd 5907 2fbd 146b 743b 7b9c 0fbd
00000040: 99e5 d2bb f203 b13a ca7e 22bc c995 8fbd
00000050: aa9c ac3b 1784 d4bc d501 833d 1038 433c
00000060: 1f88 9e3d 9d82 0d3a f6ad 24bd 73dd 38bd
00000070: 0aa3 80bd 996d 1c3d e50b 0b3d 2ede 193d
00000080: 8a05 953d 6866 a73d 7e82 813d f474 3f3d
00000090: 8adf 323d 5d23 3cbd 9d1e 873d c343 01bd
000000a0: a920 933c cb20 323a afa5 8e3c a109 8f3d
000000b0: 616c 4a3d 5f0d 9bbd ca15 aabd fb58 a13d
000000c0: e34f 323d b956 113d 8fc2 b4bd b6dd 563c
000000d0: 35b3 99b8 2ce5 a33d 5f27 5f3c 50f2 4e3d
000000e0: 16a5 8c3d 8abc 83bd 6951 1abd 9b0f c2bc
000000f0: 75db f3ba a9ee 84bc e7ad b3bc 6cac ef3c
00000100: a5bf a13c c477 823b 9923 4f3c f50c 223c
00000110: aac7 4ebd 2ee5 36bb 6307 abbd 37bf fa3c
00000120: 4f5c 63bd 33ff ad3c a581 b2bc 4211 7a3d
00000130: b7eb 81bd 4ec8 7bbd d84f 9b3b b547 97bb
00000140: 55df 9ebd 5c77 2bbd 61f4 d7bc 0068 4ebd
00000150: cf78 9d3d f31b 06bb c4dc 3f3c d577 443d
00000160: 668a 7cbd c302 6abd e5ab 1dbd f9cd 353d
00000170: de5f 7ebd 448f 11bc f58b f33c 65d4 38bd
00000180: 8cb1 413d 533c e6bc 8d71 5d3d 4f71 75bd
00000190: 866c 2abd 392c 1dbd 9f48 103d 6471 9fbd
000001a0: 1244 d03c 9f1c e53c 12c1 893d d479 a13d
000001b0: b448 5d3d d12c bd3c 9bac babd 0efb 593d
000001c0: b509 77bd 1c3a 32bc 0529 7ebc 42db 9bbd
000001d0: d8c2 023d f3d7 383d b51c 36bc 39dd 04bd
000001e0: 89e7 a03d 47fb d9bc 0efd 8bbd ece4 243d
000001f0: 4b85 243d bd6d 9cbd e7ae f43b 2af7 ef3c
00000200: bc68 afbc 44b0 293d bb05 b63c 8cb5 a53d
00000210: 19fa 453d 7d22 a8bd 1787 5ebd ce3d 72bd
00000220: 68c8 4cbd 3a3a b73b 494b 993d ca28 d1bc
00000230: 0e87 923d 2ab1 e4bc a4ba c23d c6e3 ccbc
00000240: 7e9d 4e3d fd82 6d3d a4f6 7b3c e24e 633d
00000250: 4715 67bd 6ec7 abbd 791d c3bc 2e34 553d
00000260: b791 0d3d 41b8 a4bd 2dd4 8c3b 8814 84bd
00000270: f3a4 813d 38df a2bd 3ba0 613c 6640 203d
00000280: c91d 493c df16 a3bd dc80 8abd cc11 aa3d
00000290: 1e81 843d 5d1c dd3c 68af 48bd 35c4 b23c
000002a0: 7375 5a3d 535a 77bd ec85 d0bc f1ab a7bd
000002b0: f4ed b1bd 63c1 f73c 57f7 10bd 5158 fdbc
000002c0: 06e2 93bd eff5 5fbd 8fa3 a3bd 41f4 afbd
000002d0: d3e2 943b 5c8f e3bb fe8d 99bd 4eb1 b23d
000002e0: 936e b9bd 2d12 9fbd 44b6 c2bd a5c7 8dbd
000002f0: cc28 d4bc d71c de3c 97b0 68bc 62b3 89bd
00000300: 8582 d03d 9f56 7c3c e4b1 98bd f118 ab3d
00000310: 8f36 76bd acbf c73c d40e f23c 1410 87bd
00000320: 3d6f a33d 8248 9cbd e3a4 4cbd 7c84 c33c
00000330: 1bfd 903d a647 f8ba 5276 d33c a1d7 6e3d
00000340: d014 aebb 2c06 2ebd 8032 9d3c 642b 62bc
00000350: 81cc 43bd 7132 a7bd 97d3 843d 4f4b adbc
00000360: e6dd 3abd 6021 d13c 8a6b 9c3c ae00 013d
00000370: 0f73 1dbd 9d99 ff3c b4f4 80ba cfe2 193d
00000380: 3252 4a3c 7ae7 83bc 95ee 78bd 07ec 79bd
00000390: 2ac6 90bc 0c9c cabd 8bec 293d e8a2 393d
000003a0: 7713 71bd 5736 bb3d 1cc6 e73c a625 e33b
000003b0: d1a5 553d e6f5 ab3c 5d1a 823d 036d 7f3d
000003c0: a99c 8dbc f77a 37bc 0610 b1bd 37de 883b
000003d0: b7ad 8c3d dbbd 90bd d19a 333c a712 12bd
000003e0: 92c9 9d39 4168 80bd 3261 6cbd 5e8a ea3c
000003f0: 1de6 acbc 9705 19bd fbe5 b3bd 40c5 9b3d

regression_net.2.bias f4 [128]
0.009796826 -0.021804614 -0.04206093 0.017593514 -0.020436928 0.07061607 -0.009184585 0.0457226
0.053868454 -0.08720754 -0.079284005 0.043555144 -0.08925888 0.06649671 0.010476291 -0.007122064
0.075430945 0.011180278 0.065130495 0.05126192 0.056504022 0.027862608 -0.032944016 0.026468236
0.074738525 0.0836526 -0.08218294 0.049252458 0.0004768978 0.074332975 -0.04783005 -0.0812643
0.040286858 -0.084258504 -0.038689584 -0.068834186 0.0065102265 0.04420907 -0.005705373 -0.040254757
0.03709619 -0.038587745 0.08478454 -0.064523265 -0.05799303 -0.04169555 0.007000538 -0.0009589841
0.051929403 -0.004945059 0.031644095 0.077556156 -0.027136918 -0.06186277 -0.012430974 0.055818826
-0.040305194 -0.0027221413 0.026466625 0.029328903 0.059160985 -0.05940447 -0.004988967 -0.028139627
0.014249091 0.031594574 0.053601842 -0.0521753 -0.048431925 0.021502296 0.08274337 -0.08372818
0.067990564 0.047219522 0.03626622 0.019812567 -0.06482807 0.030288408 0.060128413 -0.06245363
0.082504354 0.07515464 0.08299481 0.063209206 0.05577321 0.07554395 -0.024408774 0.012612872
-0.011717238 -0.071490884 -0.009444937 0.07970803 -0.006207829 0.042905204 -0.051102776 0.016951937
0.046210743 -0.012730702 -0.032811977 -0.015034635 0.0089331865 -0.014955406 -0.032668084 0.023977635
0.015069486 -0.023684088 -0.061850645 0.032862347 0.08173834 -0.06402253 -0.061826687 -0.021097064
-0.06499208 0.057025056 -0.04903234 -0.060602225 -0.041081917 0.054232616 -0.034340993 0.07171817
0.056916628 -0.0055032363 0.0832978 -0.083187416 0.043733276 -0.015875662 0.014869152 0.01100353
00000000: de82 203c 979f b2bc 1548 2cbd 4620 903c
00000010: 586b a7bc 289f 903d f17a 16bc 9f47 3b3d
00000020: 2ba5 5c3d de99 b2bd a75f a2bd e166 323d
00000030: 5ccd b6bd 6d2f 883d c0a4 2b3c 3460 e9bb
00000040: 8a7b 9a3d 7c2d 373c 2363 853d 05f8 513d
00000050: c370 673d 2040 e43c 4ef0 06bd ead3 d83c
00000060: 8310 993d 0e52 ab3d 874f a8bd f2bc 493d
00000070: 2408 fa39 e33b 983d 71e9 43bd e66d a6bd
00000080: d503 253d b98f acbd f878 1ebd f0f8 8cbd
00000090: bd53 d53b 9214 353d 23f4 babb 2ce2 24bd
000000a0: 2df2 173d 2f0e 1ebd 84a3 ad3d c624 84bd
000000b0: 198a 6dbd f4c8 2abd c564 e53b 5564 7bba
000000c0: edb3 543d 290a a2bb 3d9d 013d c3d5 9e3d
000000d0: 3e4e debc d163 7dbd 49ab 4bbc 48a2 643d
000000e0: 0f17 25bd f465 32bb 89d0 d83c 2b43 f03c
000000f0: ca52 723d 1a52 73bd 7d7a a3bb 1385 e6bc
00000100: 0575 693c 5069 013d 9b8d 5b3d c4b5 55bd
00000110: 8e60 46bd 9525 b03c 5b75 a93d ae79 abbd
00000120: a33e 8b3d 4269 413d e38b 143d f74d a23c
00000130: 94c4 84bd 651f f83c 3649 763d 61cf 7fbd
00000140: 0bf8 a83d adea 993d 2ff9 a93d d473 813d
00000150: 7372 643d c9b6 9a3d e9f4 c7bc 38a6 4e3c
00000160: a9f9 3fbc d069 92bd f0be 1abc f73d a33d
00000170: 0b6b cbbb 5ebd 2f3d 2551 51bd cade 8a3c
00000180: 7a47 3d3d 6f94 50bc da65 06bd d453 76bc
00000190: 805c 123c 8507 75bc f8ce 05bd bf6c c43c
000001a0: 01e6 763c 2205 c2bc 1a57 7dbd ab9a 063d
000001b0: 6e66 a73d 3f1e 83bd fb3d 7dbd c0d3 acbc
000001c0: 911a 85bd 1b93 693d 23d6 48bd 0a3a 78bd
000001d0: 8345 28bd 0523 5e3d 24a9 0cbd fae0 923d
000001e0: 6921 693d 7e54 b4bb 0998 aa3d 2a5e aabd
000001f0: aa21 333d ad0d 82bc be9d 733c 2648 343c

regression_net.4.weight f4 [1, 128]
0.035370886 0.025532888 0.010218749 0.033520818 0.05263188 -0.06029819 0.055887036 0.009272715
0.02742906 0.0701875 -0.010502552 -0.025174033 -0.008025145 -0.050620817 -0.06231677 0.008627666
0.0036702186 0.01252042 -0.04688821 -0.042522456 -0.014771681 0.002757317 -0.020943731 -0.08552984
-0.005301564 -0.04057645 0.027394354 -0.052669488 0.056833845 0.030664397 0.06735566 0.04151849
-0.08239668 -0.040589165 0.044236757 0.055798568 -0.021612639 -0.052627806 -0.03733949 0.04082851
-0.06798519 -0.033719383 -0.050346866 -0.028815556 0.0050206454 -0.076474026 -0.08794628 -0.071635514
0.080684245 -0.039969474 -0.07872373 -0.031949792 -0.037628915 0.04951524 0.0024243714 0.030753257
-0.06297005 -0.077980876 -0.02960076 -0.06965063 -0.0063991533 0.06213409 -0.03420005 0.0064830887
0.014031004 0.039848566 0.008599499 0.074861765 0.0058040405 0.030407837 0.01862999 0.058532313
-0.008294497 0.014835291 -0.048277937 0.061560143 0.08252888 0.06481007 0.07354782 0.0062934062
-0.042492535 0.049667466 -0.015505106 -0.08177932 -0.094619446 -0.018161101 -0.01826478 -0.06380488
0.030705871 -0.075327516 0.06402775 0.04607261 -0.027481921 -0.08229562 0.06642362 -0.028918918
-0.04446036 -0.07369823 -0.06739479 -0.054033697 -0.059829496 -0.075634636 -0.07028107 0.06583754
-0.07280838 0.015864495 0.08599991 -0.08406324 -0.043654475 -0.067816064 0.07302678 -0.00043674168
0.070884526 -0.0706015 0.0004897401 0.018263316 -0.07281321 0.06499974 -0.080873355 0.014099067
0.007863823 -0.04960813 -0.07277923 0.08269355 0.025982507 0.0307197 -0.0040316344 0.0727418
00000000: 10e1 103d 592a d13c 8a6c 273c 204d 093d
00000010: 8794 573d 3cfb 76bd cee9 643d 96ec 173c
00000020: e8b2 e03c 77be 8f3d e512 2cbc c639 cebc
00000030: e67b 03bc c657 4fbd df3f 7fbd 0e5b 0d3c
00000040: 0d88 703b 7322 4d3c da0d 40bd 072c 2ebd
00000050: ec04 72bc 1ab4 343b 3092 abbc 452a afbd
00000060: beb8 adbb 7e33 26bd 206a e03c f6bb 57bd
00000070: 9bca 683d e733 fb3c c4f1 893d 4b0f 2a3d
00000080: 97bf a8bd d340 26bd 9a31 353d 0a8d 643d
00000090: fd0c b1bc 4190 57bd 4bf1 18bd cc3b 273d
000000a0: d23b 8bbd 561d 0abd 8438 4ebd 9a0e ecbc
000000b0: 3a84 a43b 6a9e 9cbd 2e1d b4bd a4b5 92bd
000000c0: c83d a53d 08b7 23bd e839 a1bd c9dd 02bd
000000d0: c720 1abd 7ed0 4a3d 34e2 1e3b 41ee fb3c
000000e0: 71f6 80bd 70b4 9fbd 4b7d f2bc fda4 8ebd
000000f0: fdaf d1bb 5180 7e3d 5a15 0cbd 1770 d43b
00000100: 4ce2 653c 4038 233d eae4 0c3c 2051 993d
00000110: d22f be3b db19 f93c ec9d 983c 94bf 6f3d
00000120: a4e5 07bc b80f 733c 16bf 45bd 7d26 7c3d
00000130: e704 a93d 24bb 843d 3da0 963d eb38 ce3b
00000140: a70c 2ebd 1d70 4b3d 2109 7ebc eb7b a7bd
00000150: d7c7 c1bd 97c6 94bc 05a0 95bc 22ac 82bd
00000160: e18a fb3c 5045 9abd fb20 833d a2b6 3c3d
00000170: c421 e1bc 9b8a a8bd 1b09 883d 5ee7 ecbc
00000180: 111c 36bd 19ef 96bd 4806 8abd 7052 5dbd
00000190: c60f 75bd 55e6 9abd 86ef 8fbd d5d5 863d
000001a0: 8f1c 95bd 42f6 813c b920 b03d 5929 acbd
000001b0: 09cf 32bd 26e3 8abd 108f 953d 7afa e4b9
000001c0: e82b 913d 8597 90bd e761 003a f39c 953c
000001d0: 181f 95bd 951e 853d eea0 a5bd c6ff 663c
000001e0: 44d7 003c e531 4bbd 470d 95bd 3c5b a93d
000001f0: 44d9 d43c e1a7 fb3c cd1b 84bb a7f9 943d

transformer_enc.layers.0.self_attn.in_proj_weight f4 [384, 128]
-0.031329684 -0.11164765 0.07405374 -0.10907803 -0.00935151 0.053691447 0.03618222 0.07922634
0.09188425 0.058063332 0.04264279 -0.060009517 -0.04205282 -0.0658264 0.0019012463 -0.1105454
-0.054968297 -0.03477667 0.10505799 -0.08780571 -0.08678585 -0.09697086 -0.09272044 0.01667114
-0.033361845 0.01122202 -0.06951342 -0.11147613 -0.044067163 0.06285813 0.054069 0.0026765678
-0.08661391 0.01473132 0.03205901 0.007921361 -0.009012823 0.029315487 -0.06962694 0.04179159
-0.019976389 -0.08355967 -0.045671824 0.06891403 -0.030842008 -0.08280128 -0.016295897 -0.08911422
-0.013423188 0.018301267 0.021306546 0.11690441 -0.10572861 0.06769052 0.051230676 0.049209747
-0.096505895 -0.04313503 0.05496358 -0.07290783 0.025259804 0.05533951 0.011817076 -0.012662921
-0.043172184 -0.08253932 -0.06725271 0.061776567 -0.0051389965 0.0015886931 -0.054974448 0.0039109746
-0.031392563 -0.048630256 0.06967269 0.06191864 0.044441868 -0.0074968473 -0.07389255 -0.062302012
0.06449667 -0.016253214 0.067314856 0.06448282 0.0016462547 0.08956454 0.11322444 0.0064610257
-0.073539965 0.01722373 -0.026597807 -0.105457164 0.10852043 0.053086497 -0.021299345 -0.11183542
-0.08071084 -0.07114883 0.06061993 0.02003765 -0.069886655 -0.069390744 0.017809384 0.045199
0.03718247 0.023587298 -0.08223318 0.032714754 -0.019838223 -0.009772772 -0.028521495 0.03867793
-0.004628741 0.00038092074 0.0052200225 0.08866998 -0.0007642148 -0.024788992 -0.05978809 -0.0055222753
0.08272495 -0.07957688 0.11029831 0.111853264 -0.0069029834 0.034923274 0.09250508 -0.04643066
0.07462298 -0.09941245 0.1135741 0.06947608 -0.056742255 -0.068489365 0.08892579 -0.079514675
-0.022399578 -0.0835258 0.054717444 -0.058236036 -0.09354655 -0.04931306 -0.05875632 0.04855401
-0.0532843 -0.10663162 -0.11002196 0.059524175 0.04097243 -0.06236747 0.0656021 0.06964466
-0.014772283 -0.019517383 -0.12374016 -0.1045658 0.07281958 -0.10809059 -0.082607105 -0.08116074
0.008695122 0.051458757 0.022839282 0.049760792 -0.00345845 0.099873625 0.014888969 -0.021011343
0.097544126 -0.08721804 0.060870014 0.09570093 0.06272002 0.09517541 0.07051027 -0.049924567
-0.03309142 0.04146648 0.07150074 0.058888342 -0.093301125 -0.09162989 0.029520685 -0.11251426
-0.0063193953 0.08757433 -0.1053109 -0.09769263 -0.054909807 -0.08109816 0.067647584 -0.03185479
0.062522314 0.021252004 0.10877753 0.09039807 0.021589603 0.006696935 -0.023842469 0.07947209
-0.039926138 -0.092312366 0.102837734 0.043246053 0.08709519 -0.09529294 0.002523576 0.0101969205
-0.051803008 0.09839731 0.070533134 -0.0046897423 0.016379395 -0.081895545 0.048830204 0.067553625
0.08283047 0.021184323 0.04520651 -0.1109 -0.0031720796 0.019443518 -0.09230625 -0.040383413
0.08646656 0.064118415 0.0027269353 0.11464425 0.036073223 -0.10893284 -0.020786049 -0.0030793948
-0.02555769 0.08533767 -0.05807116 0.08414946 -0.0970438 0.018321794 -0.064673826 0.010767273
-0.00927175 -0.106532626 0.08525722 0.07225332 -0.043353952 0.091839544 0.036494564 -0.093389
-0.076849945 -0.0672156 -0.0009544342 -0.06372427 0.027072556 -0.047028758 0.039391648 0.011125703
00000000: 8e53 00bd 86a7 e4bd 7da9 973d 4d64 dfbd
00000010: 1337 19bc 90eb 5b3d cf33 143d 6b41 a23d
00000020: cf2d bc3d d1d3 6d3d 35aa 2e3d 8acc 75bd
00000030: 943f 2cbd fecf 86bd 3d33 f93a a065 e2bd
00000040: 7026 61bd fb71 0ebd a528 d73d 7bd3 b3bd
00000050: c8bc b1bd a998 c6bd 37e4 bdbd ea91 883c
00000060: 6ea6 08bd 90dc 373c 0d5d 8ebd 994d e4bd
00000070: c57f 34bd c3bb 803d 7577 5d3d 5b69 2f3b
00000080: a262 b1bd a25b 713c 4f50 033d 99c8 013c
00000090: 85aa 13bc 0827 f03c 9298 8ebd a92d 2b3d
000000a0: 86a5 a3bc 5521 abbd 6112 3bbd cd22 8d3d
000000b0: 61a8 fcbc b893 a9bd f97e 85bc 8481 b6bd
000000c0: eeec 5bbc 8aec 953c 118b ae3c 946b ef3d
000000d0: 3e88 d8bd 54a1 8a3d 42d7 513d 2990 493d
000000e0: e2a4 c5bd 5bae 30bd 7e21 613d b350 95bd
000000f0: a6ed ce3c afab 623d 699c 413c 2478 4fbc
00000100: 51d5 30bd 600a a9bd cabb 89bd 6d09 7d3d
00000110: 0765 a8bb b23b d03a e32c 61bd a227 803b
00000120: 7d95 00bd 8530 47bd 8eb0 8e3d 669e 7d3d
00000130: ad08 363d 1da8 f5bb fa54 97bd 6530 7fbd
00000140: d516 843d 7625 85bc 5fdc 893d 920f 843d
00000150: 24c7 d73a 9d6d b73d 37e2 e73d 03b7 d33b
00000160: 1f9c 96bd c818 8d3c a5e3 d9bc edf9 d7bd
00000170: f63f de3d 3a71 593d f77b aebc f809 e5bd
00000180: ba4b a5bd 7ab6 91bd 9b4c 783d ff25 a43c
00000190: bc20 8fbd bc1c 8ebd fce4 913c 9622 393d
000001a0: a54c 183d 263a c13c df69 a8bd e8ff 053d
000001b0: c583 a2bc fa1d 20bc e9a5 e9bc c06c 1e3d
000001c0: b2ac 97bb 51b6 c739 b90c ab3b 9b98 b53d
000001d0: 9655 48ba 4912 cbbc 5be4 74bd 34f4 b4bb
000001e0: b36b a93d 34f9 a2bd 15e4 e13d 5313 e53d
000001f0: 6c32 e2bb b50b 0f3d 4e73 bd3d 132e 3ebd
00000200: efd3 983d c198 cbbd 8a99 e83d 7a49 8e3d
00000210: 916a 68bd 2744 8cbd b91e b63d 97d8 a2bd
00000220: 527f b7bc 930f abbd 661f 603d e988 6ebd
00000230: 5595 bfbd 7efc 49bd 78aa 70bd 92e0 463d
00000240: a340 5abd ae61 dabd 3253 e1bd 9fcf 733d
00000250: b5d2 273d 0875 7fbd 655a 863d dca1 8e3d
00000260: 7207 72bc ebe2 9fbc 7b6b fdbd 9826 d6bd
00000270: 6f22 953d 995e ddbd ea2d a9bd 9a37 a6bd
00000280: fc75 0e3c 6bc6 523d 7219 bb3c f9d1 4b3d
00000290: 2aa7 62bb 8b8a cc3d ddf0 733c fb1f acbc
000002a0: 37c5 c73d 5f9f b2bd d652 793d d9fe c33d
000002b0: 5b73 803d 53eb c23d b067 903d b47d 4cbd
000002c0: de8a 07bd c1d8 293d fb6e 923d e734 713d
000002d0: a914 bfbd 74a8 bbbd 5dd5 f13c e06d e6bd
000002e0: ee12 cfbb 2c5a b33d 3ead d7bd 1313 c8bd
000002f0: 1be9 60bd cb16 a6bd d18a 8a3d 2b7a 02bd
00000300: b30b 803d af18 ae3c c1c6 de3d a022 b93d
00000310: aedc b03c f671 db3b 4851 c3bc 43c2 a23d
00000320: 9789 23bd 440e bdbd 979c d23d c622 313d
00000330: f75e b23d f228 c3bd 9462 253b fc10 273c
00000340: 642f 54bd 8784 c93d ad73 903d 69ac 99bb
00000350: 152e 863c dab8 a7bd 2e02 483d 8e59 8a3d
00000360: 05a3 a93d bf8a ad3c 762a 393d 8a1f e3bd
00000370: aae2 4fbb 0348 9f3c 0f0b bdbd 1469 25bd
00000380: 6115 b13d 8450 833d 62b6 323b 9bca ea3d
00000390: 84c1 133d 2e18 dfbd 8147 aabc accf 49bb
000003a0: 5c5e d1bc 84c5 ae3d 06dc 6dbd 8d56 ac3d
000003b0: e6be c6bd 9617 963c b673 84bd 3769 303c
000003c0: 8ae8 17bc c72d dabd 569b ae3d 8cf9 933d
000003d0: ea93 31bd 5f16 bc3d 537b 153d bb42 bfbd
000003e0: 8163 9dbd 55a8 89bd ff32 7aba df81 82bd
000003f0: 44c7 dd3c 3aa1 40bd 2359 213d 9548 363c
