mujoco_simulation/unified_scene/replans/replan_data/replan_ini_conveyor_5_20250302_174502/logs/2025_04_06_11_08_39/model_latest.pth (torch, 569302 bytes, 21 tensors)

tokenizing_net.0.weight f4 [128, 56]
-0.12556139 -0.0137886945 0.09605017 0.022248536 0.0641348 0.12241587 0.07212447 0.078330755
-0.07995844 -0.075951934 -0.021488342 0.13633384 0.09321937 -0.022598162 -0.03650538 0.12987149
0.10024133 0.08690049 -0.10728666 -0.124525405 -0.101381235 0.028232202 -0.07142637 -0.016181195
-0.096157305 0.08372832 0.013620685 0.09703697 0.0152301 -0.071457505 0.05609223 0.1286882
0.06833389 0.09136039 0.054313537 0.10641222 0.11188175 -0.11950963 0.11692766 0.054791965
-0.10156775 -0.081633456 -0.14847133 -0.0015941256 0.099781804 -0.10641645 0.02582596 -0.07883014
-0.045379255 0.108946666 -0.07282346 0.103406735 -0.0019683153 -0.12149366 -0.08810158 0.10498861
-0.0047613783 0.08580623 -0.11758905 -0.09126856 -0.08722659 0.11619253 -0.07697913 0.11246048
0.0913405 -0.022873577 0.05255027 0.06835734 -0.04821497 0.07602999 0.022050751 -0.113544434
0.058261864 -0.081178084 0.051492836 -0.052039746 0.092813715 -0.10100657 0.014311549 0.023605729
-0.11715014 -0.0773198 -0.049152974 -0.022379793 0.08875852 0.023560772 0.025362829 -0.007829758
0.023681702 0.08789835 0.09904537 0.010839519 0.13309297 -0.09005247 0.11698945 0.009108025
-0.110562846 -0.034949526 0.099252634 0.047242086 0.0064453897 0.013785255 -0.099363774 -0.009688701
-0.05524385 0.0733194 -0.064250834 0.095513545 -0.026334226 -0.016068934 -0.018827403 -0.08468866
0.11213256 -0.11669019 -0.07637008 -0.09765893 0.07453899 0.05410937 0.05589717 -0.023351151
-0.08549266 -0.09177658 0.0057797744 -0.018703034 0.047444988 0.07726676 0.111202374 -0.078580305
-0.012040699 0.0905685 0.046049345 -0.074962445 -0.12932454 0.09695463 0.002211116 -0.042517405
-0.09443182 0.0819782 -0.05887893 -0.03687804 -0.04176656 0.0786882 -0.12699278 0.08274646
0.014693651 -0.14012384 0.1298669 -0.045531858 -0.10928573 0.11691709 -0.12473751 -0.08800809
0.01991221 0.0962835 -0.13690789 -0.06318761 -0.0075562955 -0.11939898 0.07188732 0.09509244
0.1213749 0.022082072 -0.06084439 -0.0967937 -0.008385935 -0.026236357 -0.020679388 0.085082375
-0.049650665 -0.14418553 -0.09967377 0.18490776 0.041300148 -0.110001415 -0.0140271755 -0.009421671
-0.114680395 0.13137664 0.09427088 -0.06426628 0.0829225 0.1207585 -0.020750994 -0.039204042
-0.12322249 0.022069689 0.12308433 -0.024389055 -0.064695835 0.02181758 0.013703689 -0.0145109175
-0.041136745 0.030285211 -0.006829228 -0.026150385 -0.013841995 -0.02456886 -0.07532711 0.071353406
0.05300878 -0.076332554 0.09413735 0.06864087 0.08584983 0.1112564 -0.12959605 -0.060679037
0.016595356 0.04477324 -0.012324789 -0.0492693 -0.16776848 -0.061750166 -0.052798882 0.08243
-0.052716065 0.11154409 0.0725103 -0.08601006 0.012243763 -0.061102476 -0.10209744 -0.04456994
0.11212005 0.014342538 -0.08975942 -0.14906733 -0.09300603 -0.056035858 0.011689413 -0.09986142
0.07900882 0.06577551 0.024826333 0.08152408 0.042359043 0.06350208 3.786831e-05 -0.04245262
-0.013241647 -0.09200803 -0.101640366 -0.06373368 0.14087178 -0.0754191 -0.121094525 0.1092499
0.013414352 0.043697294 -0.046455894 -0.12233776 0.11657394 0.04170391 -0.066918105 0.0028215158
00000000: 2a93 00be fae9 61bc f4b5 c43d 9042 b63c
00000010: 1b59 833d 2cb5 fa3d feb5 933d e06b a03d
00000020: 40c1 a3bd b08c 9bbd 5208 b0bc 199b 0b3e
00000030: cce9 be3d c81f b9bc aa86 15bd 08fd 043e
00000040: 544b cd3d e2f8 b13d 1cb9 dbbd 2d07 ffbd
00000050: f7a0 cfbd 3847 e73c fd47 92bd 6d8e 84bc
00000060: 1fee c4bd c179 ab3d 4b29 5f3c 52bb c63d
00000070: ab87 793c 5058 92bd f7c0 653d d7c6 033e
00000080: a3f2 8b3d 281b bb3d df77 5e3d a6ee d93d
00000090: 4222 e53d 77c1 f4bd c577 ef3d 8a6d 603d
000000a0: c102 d0bd 712f a7bd de08 18be fbf1 d0ba
000000b0: 675a cc3d def0 d9bd f790 d33c b271 a1bd
000000c0: 99df 39bd 6e1f df3d 7724 95bd e9c6 d33d
000000d0: dafe 00bb abd1 f8bd 9a6e b4bd 4504 d73d
000000e0: 5605 9cbb 2dbb af3d 87d2 f0bd 03eb babd
000000f0: dba3 b2bd 59f6 ed3d 3ca7 9dbd ae51 e63d
00000100: ba10 bb3d 5e61 bbbc f43e 573d effe 8b3d
00000110: 0f7d 45bd 9db5 9b3d c7a3 b43c fc89 e8bd
00000120: fea3 6e3d b240 a6bd 27ea 523d a127 55bd
00000130: 1e15 be3d 88dc cebd fd7a 6a3c cd60 c13c
00000140: 6aec efbd d859 9ebd a154 49bd d455 b7bc
00000150: 07c7 b53d 8502 c13c b5c5 cf3c 6348 00bc
00000160: 2100 c23c 0d04 b43d 4dd8 ca3d 3d98 313c
00000170: 8649 083e 6e6d b8bd 2a98 ef3d d339 153c
00000180: c66e e2bd 3c27 0fbd f744 cb3d eb80 413d
00000190: d933 d33b 8ddb 613c 3c7f cbbd 5bbd 1ebc
000001a0: 6047 62bd 7b28 963d f195 83bd 9b9c c33d
000001b0: e0ba d7bc ffa2 83bc ed3b 9abc 4071 adbd
000001c0: c1a5 e53d 44fb eebd eb67 9cbd 6801 c8bd
000001d0: e6a7 983d c9a1 5d3d 6ef4 643d ea4a bfbc
000001e0: c716 afbd 5cf5 bbbd 4364 bd3b 1b37 99bc
000001f0: ad55 423d 093e 9e3d 12be e33d b6ee a0bd
00000200: 5a46 45bc fa7b b93d 3d9e 3c3d e985 99bd
00000210: a76d 04be 2690 c63d 5fe8 103b bb26 2ebd
00000220: 7865 c1bd 30e4 a73d 082b 71bd 6d0d 17bd
00000230: 6a13 2bbd 4727 a13d 650a 02be fa76 a93d
00000240: a4bd 703c a07c 0fbe d4fb 043e 9d7f 3abd
00000250: 32d1 dfbd 3a72 ef3d 6176 ffbd 963d b4bd
00000260: ee1e a33c 4930 c53d 9531 0cbe 8168 81bd
00000270: cd9a f7bb 7487 f4bd a939 933d d3bf c23d
00000280: 6793 f83d 76e5 b43c f837 79bd c63b c6bd
00000290: 2965 09bc a1ed d6bc d267 a9bc ab3f ae3d
000002a0: 7f5e 4bbd 5fa5 13be c321 ccbd 7658 3d3e
000002b0: 582a 293d 6c48 e1bd 3dd2 65bc 5a5d 1abc
000002c0: 8edd eabd 9987 063e 1711 c13d 0a9e 83bd
000002d0: 46d3 a93d 3c50 f73d fdfd a9bc 6b94 20bd
000002e0: 135c fcbd 7ecb b43c a313 fc3d 8ecb c7bc
000002f0: 407f 84bd c8ba b23c 7085 603c 33bf 6dbc
00000300: 017f 28bd b118 f83c b7c7 dfbb 5539 d6bc
00000310: 89c9 62bc a244 c9bc 1a45 9abd bc21 923d
00000320: bc1f 593d 3e54 9cbd 15cb c03d 9693 8c3d
00000330: 09d2 af3d 65da e33d d4b4 04be 958a 78bd
00000340: fcf2 873c 2564 373d e9ed 49bc 9bce 49bd
00000350: 80cb 2bbe beed 7cbd a443 58bd 0fd1 a83d
00000360: cdec 57bd 3a71 e43d 4880 943d 0b26 b0bd
00000370: 109a 483c 9746 7abd 7618 d1bd f88e 36bd
00000380: 329f e53d f7fc 6a3c c9d3 b7bd 1ba5 18be
00000390: f279 bebd db85 65bd f484 3f3c 2584 ccbd
000003a0: 60cf a13d 50b5 863d 9860 cb3c 19f6 a63d
000003b0: ad80 2d3d 610d 823d cad4 1e38 cce2 2dbd
000003c0: 7ef3 58bc b56e bcbd d328 d0bd ce86 82bd
000003d0: b140 103e 5475 9abd 6800 f8bd 69be df3d
000003e0: dfc7 5b3c effb 323d 8948 3ebd 388c fabd
000003f0: 51be ee3d b8d1 2a3d 5c0c 89bd 2ee9 383b

tokenizing_net.0.bias f4 [128]
-0.10178198 0.09778282 0.06221432 0.03300973 -0.0525409 -0.097402036 -0.036462657 0.04802998
-0.1125808 -0.013852792 0.034869045 0.09825164 -0.056109335 -0.11805144 -0.09733287 0.09949814
0.13528991 -0.07616255 -0.02304085 0.12248087 -0.10820396 0.034175716 -0.028245933 0.024554973
0.12215394 0.00042743143 -0.09214862 0.015037228 0.09411953 -0.029335462 -0.07370243 -0.0017380044
0.11785571 0.013682185 -0.059332836 -0.028659185 -0.086140804 0.10309504 -0.010382935 0.0506971
0.087786496 0.07094574 0.01528916 -0.031469483 -0.013234385 -0.06276085 -0.09698508 -0.08642554
0.01513449 0.051296078 0.10016283 0.06842474 0.024841927 -0.09825486 0.065039225 -0.12743741
0.025427487 -0.034481693 -0.035233382 0.033212587 0.011857303 -0.014906057 -0.07818933 -0.057750177
-0.09047662 0.09964255 -0.059829473 0.07667605 -0.014713845 0.0008828949 0.07686168 0.0447875
-0.06370022 -0.025054429 0.058176782 -0.04651863 -0.07187568 0.067249246 -0.06859447 -0.09008074
0.053289376 0.012300409 0.061293196 0.00651083 0.07751257 -0.054004457 -0.0014601032 0.08726534
-0.0210736 0.12868352 0.051906332 0.095537834 -0.1148202 -0.08328287 -0.09848821 0.13038163
-0.08274786 0.10326204 0.059250034 -0.11315984 -0.0623624 -0.016544294 -0.08171713 -0.10176682
0.1045761 -0.032844704 0.1264002 -0.015236112 0.044456128 -0.05623592 0.052459367 0.065980986
0.009114183 0.10352477 -0.0056497557 0.0038326033 0.054735523 -0.108390264 -0.042303707 0.038427927
0.026750186 -0.105950765 -0.078544036 -0.058540512 -0.05047198 -0.099968664 -0.06386596 -0.0004955354
00000000: 1273 d0bd 5c42 c83d 71d4 7e3d 3635 073d
00000010: 2035 57bd b87a c7bd de59 15bd 16bb 443d
00000020: c390 e6bd d2f6 62bc d8d2 0e3d 2838 c93d
00000030: e7d2 65bd f4c4 f1bd 7556 c7bd aec5 cb3d
00000040: 7089 0a3e 1cfb 9bbd 2ac0 bcbc 40d7 fa3d
00000050: 0a9a ddbd d6fb 0b3d 0464 e7bc 8327 c93c
00000060: d82b fa3d e018 e039 6ab8 bcbd b55e 763c
00000070: bdc1 c03d ec50 f0bc 4df1 96bd c0cd e3ba
00000080: 565e f13d 3e2b 603c fd06 73bd abc6 eabc
00000090: 976a b0bd 7e23 d33d 301d 2abc c3a7 4f3d
000000a0: 68c9 b33d 004c 913d 637f 7a3c 25e6 00bd
000000b0: 09d5 58bc c388 80bd 1da0 c6bd e0ff b0bd
000000c0: a7f6 773c d61b 523d 2b22 cd3d 4522 8c3d
000000d0: 4c81 cb3c d839 c9bd 4933 853d f47e 02be
000000e0: 4e4d d03c ad3c 0dbd e150 10bd ec09 083d
000000f0: 2245 423c 8938 74bc ba21 a0bd 738b 6cbd
00000100: ce4b b9bd 6511 cc3d c00f 75bd 5508 9d3d
00000110: 5712 71bc 1372 673a a869 9d3d 1973 373d
00000120: 4375 82bd f23e cdbc c74a 6e3d 528a 3ebd
00000130: 8e33 93bd f9b9 893d 427b 8cbd 407c b8bd
00000140: f645 5a3d a887 493c 930e 7b3d cd58 d53b
00000150: e9be 9e3d c733 5dbd ef60 bfba 2cb8 b23d
00000160: 8ba2 acbc 9dc5 033e bc9b 543d 57a9 c33d
00000170: da26 ebbd 3690 aabd 30b4 c9bd c382 053e
00000180: b677 a9bd 0c7b d33d 2ab0 723d 59c0 e7bd
00000190: b76f 7fbd e687 87bc 505b a7bd 1f6b d0bd
000001a0: ff2b d63d 2b88 06bd 0e6f 013e e3a0 79bc
000001b0: a117 363d a357 66bd a2df 563d 0a21 873d
000001c0: a753 153c cb04 d43d 9621 b9bb 6a2c 7b3b
000001d0: 5b32 603d b7fb ddbd a746 2dbd 9a66 1d3d
000001e0: 3523 db3c b7fc d8bd b2db a0bd 2dc8 6fbd
000001f0: b5bb 4ebd 5fbc ccbd 28cc 82bd d1e6 01ba

tokenizing_net.1.weight f4 [128]
1.0117826 0.9935068 0.98972416 1.0071969 1.0186874 1.0015024 1.0021595 1.0070704
1.0000103 0.9904638 0.9945037 0.99379784 1.0065963 0.9845315 0.99709266 1.0195
1.0041994 0.98745054 0.9989479 0.9785586 0.9857563 0.9958581 0.99747324 1.0009723
0.992673 1.0093423 0.9871112 0.9902965 0.9897816 1.0063353 1.0092188 1.0030336
0.9958605 0.9857081 0.9966378 0.9900338 0.99905235 0.9915711 1.0048547 1.0099715
0.995476 1.0031875 0.9866418 0.9849811 0.99951684 0.99787325 0.99195004 0.9959885
1.0001788 1.0050712 1.0088277 1.0017229 0.9907459 1.0064213 0.9984975 0.9900839
1.0003927 1.0090252 1.0066966 1.0174323 0.99207574 0.9836052 1.0212935 1.0031854
1.014394 0.99301887 0.9937072 0.9991034 0.9903728 0.9871933 0.993371 1.0011337
0.98645335 1.0220951 1.0116779 1.0087042 1.0034726 1.0014968 0.99453825 1.0121708
0.99311787 1.0151474 1.0051131 0.9907092 0.9939753 0.98407567 1.0057535 1.0406877
1.0023798 0.997171 0.9988426 0.9912986 1.0560585 1.0036604 1.0014875 0.9946415
1.0126741 1.0096562 1.0479228 1.0133866 0.9876095 1.0059538 0.9961527 0.99961793
0.9950432 1.0023967 0.996274 0.99029213 1.0077658 1.0256206 0.9970383 0.9933344
0.99459 0.9948861 1.002168 0.9959095 0.99217016 0.9907657 1.0103606 1.019194
0.972324 1.0058486 1.014125 1.0065522 1.014096 0.99095947 1.0347698 1.0042144
00000000: 1882 813f 7656 7e3f 905e 7d3f d4eb 803f
00000010: 5964 823f 3b31 803f c346 803f afe7 803f
00000020: 5600 803f 098f 7d3f cb97 7e3f 8969 7e3f
00000030: 26d8 803f 420a 7c3f 7741 7f3f fa7e 823f
00000040: 9b89 803f 8fc9 7c3f 0dbb 7f3f d182 7a3f
00000050: 865a 7c3f 8ef0 7e3f 685a 7f3f dc1f 803f
00000060: d11f 7e3f 2132 813f 52b3 7c3f 1284 7d3f
00000070: 5462 7d3f 98cf 803f 152e 813f 6863 803f
00000080: b7f0 7e3f 5e57 7c3f a823 7f3f db72 7d3f
00000090: e5c1 7f3f 9bd7 7d3f 149f 803f bf46 813f
000000a0: 84d7 7e3f 7368 803f 8f94 7c3f b927 7c3f
000000b0: 56e0 7f3f 9f74 7f3f 70f0 7d3f 1af9 7e3f
000000c0: dc05 803f 2ca6 803f 4421 813f 7538 803f
000000d0: 86a1 7d3f 6ad2 803f 889d 7f3f 2376 7d3f
000000e0: de0c 803f bd27 813f 6fdb 803f 393b 823f
000000f0: adf8 7d3f 8dcd 7b3f bfb9 823f 6168 803f
00000100: aad7 813f 7c36 7e3f 9863 7e3f 3ec5 7f3f
00000110: 1289 7d3f b3b8 7c3f 904d 7e3f 2625 803f
00000120: 3588 7c3f 03d4 823f a97e 813f 381d 813f
00000130: ca71 803f 0c31 803f 0f9a 7e3f d08e 813f
00000140: f93c 7e3f 5af0 813f 8ca7 803f 1e9f 7d3f
00000150: 2a75 7e3f 62ec 7b3f 88bc 803f 4135 853f
00000160: fb4d 803f 9946 7f3f 26b4 7f3f bfc5 7d3f
00000170: ed2c 873f f277 803f be30 803f d3a0 7e3f
00000180: 4e9f 813f 6a3c 813f 5622 863f a7b6 813f
00000190: fad3 7c3f 18c3 803f dd03 7f3f f6e6 7f3f
000001a0: 27bb 7e3f 894e 803f d00b 7f3f c983 7d3f
000001b0: 78fe 803f 8947 833f e73d 7f3f 2a4b 7e3f
000001c0: 739d 7e3f dbb0 7e3f 0b47 803f edf3 7e3f
000001d0: ddfe 7d3f d2a2 7d3f 7f53 813f f374 823f
000001e0: 3aea 783f a6bf 803f d9ce 813f b4d6 803f
000001f0: e6cd 813f 85af 7d3f 5673 843f 198a 803f

tokenizing_net.1.bias f4 [128]
-0.0034569271 -0.01111885 -0.015083732 -0.008425639 0.0044174427 0.009110182 0.007254315 -0.010835817
0.0024405187 -0.0035596448 -0.010133249 -0.006709729 0.00692754 0.009817403 0.006590327 -0.0021689252
0.0041505634 0.012064916 -0.010835948 0.015906122 -0.008547111 -0.01200156 -0.008984274 -0.005359763
0.0006798809 0.004269201 0.012957057 0.01368703 -0.009277144 0.0061465427 0.0046488186 0.0012138125
-0.0058155796 -0.0066762324 0.008225967 0.011814148 -0.009972039 -0.0074195215 -0.0008670193 -0.0046432307
-0.011909237 0.0031265873 0.0110172825 0.009935453 -0.007874008 -0.0043274066 0.0051470776 0.0016379278
0.0069868765 0.0029341897 -0.005421712 0.0046049557 -0.004009226 0.0018179452 0.010110378 -0.010730853
-0.006674288 -0.012109251 -0.0031866278 0.002487603 0.013516127 -0.020769544 -0.004892933 -0.00822561
0.010909272 -0.019236755 0.007575452 0.005790788 -0.00829012 0.004303797 -0.010333738 0.0029193428
0.0045528766 -0.00085669046 0.0021312179 0.012460706 0.0017082918 -0.0011060425 0.009839125 -0.0009472222
-0.008898268 -0.004955482 0.008166733 -0.0067354427 0.0077365357 0.0109711625 0.0041654487 -0.0036659625
0.01006457 0.0054720896 -0.0034415573 0.00790838 0.0020474074 0.007071535 -0.008358329 0.0013373791
0.0016183857 -0.0045258794 -0.0027399417 0.0030394676 -0.01215215 0.0005326114 -0.0034734185 0.004067358
0.0068293153 -0.0025575703 -0.0032737372 -0.0016307734 -0.0013941255 0.004636217 0.003955934 -0.012782505
-0.0038897302 -0.0063139275 0.0012757748 -0.003251872 -0.0011467157 -0.009289833 0.0011951112 -0.004654528
0.012845879 0.005785823 -0.0007735157 0.0060881777 0.003461822 -0.015001501 0.0020128489 -0.004903592
00000000: 9d8d 62bb d62b 36bc c221 77bc b10b 0abc
00000010: 32c0 903b df42 153c 9bb5 ed3b b688 31bc
00000020: 1cf1 1f3b ee48 69bb ed05 26bc 49dd dbbb
00000030: 6b00 e33b 2cd9 203c abf3 d73b 8724 0ebb
00000040: 7301 883b edab 453c 4389 31bc 8e4d 823c
00000050: 2f09 0cbc 31a2 44bc c732 13bc f3a0 afbb
00000060: 093a 323a a7e4 8b3b d649 543c 913f 603c
00000070: 2aff 17bc f068 c93b 1e55 983b ca18 9f3a
00000080: 9e90 bebb 4cc4 dabb 35c6 063c 2190 413c
00000090: c361 23bc 751f f3bb ae48 63ba 3e26 98bb
000000a0: f61e 43bc 6ee7 4c3b d581 343c 4fc8 223c
000000b0: fc01 01bc ebcc 8dbb d1a8 a83b bdaf d63a
000000c0: 2bf2 e43b 894b 403b 9ea8 b1bb 2be5 963b
000000d0: d35f 83bb 1e48 ee3a 00a6 253c 76d0 2fbc
000000e0: fcb3 dabb e165 46bc bed6 50bb 0e07 233b
000000f0: bf72 5d3c e424 aabc e654 a0bb b5c4 06bc
00000100: cebc 323c 6696 9dbc 7f3b f83b a7c0 bd3b
00000110: 49d3 07bc de06 8d3b d74e 29bc 7252 3f3b
00000120: 4c30 953b 8693 60ba e7ab 0b3b fd27 4c3c
00000130: c3e8 df3a a1f8 90ba 4834 213c 014f 78ba
00000140: 0bca 11bc 9961 a2bb c3cd 053c fdb4 dcbb
00000150: c482 fd3b 64c0 333c 517e 883b a540 70bb
00000160: dee5 243c 374f b33b c08b 61bb 2692 013c
00000170: cc2d 063b 56b8 e73b 5ff1 08bc ff4a af3a
00000180: 0320 d43a d44d 94bb 9890 33bb ce31 473b
00000190: d019 47bc f29e 0b3a 4ba2 63bb 7947 853b
000001a0: 73c8 df3b e99c 27bb 328c 56bb adbf d5ba
000001b0: 17bb b6ba 68eb 973b c8a0 813b b66d 51bc
000001c0: d8ea 7ebb 10e5 cebb e637 a73a 5c1d 55bb
000001d0: 654d 96ba 6234 18bc 47a5 9c3a 0385 98bb
000001e0: 8677 523c 0097 bd3b c3c5 4aba 567f c73b
000001f0: bcdf 623b dbc8 75bc 00ea 033b 50ae a0bb

regression_net.0.weight f4 [128, 128]
-0.024842652 0.012448667 -0.070505075 0.0021259596 -0.062337965 0.07725456 0.009958821 -0.085757695
-6.29903e-05 -0.093855076 -0.089065716 -0.01879751 0.081780896 -0.04817819 -0.013663142 -0.023113394
-0.00510121 0.040117186 -0.06403054 -0.031365003 -0.022424525 -0.0058425236 -0.072142616 -0.044762198
-0.048307203 0.0342833 0.037571415 0.07210631 -0.0790442 0.07645644 0.05554136 0.09997004
0.08301459 -0.0813078 0.06579495 -0.028764348 -0.09746704 -0.057464287 -0.042533003 -0.019260122
-0.024316052 0.04932407 -0.014526328 0.011254236 -0.03231127 -0.07312703 0.022905111 -0.06294402
-0.09121178 -0.07780693 -0.062412158 -0.06464765 -0.08439952 0.07212197 -0.0060579567 -0.033713352
0.010931277 -0.009885213 0.02205104 -0.013810557 0.0861619 0.06390886 -0.010448678 -0.0558988
0.07428254 -0.0873208 -0.043295562 -0.01060377 0.07321921 0.04676875 0.024807347 0.027557654
0.048434447 0.058887303 -0.04145223 -0.06184084 0.037847396 0.037326023 -0.07146302 0.013414374
0.007732459 0.062351525 0.033923212 -0.03285172 0.0368431 -0.01631048 -0.035695843 0.018575167
-0.08955771 0.07936614 0.03182645 -0.04493883 0.07635344 -0.019877816 0.026319792 0.017212775
0.029408166 0.04945619 -0.034334682 -0.062077474 0.012369539 0.040205553 -0.010821393 0.046564724
-0.043127757 -0.007309274 0.07304026 0.043181293 -0.007438108 -0.06959702 0.049339388 0.035044525
0.047891263 -0.04088155 0.057898767 -0.064068615 -0.0670957 -0.066846296 0.0027044495 -0.07557566
-0.050166246 -0.05458693 -0.020891272 0.07396127 0.053131595 -0.0027738744 0.038650643 0.02707032
0.010362986 -0.015101826 -0.0035236867 0.06765254 0.07382041 0.06556897 0.062163465 0.030507654
0.087168284 0.009035912 -0.06316035 0.07074755 -0.078135446 0.025287163 -0.048959974 0.09658328
-0.036251746 0.022378838 0.06357563 -0.04024094 -0.05837331 -0.024222333 -0.05072124 -0.082485974
-0.066786006 0.0024295256 -0.049591586 -0.07528165 -0.06591866 -0.051196326 0.026451044 0.033528894
-0.0033741829 -0.013567694 -0.0045620054 -0.012212919 0.072186545 -0.049380857 -0.030235292 0.083291925
0.04230388 0.044515535 -0.043571234 -0.07140001 -0.0698149 0.0006207905 -0.061498936 -0.044956032
-0.08064316 -0.08686688 -0.061763186 0.061602876 0.039144147 0.005241223 0.06480123 -0.01957969
-0.08055263 0.0043829177 0.01654963 -0.039617874 -0.030107452 -0.06115322 0.06838739 0.036852688
0.009911377 -0.0032740498 -0.055506054 -0.03359577 0.081819504 0.0025456788 0.09209459 0.0404795
0.08638814 -0.026463265 -0.08009493 0.01837643 0.011578217 -0.06390803 -0.035448212 -0.052939203
-0.010822269 0.0072592665 -0.05276061 -0.037213758 -0.04064523 0.064146645 -0.039272025 0.04269129
-0.00560682 -0.028024983 -0.041431934 -0.04832496 0.0017476825 0.024514318 0.060290962 0.043153867
0.050137844 -0.07426169 0.07767086 -0.08860998 -0.043381482 -0.028802045 -0.10234164 -0.039743725
-0.013275804 -0.049850482 0.013097609 0.045491233 -0.04578952 0.02242997 -0.040403035 -0.026066909
0.037972692 0.06654357 -0.06854988 -0.07852073 -0.022340074 -0.00956373 0.048442505 0.037097756
0.027018728 -0.084125035 0.018026527 0.057399794 0.021201232 0.046414796 -0.032746453 0.07954326
00000000: d182 cbbc 7ef5 4b3c f764 90bd af53 0b3b
00000010: 1856 7fbd a437 9e3d 532a 233c bba1 afbd
00000020: a919 84b8 1737 c0bd 1668 b6bd 3cfd 99bc
00000030: be7c a73d 7e56 45bd 5fdb 5fbc 4d58 bdbc
00000040: 0d28 a7bb eb51 243d 7222 83bd 9778 00bd
00000050: a3b3 b7bc a472 bfbb 82bf 93bd 9158 37bd
00000060: c6dd 45bd a56c 0c3d 7ce4 193d 79ac 933d
00000070: ede1 a1bd 3295 9c3d 567f 633d 18bd cc3d
00000080: 8e03 aa3d b484 a6bd 81bf 863d 36a3 ebbc
00000090: cd9c c7bd ac5f 6bbd 1637 2ebd 67c7 9dbc
000000a0: 7532 c7bc 0908 4a3d d6ff 6dbc b063 383c
000000b0: d258 04bd a0c3 95bd 80a3 bb3c cbe8 80bd
000000c0: 3ecd babd 3d59 9fbd e4a3 7fbd fd65 84bd
000000d0: a8d9 acbd afb4 933d d381 c6bb 0317 0abd
000000e0: 1919 333c 97f5 21bc 62a4 b43c ad45 62bc
000000f0: a675 b03d a6e2 823d ef30 2bbc 24f6 64bd
00000100: 7221 983d 3fd5 b2bd b056 31bd 6fbb 2dbc
00000110: f4f3 953d 9790 3f3d c738 cb3c 97c0 e13c
00000120: 3363 463d d033 713d d0c9 29bd d24c 7dbd
00000130: df05 1b3d 2ce3 183d 345b 92bd f6c7 5b3c
00000140: 9160 fd3b 5064 7f3d 11f3 0a3d 868f 06bd
00000150: cae8 163d 8e9d 85bc ce35 12bd f32a 983c
00000160: 086a b7bd b78a a23d 745c 023d c711 38bd
00000170: 315f 9c3d cdd6 a2bc 9b9c d73c ce01 8d3c
00000180: 65e9 f03c 9392 4a3d 86a2 0cbd f344 7ebd
00000190: 9ba9 4a3c 94ae 243d 364c 31bc a7ba 3e3d
000001a0: bba6 30bd a282 efbb 2296 953d dede 303d
000001b0: 5fbb f3bb e288 8ebd 1918 4a3d d98a 0f3d
000001c0: a129 443d 6a73 27bd 4227 6d3d 6836 83bd
000001d0: 7869 89bd b6e6 88bd 223d 313b 69c7 9abd
000001e0: 1f7b 4dbd 8b96 5fbd 2c24 abbc 0279 973d
000001f0: 84a0 593d e4c9 35bb 2350 1e3d 93c2 dd3c
00000200: 83c9 293c a66d 77bc a7ed 66bb 6a8d 8a3d
00000210: 282f 973d 0649 863d 1e9f 7e3d 30eb f93c
00000220: 4985 b23d 5d0b 143c 375a 81bd 17e4 903d
00000230: 7a05 a0bd 0627 cf3c 418a 48bd 74cd c53d
00000240: b67c 14bd d353 b73c f133 823d afd3 24bd
00000250: da18 6fbd ea6d c6bc 13c1 4fbd 68ee a8bd
00000260: 1ac7 88bd ad38 1f3b 8c20 4bbd 442d 9abd
00000270: 5d00 87bd 3db3 51bd dcaf d83c 9855 093d
00000280: 6521 5dbb 094b 5ebc e07c 95bb b218 48bc
00000290: 8ad6 933d 9543 4abd 01b0 f7bc f594 aa3d
000002a0: d546 2d3d ec55 363d c077 32bd 2b3a 92bd
000002b0: 1dfb 8ebd 8cbc 223a 4fe6 7bbd d123 38bd
000002c0: 3e28 a5bd 43e7 b1bd 65fb 7cbd 4c53 7c3d
000002d0: 9d55 203d 91be ab3b 82b6 843d 9665 a0bc
000002e0: c7f8 a4bd 949e 8f3b 1793 873c 5a46 22bd
000002f0: e7a3 f6bc cc7b 7abd b00e 8c3d d8f2 163d
00000300: 5463 223c 7191 56bb 515a 63bd b89b 09bd
00000310: fc90 a73d 67d5 263b 179c bc3d d5cd 253d
00000320: 44ec b03d 7dc9 d8bc d008 a4bd 2b8a 963c
00000330: 90b2 3d3c 37e2 82bd 2532 11bd c7d6 58bd
00000340: e34f 31bc 24df ed3b 821b 58bd 746d 18bd
00000350: 9d7b 26bd 515f 833d b4db 20bd 10dd 2e3d
00000360: 6ab9 b7bb a694 e5bc 88b4 29bd 65f0 45bd
00000370: 7e12 e53a 40d2 c83c a8f3 763d 1cc2 303d
00000380: 575d 4d3d 8316 98bd e611 9f3d 2679 b5bd
00000390: c8b0 31bd 44f2 ebbc 7e98 d1bd 51ca 22bd
000003a0: c282 59bc 0530 4cbd 5b97 563c 0455 3a3d
000003b0: cb8d 3bbd 0ebf b73c a77d 25bd 458a d5bc
000003c0: 4189 1b3d ff47 883d e163 8cbd 7acf a0bd
000003d0: 8802 b7bc 31b1 1cbc a66b 463d d1f3 173d
000003e0: 6156 dd3c bf49 acbd 5eac 933c 0c1c 6b3d
000003f0: 35ae ad3c 711d 3e3d 2521 06bd 94e7 a23d

regression_net.0.bias f4 [128]
-0.096118376 -0.012145507 0.008200197 0.048404176 -0.08168447 0.023606963 0.028676806 -0.060271565
-0.009273583 0.0070997495 -0.049775396 -0.02862356 0.0018106936 -0.032270018 0.03739302 -0.019879544
-0.087830044 -0.06215702 -0.07325221 -0.020029815 0.06929335 0.073677644 0.069152795 -0.064982615
-0.01825755 0.022505911 -0.07409491 -0.0004261485 0.03978107 -0.051114872 0.03568596 0.04476039
0.009339331 -0.08185464 0.064202964 -0.055961438 0.014670721 0.060120385 0.07636142 0.013069308
-0.064652435 0.033522036 0.058217827 0.015491703 0.014938681 0.011457695 0.04153233 -0.08468054
0.03369409 -0.052612867 0.056622133 0.06901709 -0.0511432 -0.014470689 -0.054173794 -0.07369539
0.054933183 0.047929354 0.020798346 -0.037082367 0.08276432 0.012808321 -0.034574747 -0.041735534
-0.05113151 -0.01620562 -0.050162975 -0.018302195 -0.079079434 0.022828747 -0.041394357 -0.07912833
0.06136732 -0.056721404 0.05637445 0.027903682 -0.018079735 -0.080315314 0.0137578575 -0.057201803
-0.025450429 0.018565882 -0.048835248 -0.05818828 0.017120732 -0.05462104 0.052603047 0.08374904
-0.058620077 0.020041201 0.02096615 -0.0074780756 0.05903248 0.036370542 -0.07201955 -0.026003534
0.013202703 -0.030046593 0.076173626 0.055403102 0.034845915 -0.0736901 -0.084531404 0.0123706125
-0.07642389 0.08299741 0.041983623 0.0069823028 -0.000142079 0.034515474 -0.083669424 -0.08653923
0.037011098 0.069482625 -0.0123142 -0.026568111 -0.05751881 0.0045616627 0.021743871 0.07663604
-0.054939874 0.064423226 -0.037685 0.06532889 -0.02378896 -0.040028382 -0.050156794 -0.010617087
00000000: b6d9 c4bd f3fd 46bc 1e5a 063c 7543 463d
00000010: 304a a7bd 6463 c13c 9feb ea3c 51df 76bd
00000020: 3af0 17bc 04a5 e83b 49e1 4bbd f57b eabc
00000030: cc54 ed3a 912d 04bd 6c29 193d 6dda a2bc
00000040: 3de0 b3bd 5c98 7ebd 4105 96bd 9115 a4bc
00000050: ace9 8d3d 4ee4 963d fb9f 8d3d 9b15 85bd
00000060: dc90 95bc 515e b83c 12bf 97bd af6c dfb9
00000070: 7af1 223d d45d 51bd 712b 123d ac56 373d
00000080: fe03 193c 68a3 a7bd d87c 833d d237 65bd
00000090: 775d 703c cb40 763d 6063 9c3d a720 563c
000000a0: 7f68 84bd 674e 093d d175 6e3d e9d0 7d3c
000000b0: 5fc1 743c 0eb9 3b3c ce1d 2a3d fe6c adbd
000000c0: d002 0a3d 9780 57bd 9cec 673d d558 8d3d
000000d0: 887b 51bd 7816 6dbc 57e5 5dbd 9ced 96bd
000000e0: 9e01 613d 9251 443d 4b61 aa3c aee3 17bd
000000f0: 5780 a93d fed9 513c 409e 0dbd e1f2 2abd
00000100: 466f 51bd a6c1 84bc b177 4dbd 7cee 95bc
00000110: 66f4 a1bd 5a03 bb3c 218d 29bd 090e a2bd
00000120: 4d5c 7b3d b454 68bd e5e8 663d 4396 e43c
00000130: f41b 94bc 5b7c a4bd a368 613c 704c 6abd
00000140: 6b7d d0bc 7a17 983c 7807 48bd d556 6ebd
00000150: c740 8c3c 50ba 5fbd 4b76 573d 9e84 ab3d
00000160: 9b1b 70bd 722d a43c 34c1 ab3c a50a f5bb
00000170: 0bcc 713d 47f9 143d fc7e 93bd 5d05 d5bc
00000180: 2650 583c 4624 f6bc eb00 9c3d 5dee 623d
00000190: 97ba 0e3d d6ea 96bd cd1e adbd 1cae 4a3c
000001a0: 2184 9cbd 8cfa a93d 05f7 2b3d cdcb e43b
000001b0: 0bfb 14b9 1960 0d3d e05a abbd 7b3b b1bd
000001c0: f398 173d e84c 8e3d 80c1 49bc 5ea5 d9bc
000001d0: d898 6bbd 007a 953b 3420 b23c 5bf3 9c3d
000001e0: a208 61bd 53f0 833d 965b 1abd 27cb 853d
000001f0: 11e1 c2bc cdf4 23bd 3671 4dbd 4af3 2dbc

regression_net.2.weight f4 [128, 128]
-0.031390265 -0.051758558 -0.022456042 0.043340947 -0.009984083 0.023200175 -0.0122460425 0.02330041
-0.06360075 0.013489557 0.017545788 0.044638492 -0.07206313 -0.064030744 0.08453532 -0.040229127
-0.07033022 -0.08216709 0.03435734 -0.046296705 -0.0376042 0.06391477 0.089669906 -0.06901871
0.07380054 -0.057539027 0.05119191 -0.07761274 0.00022228247 0.00018112916 0.011773347 0.06441071
-0.08196191 0.05007834 0.06348906 -0.059800096 0.048501726 -0.085120074 -0.00083390827 -0.041550178
0.027144074 0.055492688 0.068212256 -0.022939678 0.045761887 0.01006964 -0.057358645 -0.06252263
-0.08035404 -0.030214082 -0.06734189 0.077896155 -0.043465614 -0.049601234 -0.02173823 -0.0029936167
0.075792864 0.0060449434 0.026225025 -0.08389551 0.005915194 -0.0041812295 -0.016174192 -0.06249024
-0.00974529 -0.080905356 -0.07746638 0.06605484 -0.04056298 0.035488367 -0.043314807 0.012851296
-0.03329968 -0.009745903 0.03841017 -0.015828088 -0.002138147 -0.087605655 -0.046798084 -0.002586389
-0.049618274 0.008967505 0.06660171 -0.06072087 0.020831592 -0.06463806 0.016215231 -0.05527349
-0.060041633 0.015897384 -0.03364611 -0.06968584 0.02877269 0.06525784 0.03699863 0.033977
-0.040555682 -0.087278485 0.005572943 0.06814616 0.09704518 -0.08718519 0.014023516 -0.0007259835
-0.024311978 -0.004292123 0.053637758 -0.050656833 -0.04271359 0.07933941 0.031044923 0.028593823
-0.0003817368 0.010847609 -0.001359009 -0.0533369 -0.066407144 0.08411814 -0.044448305 -0.059758227
-0.01761442 -0.013838975 -0.004000457 -0.05560907 0.0792587 -0.091612056 -0.048715055 0.05659164
-0.049975358 -0.036267653 -0.02036397 0.004743078 -0.055077046 0.084593 -0.030329673 0.01376203
0.078300565 0.08774673 -0.0064867362 0.066755176 -0.07897484 0.06722095 0.020540234 0.06685462
0.016200874 0.00834174 0.04853515 0.024216942 0.03138913 0.02083166 -0.016017942 -0.09523317
-0.021076865 0.009611175 -0.010685349 0.05841272 0.03066888 0.027563192 -0.036108855 0.063873336
-0.0015027588 0.003914724 -0.07545248 0.02233469 0.07152451 -0.0049589328 0.068273455 0.012242584
0.08752211 -0.010753973 -0.06474406 0.0425439 -0.06465717 -0.0017644658 0.09058071 0.0551956
-0.026004072 -0.047172192 -0.093754835 0.057541966 -0.078279436 0.05733421 -0.07143825 0.039522305
-0.059472952 0.06846509 0.020217007 0.10788457 0.005114487 -0.06079426 -0.007876364 -0.07098224
-0.04831607 -0.03543788 -0.054988492 -0.027903406 0.04364278 -0.036042765 0.06267502 0.057066854
0.029231524 0.058767594 -0.061540954 -0.035463657 -0.024389174 0.085673496 0.07095161 0.085938945
-0.032702472 -0.054667402 -0.06743752 0.029639164 -0.07511868 -0.034728963 -0.0024507467 -0.06226315
0.067561075 -0.053410195 0.08637362 0.029990466 -0.031276513 0.04263133 -0.000423865 -0.0031189974
-0.0695099 0.06582022 -0.06964443 0.05376795 0.03554593 0.0656349 -0.06584974 -0.02571275
-0.06039633 0.083724976 -0.008343459 -0.023945171 -0.035645686 0.08226401 0.010730173 -0.061467364
0.013111947 0.07166385 0.010396095 -0.03286172 0.078710854 -0.061010648 -0.058059685 0.032855358
-0.055530947 -0.03997334 0.055454962 -0.032209493 0.074722886 0.061241236 0.051215343 0.05444862
00000000: 1493 00bd c800 54bd bcf5 b7bc 4786 313d
00000010: 4794 23bc 4b0e be3c a0a3 48bc 80e0 be3c
00000020: 1c41 82bd 4e03 5d3c 2fbc 8f3c dad6 363d
00000030: d695 93bd 8d22 83bd db20 ad3d 4cc7 24bd
00000040: 4a09 90bd 3847 a8bd 48ba 0c3d 9da1 3dbd
00000050: dd06 1abd bfe5 823d dba4 b73d ae59 8dbd
00000060: bd24 973d 0bae 6bbd 9cae 513d 6ef3 9ebd
00000070: 7f14 6939 7ded 3d39 ffe4 403c c3e9 833d
00000080: a5db a7bd f21e 4d3d 8d06 823d f2f0 74bd
00000090: bfa9 463d 6f53 aebd a39a 5aba 8530 2abd
000000a0: 405d de3c 4d4c 633d deb2 8b3d feeb bbbc
000000b0: d170 3b3d 22fb 243c e6f0 6abd dd0b 80bd
000000c0: a990 a4bd 8683 f7bc 8bea 89bd 0588 9f3d
000000d0: 0009 32bd aa2a 4bbd 5f14 b2bc 8e30 44bb
000000e0: 4a39 9b3d a914 c63b ddd5 d63c 69d1 abbd
000000f0: 3ed4 c13b b202 89bb bd7f 84bc c4f5 7fbd
00000100: b5aa 1fbc b5b1 a5bd b2a6 9ebd c347 873d
00000110: 5e25 26bd 405c 113d de6a 31bd 3e8e 523c
00000120: 3f65 08bd 48ad 1fbc fb53 1d3d e8a9 81bc
00000130: 2720 0cbb 986a b3bd 59af 3fbd 6880 29bb
00000140: 883c 4bbd 71ec 123c 7a66 883d 72b6 78bd
00000150: 04a7 aa3c f660 84bd ced5 843c 7466 62bd
00000160: 37ee 75bd 3b3b 823c 81d0 09bd 73b7 8ebd
00000170: b4b4 eb3c e7a5 853d e08b 173d 772b 0b3d
00000180: b71d 26bd 10bf b2bd 3c9d b63b 3790 8b3d
00000190: a0bf c63d 268e b2bd e4c2 653c ee4f 3eba
000001a0: ea29 c7bc f0a4 8cbb 44b3 5b3d 8a7d 4fbd
000001b0: 72f4 2ebd b37c a23d ec51 fe3c 983d ea3c
000001c0: d923 c8b9 2bba 313c c620 b2ba cb77 5abd
000001d0: 7800 88bd 2246 ac3d 6d0f 36bd 0bc5 74bd
000001e0: 1e4c 90bc debc 62bc 4416 83bb 56c6 63bd
000001f0: 6352 a23d 1a9f bbbd 7089 47bd a3cc 673d
00000200: f6b2 4cbd 648d 14bd 57d2 a6bc d26b 9b3b
00000210: 7898 61bd 183f ad3d ef75 f8bc 237a 613c
00000220: 0c5c a03d 8fb4 b33d b08e d4bb f0b6 883d
00000230: 90bd a1bd 23ab 893d fe43 a83c 13eb 883d
00000240: b2b7 843c cbab 083c cbcc 463d 9c62 c63c
00000250: e391 003d 28a7 aa3c 0f38 83bc 9c09 c3bd
00000260: 64a9 acbc 3178 1d3c 9a11 2fbc 2d42 6f3d
00000270: 4e3d fb3c 34cc e13c e1e6 13bd 06d0 823d
00000280: 38f8 c4ba 1647 803b d486 9abd 3df7 b63c
00000290: 717b 923d 8b7e a2bb f4d2 8b3d 1e95 483c
000002a0: cb3e b33d 6f31 30bc 8998 84bd 8342 2e3d
000002b0: fa6a 84bd a645 e7ba 6182 b93d c814 623d
000002c0: 7e06 d5bc a137 41bd 8902 c0bd 20b1 6b3d
000002d0: f850 a0bd 47d7 6a3d 384e 92bd 24e2 213d
000002e0: e999 73bd 6d37 8c3d 239e a53c 96f2 dc3d
000002f0: 6d97 a73b 6703 79bd dd0b 01bc 235f 91bd
00000300: 12e7 45bd 4f27 11bd 9d3b 61bd af95 e4bc
00000310: c6c2 323d 94a1 13bd c35b 803d efbe 693d
00000320: f376 ef3c 4ab6 703d 5e12 7cbd 5742 11bd
00000330: cecb c7bc 9675 af3d 144f 913d c200 b03d
00000340: 07f3 05bd edea 5fbd af1c 8abd d5cd f23c
00000350: d3d7 99bd f53f 0ebd b59c 20bb a507 7fbd
00000360: 765d 8a3d a6c4 5abd a7e4 b03d 91ae f53c
00000370: cd1b 00bd 319e 2e3d 333a deb9 1868 4cbb
00000380: 355b 8ebd c0cc 863d bda1 8ebd c83b 5c3d
00000390: 9c98 113d 976b 863d 3adc 86bd 8ca3 d2bc
000003a0: 2462 77bd 0078 ab3d 01b3 08bc aa28 c4bc
000003b0: 3601 12bd 097a a83d 9ccd 2f3c 34c5 7bbd
000003c0: 7ed3 563c 7fc4 923d 6254 2a3c 039a 06bd
000003d0: 2833 a13d 4de6 79bd fecf 6dbd 5793 063d
000003e0: 6b74 63bd 16bb 23bd be24 633d 1aee 03bd
000003f0: 5008 993d 17d8 7a3d 2ec7 513d 8405 5f3d

regression_net.2.bias f4 [128]
-0.07617505 0.08898689 0.06571436 0.046187725 -0.05262861 -0.0034533103 0.0073918873 -0.029648837
-0.060535338 -0.0028066556 0.048934046 0.035265684 0.027490402 -0.022074433 0.045500107 -0.019213352
0.03331687 -0.032666262 0.008185424 0.07500655 -0.07800031 0.07577122 0.0007763859 -0.052412614
-0.017099733 -0.020403903 0.065864936 0.013150267 0.06867047 0.07649941 0.042590406 0.07488026
0.032974355 -0.054306507 0.044027913 0.07192948 -0.052417178 0.021020846 0.032042142 0.031814136
0.014253817 -0.036708523 0.010633148 0.034866918 0.053666543 -0.03831995 0.058868956 -0.057991713
0.044494815 -0.03477162 0.044824284 0.002302715 -0.07090258 -0.09569291 -0.003481397 0.01409907
0.001813869 -0.0046188775 -0.0451671 0.08129606 0.07779049 0.0036005038 0.02062831 0.088053085
-0.058765054 -0.07151914 -0.043915752 -0.037711147 -0.08654632 -0.04408207 -0.042720694 -0.02699447
-0.065899566 0.05126274 0.0850017 0.057143822 -0.09612377 -0.03984342 0.08098745 -0.025464496
0.011591014 -0.01516497 0.011507528 0.032923065 -0.010898414 0.0378046 -0.011441204 -0.08769708
-0.08535995 0.068945035 0.033347342 -0.0416953 -0.020349026 -0.069150835 -0.100109644 -0.00873576
-0.047577627 -0.08316066 -0.08454633 0.092293195 -0.059773106 -0.08180078 0.023477748 0.05046998
-0.0029726408 -0.0077372883 -0.056551255 0.013961773 0.0044735447 -0.03022154 0.0042490666 0.08782471
0.070818156 0.022069138 0.08389941 -0.065996826 0.020672774 -0.041587092 0.02993456 0.03180015
0.060182847 0.034167677 0.04945186 0.08543562 -0.04267598 0.07359927 -0.04933903 0.049262397
00000000: aa01 9cbd c23e b63d 4095 863d 572f 3d3d
00000010: 1991 57bd ef50 62bb a537 f23b 1ee2 f2bc
00000020: e7f3 77bd deef 37bb 116f 483d c072 103d
00000030: 8d33 e13c 71d5 b4bc 525e 3a3d 5265 9dbc
00000040: 4577 083d 0fcd 05bd 281c 063c 099d 993d
00000050: a0be 9fbd f12d 9b3d 6086 4b3a 9cae 56bd
00000060: bd14 8cbc 1626 a7bc 32e4 863d 3874 573c
00000070: 1aa3 8c3d b9ab 9c3d 4773 2e3d d25a 993d
00000080: 1e10 073d 8070 5ebd 9d56 343d c34f 933d
00000090: 65b3 56bd e933 ac3c 9f3e 033d 8a4f 023d
000000a0: d788 693c ad5b 16bd a836 2e3c 9dd0 0e3d
000000b0: 73d1 5b3d 61f5 1cbd 9320 713d b888 6dbd
000000c0: 3240 363d b06c 0ebd ab99 373d 26e9 163b
000000d0: 5f35 91bd a5fa c3bd 2628 64bb c9ff 663c
000000e0: 58bf ed3a f459 97bb 2301 39bd 8c7e a63d
000000f0: 9f50 9f3d 6ef6 6b3b b4fc a83c 2d55 b43d
00000100: a0b3 70bd a078 92bd 01e1 33bd 0177 1abd
00000110: 323f b1bd 678f 34bd e5fb 2ebd 8223 ddbc
00000120: 5af6 86bd e1f8 513d 5f15 ae3d a40f 6a3d
00000130: 8adc c4bd db32 23bd c0dc a53d eb9a d0bc
00000140: 3de8 3d3c 7f76 78bc 128a 3c3c 56da 063d
00000150: 438f 32bc ffd8 1a3d e373 3bbc 879a b3bd
00000160: 33d1 aebd 0e33 8d3d 3997 083d b1c8 2abd
00000170: 00b3 a6bc f49e 8dbd 4906 cdbd 6f20 0fbc
00000180: c2e0 42bd 2350 aabd a026 adbd 3704 bd3d
00000190: a5d4 74bd 2b87 a7bd 6854 c03c 9cb9 4e3d
000001a0: a3d0 42bb 1489 fdbb 4aa2 67bd ecbf 643c
000001b0: d096 923b 2a93 f7bc c13b 8b3b 71dd b33d
000001c0: 1c09 913d 56ca b43c 74d3 ab3d 5829 87bd
000001d0: f359 a93c 3a57 2abd 5339 f53c e040 023d
000001e0: 4a82 763d 68f3 0b3d 098e 4a3d dff8 ae3d
000001f0: 02cd 2ebd 37bb 963d b917 4abd 5ec7 493d

regression_net.4.weight f4 [1, 128]
-0.008287272 -0.07735714 0.014465968 -0.00811228 -0.042110644 -0.015051713 -0.059667017 -0.054433186
-0.0705873 0.029086696 0.022304537 -0.06272625 -0.077543445 0.013740674 0.07649129 0.06924349
0.070498705 -0.058167633 0.05368382 0.067411765 0.039935667 0.055119146 -0.06474925 0.03563505
-0.020750754 -0.05986645 -0.02644731 0.025555026 -0.0228884 0.0598091 -0.050496638 0.02152475
0.07115866 0.045509107 0.037817534 0.06012888 0.01477769 0.06358051 -0.0553841 0.012032984
0.01912207 0.06647083 -0.06785879 -0.029708399 -0.06688943 0.040851194 0.016351433 0.06578323
-0.058714494 -0.02311329 -0.045341596 0.07682061 0.03368524 -0.037152823 0.060070362 0.070448756
0.065294646 -0.030831277 -0.08208898 -0.04096912 0.043735843 -0.058911864 -0.02735483 -0.0228572
0.04290344 -0.028785035 -0.034585062 -0.064467795 -0.003128574 0.011330901 -0.015755666 0.027239133
-0.07479384 0.04931051 -0.051913954 0.026283503 0.06208682 -0.06724486 -0.022567138 -0.07634682
-0.014009555 0.04335067 0.059987567 0.050060265 0.018114388 0.0359922 0.023838865 0.015108432
-0.025999589 0.020449007 -0.023297034 -0.0038375894 0.027065491 -0.004385935 0.014301764 -0.05521674
0.07507936 -0.09686338 0.009220137 -0.085313104 -0.0489129 -0.07773095 -0.09002495 -0.0019530915
0.051148556 -0.056985207 0.055552486 0.05955197 0.059607074 -0.090353504 -0.05583821 -0.02820522
-0.02917814 -0.04132114 -0.013464732 -0.09027477 0.02408392 -0.05103215 -0.063444175 -0.05254503
-0.00062571984 0.029965559 -0.075227454 -0.020145742 -0.08145674 0.07256397 0.059072822 -0.03476159
00000000: 57c7 07bc 6c6d 9ebd ab02 6d3c 5ee9 04bc
00000010: 367c 2cbd 769b 76bc 6765 74bd 55f5 5ebd
00000020: 1390 90bd 3947 ee3c 01b8 b63c 9f76 80bd
00000030: 19cf 9ebd 9020 613c 77a7 9c3d 88cf 8d3d
00000040: a061 903d 2f41 6ebd 91e3 5b3d 2e0f 8a3d
00000050: 9593 233d 9dc4 613d 419b 84bd 0ff6 113d
00000060: 7cfd a9bc 8636 75bd 07a8 d8bc c658 d13c
00000070: 7480 bbbc 63fa 743d 90d5 4ebd ac54 b03c
00000080: a2bb 913d c267 3a3d 8fe6 1a3d b349 763d
00000090: 201e 723c 8036 823d 70da 62bd fe25 453c
000000a0: e3a5 9c3c dc21 883d 8df9 8abd 075f f3bc
000000b0: 53fd 88bd 9553 273d 71f3 853c 5cb9 863d
000000c0: 9c7e 70bd 1558 bdbc 1cb8 39bd 2054 9d3d
000000d0: 89f9 093d 8f2d 18bd 570c 763d 7047 903d
000000e0: 33b9 853d e091 fcbc 441e a8bd 3ccf 27bd
000000f0: 5b24 333d 914d 71bd 3d17 e0bc 063f bbbc
00000100: 84bb 2f3d 98ce ebbc 11a9 0dbd b107 84bd
00000110: c308 4dbb 3ea5 393c 0712 81bc 9a24 df3c
00000120: 832d 99bd d1f9 493d baa3 54bd 8050 d73c
00000130: c04e 7e3d acb7 89bd b8de b8bc b95b 9cbd
00000140: 5588 65bc 7990 313d 86b5 753d fe0b 4d3d
00000150: a064 943c 8f6c 133d b949 c33c 5b89 773c
00000160: 17fd d4bc ad84 a73c 6cd9 bebc 1180 7bbb
00000170: 73b8 dd3c e4b7 8fbb f251 6a3c f32a 62bd
00000180: 35c3 993d 4f60 c6bd 0f10 173c a3b8 aebd
00000190: e558 48bd 6831 9fbd 005f b8bd e0fe ffba
000001a0: 2681 513d 5269 69bd 018b 633d c4ec 733d
000001b0: 8c26 743d 420b b9bd 9bb6 64bd a20e e7bc
000001c0: ff06 efbc 5b40 29bd 2e9b 5cbc fbe1 b8bd
000001d0: a44b c53c 1607 51bd 05ef 81bd 7539 57bd
000001e0: 5907 24ba 557a f53c da10 9abd af08 a5bc
000001f0: cbd2 a6bd 6b9c 943d 58f6 713d 2b62 0ebd

transformer_enc.layers.0.self_attn.in_proj_weight f4 [384, 128]
0.10825455 -0.0022283434 -0.031863607 -0.06667042 -0.06858812 0.08251819 -0.022075621 -0.023640465
-0.057669368 0.020589517 -0.012389554 -0.03221529 -0.05148398 -0.050325975 -0.06408597 0.03765166
0.044526797 -0.023987092 -0.03912518 0.0691536 -0.01507802 -0.06380414 0.0033832868 -0.08971586
0.019949608 0.07132494 -0.021995328 -0.021738535 0.025590945 0.020516304 0.032702725 -0.07858074
0.02187113 0.11535231 -0.02324588 0.048242155 -0.021215789 -0.08110812 -0.059026018 -0.05450942
-0.044418477 -0.08846336 -0.10079818 -0.054440796 0.052299038 -0.009132486 0.04474726 -0.055360228
-0.049100786 -0.07022379 -0.07357761 -0.062311668 0.0004910149 -0.05349747 0.054744326 -0.004165616
-0.06534443 0.097514085 -0.028694768 -0.11602372 -0.02976752 0.097012736 0.0068244794 -0.08992454
0.06580916 -0.0045189597 -0.023468595 -0.011060868 -0.08487138 -0.077179775 0.098235674 -0.05456867
-0.10632693 0.045591872 -0.04122575 -0.11439686 0.011984728 0.079679415 0.046180733 -0.027092142
0.10242771 -0.11199567 0.09477788 -0.046469573 0.031115338 0.09412056 0.0053914506 -0.031971406
0.08511016 -0.018475095 0.042552955 -0.08995776 -0.031398166 -0.02070038 0.07004237 -0.0013708271
0.07010604 -0.019661743 -0.05617864 -0.028193988 0.048504647 -0.069330215 -0.09739686 -0.111029126
-0.08946861 -0.13567977 0.09636772 -0.09234792 0.0922246 -0.04203065 0.034810502 -0.05145729
-0.09719654 -0.071876094 -0.100381166 -0.10022486 0.005458408 0.048603874 0.02281238 0.11856246
0.04835795 0.0371887 -0.07937834 -0.054431077 0.045891315 0.019637797 0.099573754 -0.07513638
0.120069146 0.10821172 -0.07846319 0.08653023 0.04861575 -0.04247013 0.042579457 -0.0074528353
0.09824357 0.0889806 0.10489521 0.044065 0.00068947487 0.009327966 0.07218668 0.060993113
-0.027370846 0.08696421 0.024334824 -0.001301685 -0.0047534257 -0.033614945 -0.025798282 0.057174843
0.011198661 0.010188976 0.06962032 -0.012224626 0.101296656 0.08176428 -0.057872426 -0.06315329
-0.005210654 -0.022869296 -0.0074059926 0.051455263 0.08641021 0.08404383 0.024475558 -0.03435833
0.101051085 -0.0037184628 0.039882157 -0.034858182 -0.1086691 -0.002899905 0.021056239 -0.0402976
-0.12237585 0.053112466 -0.046862807 -0.04582822 -0.026921099 -0.06867718 -0.05838011 -0.053517196
0.052910995 0.078359924 -0.08351483 -0.020939434 -0.001257762 -0.012097628 0.027541766 -0.015179625
0.09237126 -0.050127666 0.094111696 -0.11373043 0.08031223 0.080369376 -0.01743649 0.07702093
-0.0068380972 0.06619127 0.0060235714 0.020524396 0.08591368 0.06822921 0.07174579 0.084138945
-0.039451905 0.016015502 0.017694527 0.018438898 0.014015275 0.055507045 0.008903666 0.13308284
0.02174027 -0.04644509 -0.008028318 -0.06582405 -0.054752443 -0.007849967 -0.043056156 -0.07506852
-0.009025924 -0.07780224 0.032250945 0.069748215 -0.06190729 0.00716431 0.043474797 0.030539524
0.057336014 -0.0424554 0.10180738 -0.072365016 0.03908857 -0.06487967 0.118284784 0.09088244
-0.014390997 -0.051457543 0.093319066 -0.123185046 -0.016645066 0.1055258 0.07143442 0.0114198
-0.037553817 0.07735649 -0.046606433 -0.05726098 -0.08056158 -0.070757575 0.09600876 0.022791486
00000000: 90b4 dd3d 6609 12bb 6a83 02bd 808a 88bd
00000010: ee77 8cbd 4cff a83d efd7 b4bc a6a9 c1bc
00000020: b736 6cbd 59ab a83c 8efd 4abc 2ef4 03bd
00000030: dee0 52bd 9c22 4ebd 813f 83bd a138 1a3d
00000040: bb61 363d 9480 c4bc ba41 20bd 67a0 8d3d
00000050: cd09 77bc bfab 82bd 22ba 5d3b f3bc b7bd
00000060: 5c6d a33c cf12 923d 8c2f b4bc 0315 b2bc
00000070: 1aa4 d13c cf11 a83c 4bf3 053d f0ee a0bd
00000080: 162b b33c d53d ec3d 256e bebc 9199 453d
00000090: bccc adbc 041c a6bd 44c5 71bd 4545 5fbd
000000a0: 26f0 35bd 472c b5bd 476f cebd 50fd 5ebd
000000b0: 8437 563d 6ca0 15bc e748 373d 68c1 62bd
000000c0: e81d 49bd 7ed1 8fbd dcaf 96bd 853a 7fbd
000000d0: 74b7 003a 2a20 5bbd 963b 603d b87f 88bb
000000e0: 4dd3 85bd 77b5 c73d 4a11 ebbc d89d edbd
000000f0: 04db f3bc 9dae c63d e29f df3b 5b2a b8bd
00000100: f4c6 863d c813 94bb 3641 c0bc a538 35bc
00000110: 0cd1 adbd 6e10 9ebd c92f c93d 6683 5fbd
00000120: efc1 d9bd 8bbe 3a3d 55dc 28bd e748 eabd
00000130: 985b 443c f62e a33d 0228 3d3d 57f0 ddbc
00000140: 9fc5 d13d fc5d e5bd e81a c23d e156 3ebd
00000150: 98e5 fe3c 48c2 c03d c4aa b03b 73f4 02bd
00000160: 3c4e ae3d 1559 97bc 024c 2e3d c63b b8bd
00000170: 5d9b 00bd d893 a9bc 6072 8f3d 53ad b3ba
00000180: c193 8f3d aa11 a1bc 931b 66bd 14f7 e6bc
00000190: cfac 463d 00fd 8dbd 0178 c7bd 3d63 e3bd
000001a0: 523b b7bd a3ef 0abe 705c c53d e820 bdbd
000001b0: 40e0 bc3d 5528 2cbd 7595 0e3d e1c4 52bd
000001c0: fb0e c7bd c633 93bd a494 cdbd b142 cdbd
000001d0: 72dc b23b db14 473d 07e1 ba3c e0d0 f23d
000001e0: fc12 463d 2e53 183d 1c91 a2bd 1ff3 5ebd
000001f0: 88f8 3b3d 72df a03c 53ed cb3d 1ae1 99bd
00000200: d0e6 f53d 1b9e dd3d 4fb1 a0bd c336 b13d
00000210: 4f21 473d 29f5 2dbd cc67 2e3d ea36 f4bb
00000220: ed33 c93d 763b b63d 4dd3 d63d 807d 343d
00000230: e0bd 343a 53d4 183c 9cd6 933d ead3 793d
00000240: d338 e0bc 4b1a b23d d359 c73c 4d9d aaba
00000250: a0c2 9bbb d3af 09bd eb56 d3bc 2b30 6a3d
00000260: 977a 373c aaef 263c 1995 8e3d cc49 48bc
00000270: 9f74 cf3d 0874 a73d a30b 6dbd 8356 81bd
00000280: 22be aabb 6458 bbbc f8ad f2bb c1c2 523d
00000290: d6f7 b03d 2c1f ac3d f780 c83c 52bb 0cbd
000002a0: dff3 ce3d 74b1 73bb 795b 233d 74c7 0ebd
000002b0: e88d debd 550c 3ebb 227e ac3c 190f 25bd
000002c0: 31a0 fabd 758c 593d 37f3 3fbd 5fb6 3bbd
000002d0: a389 dcbc 9fa6 8cbd fb1f 6fbd d934 5bbd
000002e0: 33b9 583d 2b7b a03d d309 abbd 2d89 abbc
000002f0: 7ddb a4ba 2135 46bc 459f e13c f6b3 78bc
00000300: 252d bd3d ab52 4dbd a2bd c03d 80eb e8bd
00000310: bd7a a43d b398 a43d f8d6 8ebc 26bd 9d3d
00000320: 1e12 e0bb 4a8f 873d 6161 c53b c722 a83c
00000330: 83f3 af3d c2bb 8b3d 75ef 923d 0a51 ac3d
00000340: 5298 21bd f132 833c 1df4 903c 2c0d 973c
00000350: 53a0 653c 5b5b 633d afe0 113c de46 083e
00000360: a718 b23c 353d 3ebd 3589 03bc c2ce 86bd
00000370: 1944 60bd 269d 00bc a75b 30bd 86bd 99bd
00000380: 78e1 13bc c856 9fbd 9119 043d 27d8 8e3d
00000390: 8092 7dbd 97c2 ea3b a112 323d 062e fa3c
000003a0: 2bd9 6a3d b7e5 2dbd 6380 d03d 1c34 94bd
000003b0: 561b 203d a2df 84bd 4b3f f23d 9320 ba3d
000003c0: 37c8 6bbc 25c5 52bd 111e bf3d 7148 fcbd
000003d0: 3c5b 88bc e91d d83d 364c 923d 1d1a 3b3c
000003e0: 08d2 19bd 146d 9e3d 63e6 3ebd 7d8a 6abd
000003f0: 78fd a4bd 59e9 90bd 3ea0 c43d 36b5 ba3c
