mujoco_simulation/unified_scene/replans/replan_data/replan_ini_uni/logs/2025_04_02_17_02_59/model_latest.pth (torch, 569302 bytes, 21 tensors)

tokenizing_net.0.weight f4 [128, 56]
-0.09914012 0.049348135 -0.08274517 -0.0044488558 0.054295227 0.07289261 -0.07629309 0.03359336
-0.049881216 -0.05822244 0.088438936 -0.08496027 -0.05106157 -0.0336505 -0.08036636 0.10971167
0.05016657 -0.06776149 -0.10107552 -0.09398925 0.03644227 0.023556294 0.13164225 -0.09371578
0.059655424 -0.07953358 -0.028448101 -0.013910422 -0.18927069 -0.038762815 -0.06152145 -0.034650803
0.032764044 0.02312774 -0.05534148 -0.062130783 -0.057360183 -0.08759604 -0.020915553 0.099809356
0.019222477 -0.10389074 -0.004062052 0.109075814 -0.115142174 -0.09910061 -0.050453126 0.030984774
-0.12170321 -0.09007017 0.040199477 0.11587315 -0.09643725 0.10319144 0.03976715 0.07537336
-0.06043431 0.107340515 -0.0130879 -0.06254905 0.010541239 -0.074173465 -0.08336583 0.00783554
0.06354362 0.115464605 0.09965545 -0.11887782 -0.030653318 0.010476991 -0.09670242 -0.1451224
-0.02983538 0.0159346 -0.008120266 -0.010543672 -0.060387574 0.046303567 -0.10584435 -0.13283579
-0.13203306 0.0025771812 0.023252368 0.036906507 -0.06259271 -0.036724325 0.10951069 -0.10400132
0.06540423 -0.08858775 -0.11957921 -0.03428361 -0.024154 0.08331305 0.008088025 -0.025095563
0.1073176 0.054108705 -0.04293975 -0.023572797 0.02179549 -0.097452104 -0.050499864 0.042302303
0.059421223 0.043991625 0.10882742 0.054140404 -0.12685126 0.02185775 -0.08975336 -0.11104435
0.10689099 -0.058784418 -0.12783667 -0.037418682 -0.051301006 0.031148423 -0.098646425 0.14854066
0.042795777 -0.0020470144 0.10788603 -0.031509154 0.034922455 0.019091263 -0.021915516 0.14840145
-0.053437445 -0.0682138 -0.09544716 0.12433841 -0.12397132 0.109835535 0.055764835 -0.09611692
0.11615337 0.049451455 0.06865868 0.054939933 -0.04433997 0.0344851 0.12313645 0.098298326
-0.09038643 -0.076731086 0.09679095 0.03566938 0.025923384 -0.029604334 0.037693795 -0.06334369
0.1174212 0.12331874 -0.009275103 -0.16351734 -0.009098985 -0.04224144 -0.13232154 0.034566194
0.03795101 0.047932327 -0.079609245 -0.04461818 0.09773703 -0.16976707 -0.11956824 -0.07609253
-0.043077335 -0.065557614 -0.076712295 0.19077346 -0.05655197 -0.10037028 0.13544749 0.070588954
-0.06811022 0.053590197 -0.10600889 -0.059923436 -0.08495177 -0.0520776 0.10763375 0.029422551
0.037230253 0.014851083 -0.15319149 -0.049854163 0.004318808 -0.066440724 0.0037180397 0.06965393
0.00044089975 -0.011647522 -0.10873294 0.0927193 -0.0372667 -0.046443004 -0.033166002 -0.10667186
-0.008127815 -0.03833191 0.11595214 -0.117323086 -0.024677066 -0.039454505 -0.0725067 -0.15843135
0.10750026 0.070313595 -0.12192498 -0.04977219 -0.09761475 0.11279265 -0.09801103 -0.087380305
0.0030087528 -0.078917444 0.0018709479 0.021679502 0.008001925 -0.07286601 0.105499715 0.018426515
0.22044133 0.096510105 -0.11159761 0.022583425 0.03064297 0.036531374 0.09131053 0.07501258
0.06492238 0.05557551 0.039438225 -0.14858411 0.078940585 -0.14092104 -0.0067634457 0.14739867
-0.029675063 0.07167602 -0.10121938 0.03386022 0.048824653 -0.07019615 0.1359187 -0.10027654
-0.064639166 0.012522315 -0.10764609 -0.10185544 -0.12826325 0.0702277 0.08448139 0.10360719
00000000: fa09 cbbd 4521 4a3d 4d76 a9bd b5c7 91bb
00000010: ac64 5e3d b948 953d 8d3f 9cbd 3199 093d
00000020: 3f50 4cbd a77a 6ebd 791f b53d a6ff adbd
00000030: f025 51bd 1bd5 09bd 1e97 a4bd 83b0 e03d
00000040: 767b 4d3d 89c6 8abd af00 cfbd 707d c0bd
00000050: 7d44 153d 21f9 c03c 3acd 063e 0fee bfbd
00000060: 3f59 743d 80e2 a2bd fe0b e9bc 8ae8 63bc
00000070: 2dd0 41be c2c5 1ebd eafd 7bbd 00ee 0dbd
00000080: 9733 063d 6376 bd3c bfad 62bd d97c 7ebd
00000090: 83f2 6abd 8d65 b3bd 1857 abbc d968 cc3d
000000a0: 7578 9d3c abc4 d4bd f61a 85bb 2463 df3d
000000b0: a9cf ebbd 43f5 cabd f0a7 4ebd c8d3 fd3c
000000c0: 883f f9bd b676 b8bd 35a8 243d e74e ed3d
000000d0: e580 c5bd 0956 d33d e1e2 223d 595d 9a3d
000000e0: f889 77bd 58d5 db3d a26e 56bc b719 80bd
000000f0: 29b5 2c3c 42e8 97bd b4bb aabd a360 003c
00000100: 2823 823d b578 ec3d 2818 cc3d 3776 f3bd
00000110: ab1c fbbc afa7 2b3c eb0b c6bd f79a 14be
00000120: 5469 f4bc 4789 823c dd0a 05bc 5ebf 2cbc
00000130: f658 77bd cfa8 3d3d ecc4 d8bd 1b06 08be
00000140: ad33 07be ede5 283b c07b be3c 472b 173d
00000150: 9b30 80bd 3f6c 16bd 2447 e03d a5fe d4bd
00000160: a7f2 853d 7f6d b5bd f2e5 f4bd f86c 0cbd
00000170: 9cde c5bc 08a0 aa3d a383 043c 3695 cdbc
00000180: 54c9 db3d 17a1 5d3d 97e1 2fbd bd1b c1bc
00000190: 758c b23c f894 c7bd f2d8 4ebd 2e45 2d3d
000001a0: ab63 733d 9030 343d e9e0 de3d 54c2 5d3d
000001b0: 4ce5 01be 060f b33c 9cd0 b7bd 386b e3bd
000001c0: aae9 da3d eec7 70bd 9ee7 02be 5544 19bd
000001d0: 0121 52bd fa2a ff3c 2307 cabd 0b1b 183e
000001e0: a04a 2f3d 3427 06bb 5af3 dc3d be0f 01bd
000001f0: d90a 0f3d 4865 9c3c 2b88 b3bc 8df6 173e
00000200: 39e1 5abd adb3 8bbd cd79 c3bd 23a5 fe3d
00000210: ade4 fdbd 74f1 e03d ab69 643d f3d8 c4bd
00000220: d1e1 ed3d 9c8d 4a3d ec9c 8c3d b208 613d
00000230: d49d 35bd 4040 0d3d f72e fc3d a250 c93d
00000240: 851c b9bd 3025 9dbd 553a c63d 0e1a 123d
00000250: 475d d43c ca84 f2bc cf64 1a3d 56ba 81bd
00000260: 877a f03d 898e fc3d 9af6 17bc 1771 27be
00000270: e913 15bc 5c05 2dbd 4c7f 07be 4895 0d3d
00000280: 8572 1b3d b054 443d 2c0a a3bd 8dc1 36bd
00000290: 5a2a c83d 6bd7 2dbe 32e0 f4bd 66d6 9bbd
000002a0: dc71 30bd 1243 86bd 561b 9dbd 1e5a 433e
000002b0: 0aa3 67bd ef8e cdbd bfb2 0a3e f190 903d
000002c0: 5f7d 8bbd 6581 5b3d 301b d9bd 4772 75bd
000002d0: 32fb adbd 524f 55bd 156f dc3d 9007 f13c
000002e0: c07e 183d f551 733c 3bde 1cbe e133 4cbd
000002f0: ca84 8d3b 1312 88bd 5baa 733b b8a6 8e3d
00000300: 9028 e739 40d5 3ebc 60af debd 9ee3 bd3d
00000310: f8a4 18bd 053b 3ebd 13d9 07bd c776 dabd
00000320: 872a 05bc ec01 1dbd 5178 ed3d 1647 f0bd
00000330: 8f27 cabc 0c9b 21bd 657e 94bd d43b 22be
00000340: 1929 dc3d 9300 903d ceb3 f9bd eddd 4bbd
00000350: 3eea c7bd d5ff e63d 02ba c8bd 72f4 b2bd
00000360: 7f2e 453b 789f a1bd 983a f53a 3699 b13c
00000370: 821a 033c c63a 95bd 3c10 d83d 34f3 963c
00000380: 5fbb 613e 17a7 c53d 4a8d e4bd e000 b93c
00000390: f706 fb3c eca1 153d 0401 bb3d 32a0 993d
000003a0: 06f6 843d 25a3 633d fa89 213d 6f26 18be
000003b0: 9aab a13d 9b4d 10be e59f ddbb adef 163e
000003c0: 1e19 f3bc e1ca 923d 1b4c cfbd 04b1 0a3d
000003d0: 5cfc 473d 00c3 8fbd 462e 0b3e c95d cdbd
000003e0: 8a61 84bd 652a 4d3c 8e75 dcbd 9699 d0bd
000003f0: 7157 03be 8ad3 8f3d 9404 ad3d 0230 d43d

tokenizing_net.0.bias f4 [128]
0.044193786 -0.1216908 -0.033453066 -0.11217691 -0.032165427 0.14314876 0.036156103 -0.07493881
0.004687666 -0.0023406935 0.0975664 0.11756581 -0.12139621 0.037124023 -0.10302039 0.10320829
0.12628536 0.0363399 0.10202497 0.10372862 -0.10883033 -0.0646921 0.0464466 -0.055382323
0.035868976 0.03933855 -0.08330815 0.08084228 0.08264318 -0.019325525 -0.10030915 0.00035566554
0.10903939 -0.0048213396 -0.019552147 -0.12280412 0.00863075 -0.087623924 0.05846019 -0.0977919
0.006443456 -0.07143365 0.015205223 0.043190863 0.04483786 -0.001929157 -0.05529795 0.12008334
0.02223219 -0.021101896 -0.030677294 0.062037352 -0.009260414 -0.033903975 0.043727938 0.070925154
0.10526097 -0.09351643 0.003915606 -0.10497178 -0.116596565 0.112422965 0.07405722 -0.055414487
-0.018919991 0.037007637 -0.03469318 0.0056833527 0.0005285578 0.060941815 0.052061476 0.038470246
-0.018721538 -0.11394591 -0.091773644 0.057225566 0.032674816 0.14096802 0.1048664 -0.018067826
0.03399381 0.10468003 -0.04681475 0.07040232 0.03171812 -0.08776862 0.018057544 0.12447024
0.14287893 0.10141416 0.1312085 -0.035544094 -0.046283666 -0.013972755 0.12355409 -0.07126939
0.058250684 -0.09023488 -0.057193477 -0.021590311 -0.091345906 0.11547703 0.01278729 -0.008639391
-0.05432441 -0.099201 -0.024586795 -0.10921731 -0.0027593868 0.08720152 -4.3451415e-05 -0.10194377
-0.097121984 0.10529235 0.052363314 -0.10241047 -0.10560367 0.089645855 -0.08652718 -0.12580505
0.0992049 -0.08518389 -0.07903307 -0.034870807 -0.04920879 -0.11922579 0.0020364213 0.11413038
00000000: 8b04 353d 0739 f9bd 1506 09bd 02bd e5bd
00000010: e5bf 03bd 9795 123e 6c18 143d 8579 99bd
00000020: fe9a 993b 5266 19bb e5d0 c73d 58c6 f03d
00000030: 939e f8bd 5c0f 183d 5bfc d2bd de5e d33d
00000040: f350 013e 26d9 143d 78f2 d03d ac6f d43d
00000050: 70e2 debd 4b7d 84bd ca3e 3e3d 93d8 62bd
00000060: 59eb 123d 7621 213d 779d aabd a390 a53d
00000070: d440 a93d 9050 9ebc e26e cdbd 9f78 ba39
00000080: 0b50 df3d 54fc 9dbb d32b a0bc ba80 fbbd
00000090: fd67 0d3c 2c74 b3bd f473 6f3d 1f47 c8bd
000000a0: a023 d33b ce4b 92bd 541f 793c e7e8 303d
000000b0: e7a7 373d c4db fcba 1a80 62bd 41ee f53d
000000c0: 4820 b63c e2dd acbc f34e fbbc e11a 7e3d
000000d0: feb8 17bc e5de 0abd 111c 333d 3541 913d
000000e0: 1093 d73d 8b85 bfbd 7c4e 803b 72fb d6bd
000000f0: 2eca eebd 033e e63d 50ab 973d 4dfa 62bd
00000100: 19fe 9abc 5295 173d 701a 0ebd 6b3b ba3b
00000110: ea8e 0a3a 209e 793d 6a3e 553d fa92 1d3d
00000120: e95d 99bc 795c e9bd d2f3 bbbd 5b65 6a3d
00000130: 07d6 053d ec59 103e 32c4 d63d fa02 94bc
00000140: 183d 0b3d 7c62 d63d d3c0 3fbd 172f 903d
00000150: dcea 013d 09c0 b3bd 6aed 933c 41ea fe3d
00000160: db4e 123e 3ab2 cf3d 855b 063e af96 11bd
00000170: f193 3dbd fbed 64bc ed09 fd3d b0f5 91bd
00000180: 4598 6e3d 11cd b8bd b543 6abd 2ade b0bc
00000190: 9013 bbbd 397f ec3d c881 513c 3b8c 0dbc
000001a0: 4683 5ebd e529 cbbd 3f6a c9bc 53ad dfbd
000001b0: d4d6 34bb b696 b23d 9a3f 36b8 e5c7 d0bd
000001c0: e4e7 c6bd 84a3 d73d ea7a 563d 95bc d1bd
000001d0: bd46 d8bd 3f98 b73d 2a35 b1bd 0ad3 00be
000001e0: f02b cb3d e474 aebd 17dc a1bd b1d4 0ebd
000001f0: 288f 49bd a72c f4bd 7b75 053b 30bd e93d

tokenizing_net.1.weight f4 [128]
0.95698965 0.95953333 1.0136155 0.97443783 0.98121494 0.9990706 1.0121748 0.94524485
0.96946806 0.96442795 0.99650806 0.9797402 1.0269403 0.95257694 1.0116557 0.98733836
1.0045111 0.95374596 1.0005333 1.0154284 0.95118845 0.9548543 0.9563378 0.9951762
0.9588698 0.95573354 1.0316586 1.0027353 0.97700423 0.9996116 0.9685984 0.95817596
0.9945536 0.9771526 0.9605953 1.0070108 0.92325974 0.92555785 0.9384988 0.98935
0.99682957 0.9849539 1.0148913 0.9845825 1.0079199 0.961409 0.9880777 0.96442515
0.98419183 0.95213455 0.9799825 0.92904073 1.0098964 0.9880547 0.9597277 0.9812243
0.94045806 1.0002671 0.9938986 0.9249226 0.9627881 0.96374506 0.986728 1.0029508
0.9760054 0.999472 0.9918895 0.97472644 0.9935447 1.0029002 1.0167146 1.029901
1.0205154 1.0190223 0.99717575 0.9620385 1.0103413 0.9874156 1.0070266 0.97674775
0.986138 0.96045315 0.9218831 1.0047914 0.9808007 0.9963974 1.0004832 1.0052243
1.0190173 0.9272597 0.94865316 1.0343469 0.99855024 0.9887662 0.9901172 1.0282794
0.9789153 1.0321318 1.0378412 1.0142814 1.0145196 0.96579784 0.9334819 0.96350926
0.9940579 1.0015185 0.9964889 1.0018048 0.9568086 0.9832612 0.9637866 0.95980614
1.0023493 1.0023854 0.99792 0.963564 0.9931159 1.0049816 0.9610938 0.98857623
0.9962019 1.0582247 0.9746297 0.9963821 1.0243529 0.96784323 0.96806914 0.99895835
00000000: 46fd 743f faa3 753f 27be 813f c274 793f
00000010: e730 7b3f 17c3 7f3f f28e 813f 91fb 713f
00000020: 0f2f 783f c0e4 763f 271b 7f3f 41d0 7a3f
00000030: c872 833f 15dc 733f ef7d 813f 35c2 7c3f
00000040: d293 803f b228 743f 7a11 803f 8ff9 813f
00000050: 1681 733f 5571 743f 8ed2 743f dec3 7e3f
00000060: 7e78 753f f4aa 743f 640d 843f a159 803f
00000070: f31c 7a3f 8ce6 7f3f 11f6 773f 054b 753f
00000080: 119b 7e3f ac26 7a3f 93e9 753f bbe5 803f
00000090: c05a 6c3f 5cf1 6c3f 7541 703f 0b46 7d3f
000000a0: 3930 7f3f f025 7c3f f5e7 813f 990d 7c3f
000000b0: 8503 813f e61e 763f a9f2 7c3f 91e4 763f
000000c0: fff3 7b3f 17bf 733f 22e0 7a3f 9dd5 6d3f
000000d0: 4944 813f 27f1 7c3f b7b0 753f 8431 7b3f
000000e0: dcc1 703f c108 803f 2370 7e3f bac7 6c3f
000000f0: 4879 763f ffb7 763f 359a 7c3f b160 803f
00000100: 7ddb 793f 66dd 7f3f 78ec 7d3f ac87 793f
00000110: f258 7e3f 095f 803f b423 823f ccd3 833f
00000120: 40a0 823f 536f 823f e946 7f3f 2848 763f
00000130: dd52 813f 45c7 7c3f 3fe6 803f 240c 7a3f
00000140: 8a73 7c3f 42e0 753f 8800 6c3f 019d 803f
00000150: c115 7b3f e613 7f3f d50f 803f 31ab 803f
00000160: 296f 823f e460 6d3f efda 723f 7b65 843f
00000170: fda0 7f3f c81f 7d3f 5278 7d3f a99e 833f
00000180: 319a 7a3f e51c 843f fbd7 843f f9d3 813f
00000190: c7db 813f 873e 773f abf8 6e3f 8ba8 763f
000001a0: 947a 7e3f c231 803f e619 7f3f 243b 803f
000001b0: 69f1 743f 02b7 7b3f b8ba 763f dbb5 753f
000001c0: fb4c 803f 2a4e 803f af77 7f3f 21ac 763f
000001d0: d83c 7e3f 3da3 803f 3e0a 763f 5513 7d3f
000001e0: 1607 7f3f e873 873f 5581 793f e612 7f3f
000001f0: ff1d 833f 93c4 773f 61d3 773f bcbb 7f3f

tokenizing_net.1.bias f4 [128]
0.037876315 0.011212034 -0.006154305 0.028325383 -0.015385407 0.010280792 -0.01613284 -0.031102784
0.0069515263 0.037572775 0.015539317 -0.013959467 -0.002940286 0.008402838 -0.013176047 0.029617155
-0.021998629 0.013076022 0.005039772 -0.0015076541 -0.0061431737 0.020202134 -0.004191414 -0.004842372
0.0028511214 0.010621153 0.008283565 0.0065802154 -0.006165754 0.0028556287 -0.030276215 0.025550101
-0.010591101 -0.02381083 -0.022237405 -0.002643075 0.0014049072 -0.006701717 -0.045246825 -0.0006306835
0.006358587 -0.0010197953 0.0036766578 -0.02075107 -0.005114758 -0.0136424415 -0.014731487 0.02300261
-0.024403494 0.035920575 -0.017381053 0.0068405494 0.00027617367 0.0030136222 -0.008755668 0.020451456
-0.01469041 -0.013810339 -0.0070947944 0.018572628 0.0016348899 -0.02939743 0.006431479 -0.0071332296
-0.004739946 -0.008160451 -0.015801048 -0.02408209 0.00042119893 -0.007199336 0.005192749 0.0047963904
0.0012180503 0.024702437 0.009505901 0.015529097 -0.010095238 0.0011914142 -0.0021543868 -0.032422714
0.009506281 -0.0070569674 -0.019476598 0.00076831726 -0.019614834 0.0059773214 0.027156027 -0.011279791
0.0131006595 -0.001526485 -0.041263863 -0.00020507355 0.02752868 0.008511234 -0.013778818 -0.0006235165
-0.023486651 0.008637384 -0.0021367487 -0.013356278 0.0063939104 0.014883268 0.0074010356 -0.0016199049
0.011679482 0.005446239 0.014060446 -0.019815614 0.021850329 -0.016646769 -0.010963631 -0.016459735
0.021348795 0.0032987085 -0.0182889 0.03596145 0.013870846 0.021735176 0.006710922 0.028709026
-0.031998675 0.010483243 -0.032273192 0.015728267 -0.0037484153 0.0031204317 0.015246475 -0.015578093
00000000: 3224 1b3d aeb2 373c 0daa c9bb a20a e83c
00000010: 1313 7cbc c470 283c 0529 84bc 44cb febc
00000020: a1c9 e33b e9e5 193d 9f98 7e3c 40b6 64bc
00000030: d0b1 40bb 0fac 093c 59e0 57bc ad9f f23c
00000040: 7836 b4bc d03c 563c ac24 a53b 7a9c c5ba
00000050: ad4c c9bb f27e a53c 2158 89bb c3ac 9ebb
00000060: e1d9 3a3b 5804 2e3c cab7 073c d99e d73b
00000070: 180a cabb 8025 3b3b d305 f8bc 724e d13c
00000080: 4c86 2dbc ee0e c3bc 382b b6bc 7137 2dbb
00000090: dd24 b83a 149a dbbb bc54 39bd 7454 25ba
000000a0: b25b d03b a7aa 85ba 15f4 703b 26fe a9bc
000000b0: b399 a7bb 8c84 5fbc 565c 71bc f86f bc3c
000000c0: d6e9 c7bc 7421 133d b662 8ebc b026 e03b
000000d0: 67cb 9039 3180 453b ef73 0fbc d089 a73c
000000e0: 0cb0 70bc c344 62bc 737b e8bb a025 983c
000000f0: cd49 d63a e1d2 f0bc 28bf d23b debd e9bb
00000100: 8d51 9bbb 6ab3 05bc 3371 81bc ce47 c5bc
00000110: 5dd4 dc39 68e8 ebbb f027 aa3b 0a2b 9d3b
00000120: fca6 9f3a c45c ca3c a3be 1b3c c16d 7e3c
00000130: 7f66 25bc 3a29 9c3a 9d30 0dbb aecd 04bd
00000140: 3cc0 1b3c 223e e7bb 638d 9fbc e668 493a
00000150: 4aaf a0bc 68dd c33b 5176 de3c dfce 38bc
00000160: 26a4 563c 5614 c8ba 4c04 29bd 0309 57b9
00000170: d483 e13c b472 0b3c 8dc0 61bc 7c73 23ba
00000180: 1467 c0bc d083 0d3c b208 0cbb 4ad4 5abc
00000190: 0284 d13b f3d8 733c 6384 f23b fd52 d4ba
000001a0: 4c5b 3f3c 5d76 b23b c95d 663c 5b54 a2bc
000001b0: 76ff b23c ce5e 88bc cda0 33bc 91d6 86bc
000001c0: abe3 ae3c 252f 583b 9ad2 95bc 504c 133d
000001d0: 8b42 633c f80d b23c 4be7 db3b 312f eb3c
000001e0: 0b11 03bd e8c1 2b3c e530 04bd 91d8 803c
000001f0: f9a7 75bb 2880 4c3b 5acc 793c 423b 7fbc

regression_net.0.weight f4 [128, 128]
0.019227866 0.0152193345 -0.089849636 0.06660098 0.08038559 0.05083404 -0.022731168 0.0709322
0.031651296 0.08038652 0.050381523 0.049632255 0.06034933 -0.07563628 0.05821808 0.0016186968
-0.0012626131 -0.08938639 -0.03622102 0.07089047 0.004991216 -0.07083757 -0.07199159 -0.041287906
0.07012015 0.08145968 0.047873154 0.053525615 0.04255018 -0.027728014 -0.018601058 0.012812228
0.042771246 0.07606143 0.06329907 0.016253624 0.054936066 -0.063501015 0.09286103 0.02036729
-0.06087357 0.018807542 -0.034695912 -0.08749692 0.014181832 -0.018922318 0.027976159 0.05083552
0.0660506 -0.028552601 0.06651384 0.028257964 0.08089708 -0.00095431437 -0.060600244 0.04011332
-0.02471994 -0.023189997 -0.0641989 -0.054011103 -0.015831161 0.06404837 0.014055431 -0.083735794
-0.07562879 0.025380652 0.037372336 0.083803244 -0.06784527 -0.024369823 -0.04325376 -0.095671296
0.036723826 0.003232783 -0.04235782 0.051501065 0.03181397 0.07232518 0.004760433 -0.06202788
0.061785698 -0.031244261 -0.033722326 -0.046184465 0.010768224 0.034968402 0.06238896 0.05631146
0.06474448 0.0066481247 0.0155301215 0.0031585468 -0.05278965 0.030416563 -0.053708505 -0.015700672
-0.058739055 -0.111974366 0.06282773 -0.08992907 0.00037793876 0.075167105 -0.07942218 -0.052442674
0.0417617 0.012471971 0.014175992 0.027228147 0.035222523 -0.038567934 0.058645908 -0.09034649
-0.023539575 -0.02307602 0.0898532 -0.08990305 0.053196184 -0.040833853 -0.012450306 -0.07097859
0.11925959 -0.04635445 -0.072487935 0.049549017 0.07333615 0.033707663 -0.057347063 -0.00839859
0.02648854 -0.004682031 -0.07285543 -0.033174466 -0.009105141 -0.09413423 -0.044422235 0.026056852
-0.0012230243 0.017771497 0.008890057 -0.062374763 -0.06798303 -0.086263314 0.08344593 -0.051545147
0.03752026 0.068545245 -0.058954783 0.0002695675 0.053828463 -0.0005207215 -0.0021368933 0.0015600485
-0.047012117 -0.079044916 -0.02432373 -0.007575742 -0.0013599853 -0.056345508 0.049980726 0.061467227
0.07390973 -0.06730399 -0.042141806 0.0034666448 0.04245238 -0.062402565 -0.0080075795 0.013661052
0.061385278 0.037604094 0.02911517 -0.073476195 0.0073525165 -0.04362373 0.07096701 -0.021954894
0.055200487 -0.016969135 0.021989718 9.775217e-05 -0.01500106 0.0023047477 0.03924121 -0.05748303
-0.04219531 0.0006575961 0.046829987 -0.017461084 0.0086931065 -0.040275414 -0.013303266 -0.015696775
-0.029984606 0.05550319 0.017738916 0.060304776 0.033888485 -0.06395246 -0.036990047 -0.032553922
-0.0741438 0.0189611 -0.07779138 -0.03358826 -0.054444235 0.029761808 0.0013860076 0.033729546
-0.021028867 -0.05348176 0.01714352 0.03892735 0.018078646 -0.020731432 0.07569082 0.0052732844
-0.01075311 0.0653706 -0.076806344 0.0034164835 -0.036495727 -0.075943254 -0.005536433 -0.08810279
-0.0062432066 0.001319081 0.07277183 0.015312589 -0.080285646 -0.080969475 0.02224422 0.035008647
-0.03028921 0.07506345 -0.08083981 0.037557893 0.050985284 -0.041472923 0.028411437 -0.051587936
-0.063591935 -0.05388732 -0.06861218 -0.052622467 0.027898612 0.038621068 -0.029905813 0.0025558472
0.06703271 0.039634928 0.06985047 -0.010180821 -0.016545348 0.029510377 -0.0844485 0.08715669
00000000: c283 9d3c 845a 793c 1603 b8bd 1866 883d
00000010: 33a1 a43d 5b37 503d b736 babc e744 913d
00000020: caa4 013d b0a1 a43d db5c 4e3d 314b 4b3d
00000030: dc30 773d 32e7 9abd 1576 6e3d 742a d43a
00000040: 447e a5ba 3610 b7bd 7e5c 14bd 062f 913d
00000050: 5b8d a33b 4a13 91bd 5470 93bd 821d 29bd
00000060: 279b 8f3d 55d4 a63d a416 443d ad3d 5b3d
00000070: 1949 2e3d dc25 e3bc 3f61 98bc 61ea 513c
00000080: e730 2f3d 18c6 9b3d f1a2 813d 5226 853c
00000090: a404 613d d20c 82bd ec2d be3d 4ed9 a63c
000000a0: 9156 79bd 4612 9a3c 4d1d 0ebd 9631 b3bd
000000b0: ea5a 683c fa02 9bbc 422e e53c e838 503d
000000c0: 8945 873d 25e7 e9bc 6838 883d 3f7d e73c
000000d0: 5ead a53d f42a 7aba f637 78bd dd4d 243d
000000e0: 7981 cabc f3f8 bdbc b67a 83bd bf3a 5dbd
000000f0: 5ab0 81bc cb2b 833d c048 663c ac7d abbd
00000100: 44e3 9abd 16eb cf3c bc13 193d 09a1 ab3d
00000110: 76f2 8abd 39a3 c7bc db2a 31bd 50ef c3bd
00000120: b96b 163d 19dd 533b 657f 2dbd c8f2 523d
00000130: 5e4f 023d 391f 943d 68fd 9b3b f210 7ebd
00000140: 0013 7d3d f7f3 ffbc 6c20 0abd ec2b 3dbd
00000150: 346d 303c 073b 0f3d 918b 7f3d d8a6 663d
00000160: c198 843d 83d8 d93b 0d72 7e3c 9fff 4e3b
00000170: f639 58bd 282c f93c 73fd 5bbd b29e 80bc
00000180: 5d98 70bd d152 e5bd d3ab 803d bb2c b8bd
00000190: 1526 c639 36f1 993d 19a8 a2bd 21ce 56bd
000001a0: 510e 2b3d 3d57 4c3c 6c42 683c 900d df3c
000001b0: 7e45 103d 69f9 1dbd b136 703d 9507 b9bd
000001c0: 11d6 c0bc ec09 bdbc f404 b83d 171f b8bd
000001d0: 3ee4 593d 6641 27bd 5efc 4bbc 395d 91bd
000001e0: 5f3e f43d 2ade 3dbd 8e74 94bd e9f3 4a3d
000001f0: 4331 963d 0c11 0a3d c1e4 6abd 3d9a 09bc
00000200: 7ffe d83c b96b 99bb 3a35 95bd f3e1 07bd
00000210: bb2d 15bc 72c9 c0bd 17f4 35bd 2e75 d53c
00000220: e34d a0ba 8895 913c 9aa7 113c ae7c 7fbd
00000230: b03a 8bbd d2aa b0bd b3e5 aa3d 0121 53bd
00000240: d8ae 193d 7361 8c3d 927a 71bd bd54 8d39
00000250: 3c7b 5c3d 0781 08ba 1f0b 0cbb 8b7a cc3a
00000260: c78f 40bd 4de2 a1bd 8f42 c7bc ee3d f8bb
00000270: 8941 b2ba 8cca 66bd 97b8 4c3d 0fc5 7b3d
00000280: fc5d 973d add6 89bd e39c 2cbd a630 633b
00000290: 8ce2 2d3d d599 7fbd 3932 03bc 9bd2 5f3c
000002a0: 216f 7b3d c006 1a3d f082 ee3c b07a 96bd
000002b0: 61ed f03b ccae 32bd 2757 913d c0da b3bc
000002c0: e819 623d db02 8bbc c823 b43c 4c00 cd38
000002d0: 02c7 75bc 400b 173b 64bb 203d 5373 6bbd
000002e0: fdd4 2cbd 8762 2c3a cdd0 3f3d 8c0a 8fbc
000002f0: 886d 0e3c d5f7 24bd f1f5 59bc 8696 80bc
00000300: 47a2 f5bc 5057 633d 3451 913c 2402 773d
00000310: a7ce 0a3d 82f9 82bd e082 17bd 4357 05bd
00000320: b4d8 97bd 4f54 9b3c 1651 9fbd d893 09bd
00000330: eb00 5fbd 09cf f33c b3aa b53a fe27 0a3d
00000340: bb44 acbc b10f 5bbd 9170 8c3c 4972 1f3d
00000350: ab19 943c f7d4 a9bc ca03 9b3d 84cb ac3b
00000360: d02d 30bc 05e1 853d a54c 9dbd 15e7 5f3b
00000370: 8b7c 15bd 2388 9bbd f76a b5bb 3c6f b4bd
00000380: d093 ccbb 04e5 ac3a 6609 953d a7e1 7a3c
00000390: cd6c a4bd 53d3 a5bd 8339 b63c 3a65 0f3d
000003a0: 1421 f8bc deba 993d 588f a5bd 4ed6 193d
000003b0: f2d5 503d 83df 29bd 1abf e83c df4d 53bd
000003c0: 7d3c 82bd f3b8 5cbd 8b84 8cbd a88a 57bd
000003d0: a18b e43c 2031 1e3d 09fd f4bc 0080 273b
000003e0: 7248 893d 3c58 223d c30d 8f3d 75cd 26bc
000003f0: 1c8a 87bc bfbf f13c 56f3 acbd 357f b23d

regression_net.0.bias f4 [128]
-0.030450998 0.08942979 -0.014623815 -0.06902379 0.0032871445 -0.033072263 -0.06782447 -0.075877264
-0.080462165 0.037123237 -0.034881353 -0.08478177 -0.10498519 -0.028982146 -0.10036353 0.009184961
-0.095442384 -0.0062075276 -0.04009738 -0.07717579 -0.002312792 0.06116718 -0.00851143 -0.022338191
0.026080562 -0.07682887 -0.026583888 0.02208015 0.020507313 0.028659625 -0.036755152 -0.06345628
-0.0405042 -0.042357706 -0.079379134 0.024790257 0.06673532 0.00912613 -0.031923402 -0.02222823
0.015382985 -0.07201085 -0.08865654 -0.013746806 0.053903077 0.05369629 -0.061239924 -0.077777684
-0.021920398 -0.03579457 0.020733528 -0.04643788 0.03363962 -0.08068537 0.018696988 -0.012203212
0.025966655 0.01970651 -0.0273647 -0.017955225 -0.035698358 -0.092531994 -0.0013820812 0.03508544
-0.016112037 -0.0040369546 0.041303176 -0.0663173 0.056428235 0.013497392 -0.012456091 -0.0911539
0.06482916 -0.053738374 -0.030610606 -0.024611767 -0.013625429 -0.0022043097 -0.0018717367 0.0011459527
0.03898769 -0.034176312 0.065753944 -0.10374225 -0.02087511 0.028845692 0.0540579 -0.027368875
-0.085871086 0.01813807 -0.09510103 -0.060014453 -0.11033668 -0.070560426 -0.047792964 -0.0007838448
-0.08188555 0.014021219 -0.05019131 -0.015208211 -0.061173145 -0.034748323 0.023054799 -0.04307379
-0.02235711 0.029124085 0.052492093 0.06766231 0.016556915 -0.02110319 -0.10111756 -0.055689257
-0.015459375 -0.055345904 0.0021674556 -0.028788488 0.074113585 -0.081842795 -0.06303545 -0.05022269
-0.090085655 -0.06399171 -0.090209894 -0.08265584 -0.032141604 -0.016191643 -0.022506258 -0.032558452
00000000: 5f74 f9bc f726 b73d ba98 6fbc 585c 8dbd
00000010: 226d 573b c876 07bd 8ee7 8abd 8a65 9bbd
00000020: 59c9 a4bd 890e 183d c0df 0ebd 11a2 adbd
00000030: 7a02 d7bd f76b edbc 658b cdbd 857c 163c
00000040: 4c77 c3bd 8468 cbbb 263d 24bd 570e 9ebd
00000050: 3692 17bb 708a 7a3d 8673 0bbc 95fe b6bc
00000060: e7a6 d53c 7458 9dbd 74c6 d9bc 6ee1 b43c
00000070: f4fe a73c 97c7 ea3c 928c 16bd 5ef5 81bd
00000080: bbe7 25bd 467f 2dbd 8791 a2bd f014 cb3c
00000090: 87ac 883d c385 153c 1dc2 02bd fa17 b6bc
000000a0: ea08 7c3c 6d7a 93bd 8f91 b5bd 493a 61bc
000000b0: 79c9 5c3d a4f0 5b3d b7d6 7abd e849 9fbd
000000c0: 6892 b3bc 549d 12bd 5cd9 a93c a535 3ebd
000000d0: b3c9 093d 5f3e a5bd 6d2a 993c fbef 47bc
000000e0: 06b8 d43c 8c6f a13c ef2b e0bc d616 93bc
000000f0: 7138 12bd 6a81 bdbd f326 b5ba c0b5 0f3d
00000100: 64fd 83bc 6e48 84bb 852d 293d 5dd1 87bd
00000110: 4b21 673d 2a24 5d3c a214 4cbc e5ae babd
00000120: 27c5 843d c51c 5cbd 18c3 fabc 9e9e c9bc
00000130: 313d 5fbc 2e76 10bb 1055 f5ba cb33 963a
00000140: 8eb1 1f3d 76fc 0bbd 01aa 863d d176 d4bd
00000150: 4702 abbc cd4d ec3c d16b 5d3d b134 e0bc
00000160: 2edd afbd 4a96 943c 54c4 c2bd b7d1 75bd
00000170: 33f8 e1bd fc81 90bd 8ec2 43bd ef7a 4dba
00000180: 9cb3 a7bd 41b9 653c 6795 4dbd dc2b 79bc
00000190: b190 7abd 4254 0ebd 6bdd bc3c 246e 30bd
000001a0: 4226 b7bc a295 ee3c f301 573d 8a92 8a3d
000001b0: 5ea2 873c 99e0 acbc b916 cfbd 6b1a 64bd
000001c0: 5249 7dbc 63b2 62bd df0b 0e3b d6d5 ebbc
000001d0: ddc8 973d 329d a7bd bb18 81bd 4fb6 4dbd
000001e0: d47e b8bd 160e 83bd f7bf b8bd 7747 a9bd
000001f0: eaa6 03bd 56a4 84bc 0b5f b8bc 035c 05bd

regression_net.2.weight f4 [128, 128]
0.05788656 0.076166086 0.035118334 0.042066097 -0.0019248162 -0.06416909 -0.13166934 0.088549204
-0.03828642 0.027529966 -0.067574814 0.028353818 0.038237896 0.04824003 -0.06442746 -0.07433776
-0.0413881 -0.07134642 0.048010375 -0.054545507 -0.02412465 0.0020633903 -0.00382654 -0.010546416
0.009172407 0.07314327 -0.09159982 -0.06693864 0.002429909 -0.036787443 0.01583851 -0.0678598
-0.07706987 -0.072016664 -0.051733468 0.017922685 0.05576111 0.029549766 -0.06415156 0.006946365
-0.058019232 -0.13532582 0.016838131 -0.07113847 -0.100662194 -0.027606491 -0.08670606 -0.08952963
-0.028005302 -0.053376608 -0.046506196 -0.030015394 0.060061906 -0.055334914 -0.13259979 -0.0241571
-0.044865794 -0.05730666 0.010084023 -0.09685259 -0.062310487 -0.054002803 0.03918897 -0.1596052
0.0054363823 -0.03163102 0.04157694 -0.09107222 -0.00012268155 0.022575617 -0.070637465 -0.09471891
0.02775935 -0.052307796 -0.026240656 -0.07654095 -0.038392507 0.03150391 -0.13497126 0.040181864
0.029065004 -0.09175456 0.074767135 -0.08591634 0.034107685 0.019020652 -0.0705533 0.10392277
-0.028335623 0.012519835 -0.11718031 0.020398699 0.06496635 -0.030251702 0.07417504 -0.054699507
0.0109052025 -0.0361619 0.010144276 0.091371834 -0.06347472 0.013675393 -0.06335782 -0.09072505
0.027107822 -0.058795378 -0.059819885 -0.13706382 0.10512437 0.04121927 -0.14351733 -0.00084036135
0.024534188 -0.050269846 -0.003982022 0.00930475 0.05047848 0.031314842 0.11519344 -0.0757158
-0.04386959 -0.0013300014 0.11257682 -0.10729003 0.04872962 0.06864543 0.022124257 -0.07030107
-0.010557994 -0.08618215 0.024633255 -0.045809574 -0.011645922 0.09971218 -0.10690544 0.005602196
0.047042806 -0.06278267 0.08047295 -0.08314718 -0.08735878 -0.079368696 0.039552398 -0.00023469722
-0.0067987856 0.054767057 0.010354823 0.058387052 -0.028702566 0.057945803 0.056919243 -0.0867547
-0.042820394 0.06582855 0.023186184 0.045279343 0.05218278 0.0029389472 -0.048395522 -0.050333433
0.04265205 -0.052251216 0.09544324 0.013755641 -0.048515785 -0.050840292 0.027944576 -0.031414445
-0.05282922 0.035855576 0.008339131 0.08027782 0.07779583 -0.025630815 0.07375712 0.003805487
-0.035756268 -0.03881476 0.07133808 -0.07191146 -0.06421307 -0.08349186 0.05902018 -0.040257815
0.08871199 -0.10575652 -0.006118296 0.036458667 -0.0826452 -0.05239662 -0.10175311 -0.05181855
-0.03163621 0.047777306 -0.059156243 0.042845607 -0.054020055 -0.026960144 -0.0047105723 -0.011356733
-0.053211257 0.057070706 -0.06894998 -0.0838728 -0.053650923 -0.009641644 0.06611889 0.025108323
-0.036050946 -0.004717681 0.07841942 0.02475045 0.052780464 0.06404179 0.044564344 -0.027419899
0.004062998 -0.054022543 -0.010259868 0.028272314 0.04420338 -0.011392104 -0.062110864 0.02649836
0.0118037695 0.07578314 -0.000719132 -0.005741102 -0.05676075 0.048534166 -0.00088085775 0.0027946888
0.044359215 -0.042311665 -0.04547304 0.010057508 0.057499904 0.046428937 -0.03734065 -0.053938217
0.05119033 -0.08194482 -0.04516562 -0.03821131 0.012973053 -0.025271544 -0.06739219 0.066285364
0.032489754 -0.013926829 -0.064258955 -0.011120902 -0.077807784 -2.201715e-05 0.017890243 0.047820825
00000000: 751a 6d3d f7fc 9b3d 3ed8 0f3d 804d 2c3d
00000010: 1d4a fcba 156b 83bd 54d4 06be 4959 b53d
00000020: 39d2 1cbd 8686 e13c aa64 8abd 4446 e83c
00000030: 579f 1c3d 5697 453d 8bf2 83bd 653e 98bd
00000040: 9186 29bd 121e 92bd 87a6 443d 1c6b 5fbd
00000050: 0fa1 c5bc f239 073b b0c6 7abb e0ca 2cbc
00000060: dd47 163c 24cc 953d b098 bbbd 2017 89bd
00000070: 1c3f 1f3b 6eae 16bd c3bf 813c 14fa 8abd
00000080: cfd6 9dbd 797d 93bd 79e6 53bd 98d2 923c
00000090: c365 643d 5a12 f23c e561 83bd 559e e33b
000000a0: 93a5 6dbd da92 0abe 1ff0 893c 0cb1 91bd
000000b0: fb27 cebd 0227 e2bc f292 b1bd 505b b7bd
000000c0: 606b e5bc 6ea1 5abd 487d 3ebd d8e2 f5bc
000000d0: 7903 763d dda6 62bd 3dc8 07be 1ce5 c5bc
000000e0: 32c5 37bd 63ba 6abd 7537 253c a75a c6bd
000000f0: 4839 7fbd 0b32 5dbd 9d84 203d 8c6f 23be
00000100: ae23 b23b 878f 01bd 954c 2a3d 1284 babd
00000110: 14a4 00b9 80f0 b83c 60aa 90bd fdfb c1bd
00000120: 9467 e33c b340 56bd a5f6 d6bc 80c1 9cbd
00000130: 7641 1dbd 3e0a 013d e835 0abe bd95 243d
00000140: bb19 ee3c d1e9 bbbd 831f 993d e8f4 afbd
00000150: 80b4 0b3d 33d1 9b3c 407e 90bd 76d5 d43d
00000160: 1c20 e8bc fe1f 4d3c 3bfc efbd 2c1b a73c
00000170: 140d 853d 6bd2 f7bc 15e9 973d 970c 60bd
00000180: bcab 323c 801e 14bd 2d34 263c 2821 bb3d
00000190: 09ff 81bd c10e 603c bfc1 81bd 0ece b9bd
000001a0: 3911 de3c 6cd3 70bd b205 75bd 755a 0cbe
000001b0: 724b d73d 8ad5 283d 35f6 12be b24b 5cba
000001c0: ecfb c83c c1e7 4dbd 9f7b 82bb f372 183c
000001d0: 86c2 4e3d fe43 003d 8aea eb3d e310 9bbd
000001e0: 99b0 33bd 7153 aeba ad8e e63d e0ba dbbd
000001f0: b698 473d fa95 8c3d ee3d b53c 02fa 8fbd
00000200: 70fb 2cbc 4480 b0bd aecb c93c d2a2 3bbd
00000210: 8ace 3ebc e635 cc3d 3df1 dabd a092 b73b
00000220: f5af 403d 3394 80bd 01cf a43d 1249 aabd
00000230: 29e9 b2bd 0e8c a2bd b201 223d 0e19 76b9
00000240: 59c8 debb 6c53 603d 47a7 293c 4327 6f3d
00000250: a521 ebbc 9458 6d3d 2724 693d 73ac b1bd
00000260: 7064 2fbd 1ed1 863d f4f0 bd3c d576 393d
00000270: 9cbd 553d 5a9b 403b 623a 46bd 6e2a 4ebd
00000280: eab3 2e3d 5f05 56bd bf77 c33d 575f 613c
00000290: 7db8 46bd e93d 50bd 06ec e43c 6fac 00bd
000002a0: 7463 58bd 4cdd 123d daa0 083c b368 a43d
000002b0: 6c53 9f3d b7f7 d1bc f90d 973d 7a65 793b
000002c0: 2a75 12bd 3afc 1ebd b319 923d 5146 93bd
000002d0: 2482 83bd c8fd aabd 25bf 713d 61e5 24bd
000002e0: a2ae b53d e096 d8bd fd7b c8bb af55 153d
000002f0: e341 a9bd d79d 56bd ef63 d0bd b03f 54bd
00000300: f894 01bd 23b2 433d d14d 72bd e07e 2f3d
00000310: 2244 5dbd 85db dcbc 255b 9abb 9711 3abc
00000320: 0cf4 59bd f9c2 693d a635 8dbd 81c5 abbd
00000330: 12c1 5bbd fcf7 1dbc 5769 873d f8af cd3c
00000340: 28aa 13bd c796 9abb 5c9a a03d 75c1 ca3c
00000350: 5430 583d 5828 833d 1a89 363d b29f e0bc
00000360: e622 853b be46 5dbd 0119 28bc 579b e73c
00000370: 9a0e 353d f3a5 3abc f667 7ebd 1713 d93c
00000380: 9964 413c 3134 9b3d 2284 3cba db1f bcbb
00000390: f67d 68bd c3cb 463d 5de9 66ba 1927 373b
000003a0: 02b2 353d ff4e 2dbd f041 3abd 3fc8 243c
000003b0: 0585 6b3d 452c 3e3d 82f2 18bd 52ee 5cbd
000003c0: f4ac 513d b0d2 a7bd 96ff 38bd 7683 1cbd
000003d0: ee8c 543c 4506 cfbc eb04 8abd 9fc0 873d
000003e0: fa13 053d 5b2d 64bc 339a 83bd 7234 36bc
000003f0: b059 9fbd 78b1 b8b7 8f8e 923c c5df 433d

regression_net.2.bias f4 [128]
-0.0503118 0.019862663 -0.05130652 0.003151948 0.0003424477 -0.068831585 -0.05308204 0.026632499
0.060761444 0.07804275 0.00082767266 -0.088453956 -0.025743954 0.005420325 -0.04560318 0.0729585
0.07315936 0.0050111525 -0.12322817 0.051301975 0.016429104 -0.002109571 0.007754461 -0.0554589
0.013919878 0.017979346 0.023571799 -0.071304135 0.04350864 0.07796176 -0.040346213 0.0676887
0.053183544 -0.0343361 -0.06283525 0.045977153 0.002584797 0.043706857 -0.090087384 0.08653057
-0.09320289 -0.06052981 0.080612585 0.09400908 0.0078113093 -0.061956536 -0.023183113 -0.070268676
-0.0002719395 -0.007543619 0.0486021 -0.03827556 -0.062299278 -0.056400836 0.048497353 0.050378263
0.054933257 -0.087754555 0.0711307 -0.05756032 -0.09111826 -0.06807873 0.034621667 0.020216942
0.015706662 -0.04549562 -0.026633367 -0.0069915927 0.0023301002 0.08689301 0.05321033 0.033557992
0.041758753 0.04850732 0.08423091 0.029868668 0.05599368 -0.030739404 -0.0592514 -0.06621806
-0.030436285 -0.07640397 -0.06747111 -0.029620769 -0.066694565 -0.045052435 0.07525661 -0.09935321
-0.034140263 -0.032437377 -0.039040547 0.06364683 -0.0115226135 -0.08099638 -0.08770309 0.04051174
0.05574555 -0.010933785 -0.038164183 -0.031749636 -0.0031996516 0.02796033 -0.02898767 0.078136235
-0.112310804 -0.062140238 -0.0554942 0.013102538 0.01950723 -0.08299389 -0.10617397 0.06111636
-0.038253333 0.020117626 -0.101171196 0.02573938 -0.032030437 -0.041493718 -0.07435093 0.043154787
-0.07554209 0.07925478 0.064447016 0.0211493 -0.0014197947 0.010790327 -0.080338515 0.0037126252
00000000: bf13 4ebd 06b7 a23c c926 52bd ea90 4e3b
00000010: 8d8a b339 93f7 8cbd 8e6c 59bd 662c da3c
00000020: fee0 783d e1d4 9f3d 2cf8 583a 5927 b5bd
00000030: fce4 d2bc fb9c b13b 66ca 3abd 446b 953d
00000040: 93d4 953d 9834 a43b 0d5f fcbd 0522 523d
00000050: 5496 863c ba40 0abb 2219 fe3b df28 63bd
00000060: 3310 643c 6c49 933c a519 c13c e707 92bd
00000070: 1e36 323d 6aaa 9f3d 1242 25bd 60a0 8a3d
00000080: fdd6 593d 03a4 0cbd c4af 80bd 8a52 3c3d
00000090: b365 293b f605 333d bc7f b8bd f136 b13d
000000a0: 28e1 bebd 1bee 77bd 3618 a53d d587 c03d
000000b0: 03f6 ff3b 23c6 7dbd 83ea bdbc 06e9 8fbd
000000c0: 1a93 8eb9 7630 f7bb ff12 473d d5c6 1cbd
000000d0: 872d 7fbd 9004 67bd 29a5 463d 7059 4e3d
000000e0: b201 613d a9b8 b3bd f9ac 913d 5fc4 6bbd
000000f0: 369c babd dc6c 8bbd 73cf 0d3d 009e a53c
00000100: 42ab 803c 9e59 3abd 382e dabc bb19 e5bb
00000110: 98b4 183b f6f4 b13d 13f3 593d 1b74 093d
00000120: 3a0b 2b3d 9daf 463d 4181 ac3d 23af f43c
00000130: a159 653d 34d1 fbbc 99b1 72bd 569d 87bd
00000140: 8455 f9bc af79 9cbd 4b2e 8abd 41a7 f2bc
00000150: 2997 88bd e788 38bd 2320 9a3d b279 cbbd
00000160: a9d6 0bbd 0edd 04bd fbe8 1fbd 4559 823d
00000170: 58c9 3cbc 6ee1 a5bd ad9d b3bd a3ef 253d
00000180: 7255 643d 9e23 33bc 0c52 1cbd e80b 02bd
00000190: 3fb1 51bb 100d e53c 8d77 edbc e405 a03d
000001a0: 3503 e6bd c386 7ebd e34d 63bd 07ac 563c
000001b0: a0cd 9f3c b3f8 a9bd bd71 d9bd 2655 7a3d
000001c0: 87af 1cbd b8cd a43c d832 cfbd 64db d23c
000001d0: 5932 03bd 51f5 29bd 4d45 98bd 13c3 303d
000001e0: d0b5 9abd 5550 a23d ccfc 833d 4c41 ad3c
000001f0: 6818 baba e9c9 303c 8588 a4bd 844f 733b

regression_net.4.weight f4 [1, 128]
0.041422296 -0.016782042 0.045381594 -0.03995204 0.013687202 0.001418894 -0.035427134 0.058551904
-0.07266567 0.037866347 -0.051848684 0.049180545 -0.0907282 -0.005780896 0.0405637 0.009773416
-0.08039416 0.0027246613 -0.004266465 0.048642628 -0.039148424 0.028672028 -0.0696951 -0.031397883
-0.04770897 -0.0029010768 -0.013214158 0.01235345 -0.026380818 -0.05624658 0.03764505 -0.029389989
-0.025574163 0.030347424 -0.02584801 -0.05155249 -0.007817154 0.0013095309 0.078891374 -0.054639924
0.042036034 -0.026687559 -0.06394216 -0.025936725 -0.057880465 -0.024713835 0.03316934 -0.024160795
0.066981316 -0.047501087 -0.00633387 -0.007886691 0.022651017 -0.00050385407 -0.038469024 -0.0061230846
-0.017609667 -0.04274744 0.027192168 -0.014451491 0.023090735 -0.026991153 -0.07378288 -0.021888645
0.06739333 -0.06406229 -0.05077073 0.013925241 0.0052950447 -0.036572114 0.054684885 0.043836813
0.054722548 0.010382016 -0.05519886 0.059083536 0.0034693424 0.031827983 0.07203937 -0.036163747
-0.041187953 0.0043747174 -0.03694061 0.055780686 -0.034227382 0.06584875 -0.021684224 0.062285494
0.027376296 -0.0066616926 -0.052135263 -0.011858496 0.022919193 -0.044284776 0.051066194 -0.038934894
0.02163346 0.012593141 -0.007961747 -0.03710905 -0.0059968457 0.061043255 0.00084763195 -0.018894376
-0.00019038781 0.04269188 -0.025208214 -0.017104555 -0.0070939832 0.003104269 0.023022907 -0.015760597
-0.015549371 -0.036082216 0.007071052 0.061460823 -0.02828812 -0.028059578 0.03644921 -0.0060822214
0.05513172 -0.01813707 0.0659278 -0.031526905 -0.057756368 -0.016432157 -0.044841204 -0.016564533
00000000: 6daa 293d 7e7a 89bc 0de2 393d c0a4 23bd
00000010: 4940 603c 2ffa b93a 0b1c 11bd 1fd4 6f3d
00000020: bdd1 94bd be19 1b3d 495f 54bd 8a71 493d
00000030: b5cf b9bd ac6d bdbb 1f26 263d ae20 203c
00000040: b1a5 a4bd 3b90 323b b4cd 8bbb 7e3d 473d
00000050: 195a 20bd 9ae1 ea3c 4ebc 8ebd 119b 00bd
00000060: 7b6a 43bd fe1f 3ebb 3280 58bc 2066 4a3c
00000070: 961c d8bc d062 66bd b231 1a3d 46c3 f0bc
00000080: e880 d1bc 299b f83c 35bf d3bc b428 53bd
00000090: 8513 00bc 91a4 ab3a cd91 a13d 1dce 5fbd
000000a0: fa2d 2c3d de9f dabc 1bf4 82bd 4179 d4bc
000000b0: 1114 6dbd ab74 cabc 93dc 073d dcec c5bc
000000c0: 802d 893d 8090 42bd 5a8c cfbb 2e37 01bc
000000d0: a08e b93c 1315 04ba b291 1dbd 28a4 c8bb
000000e0: 2642 90bc f117 2fbd 1cc2 de3c f2c5 6cbc
000000f0: c828 bd3c 8d1c ddbc 7b1b 97bd d14f b3bc
00000100: 8405 8a3d 1733 83bd f8f4 4fbd b226 643c
00000110: 0e82 ad3b a4cc 15bd 42fd 5f3d 3b8e 333d
00000120: c024 603d 5519 2a3c 3318 62bd 9401 723d
00000130: e85d 633b 0f5e 023d 6189 933d 7020 14bd
00000140: b3b4 28bd ca59 8f3b 094f 17bd 4a7a 643d
00000150: 0332 0cbd b6db 863d 1da3 b1bc 131f 7f3d
00000160: 4144 e03c 544a dabb c98b 55bd 234a 42bc
00000170: 08c1 bb3c f463 35bd c92a 513d 327a 1fbd
00000180: a738 b13c 7653 4e3c fd71 02bc a9ff 17bd
00000190: 3081 c4bb 7e08 7a3d 9e33 5e3a 61c8 9abc
000001a0: d7a2 47b9 aedd 2e3d 7581 cebc da1e 8cbc
000001b0: a574 e8bb fe70 4b3b 899a bc3c 5e1c 81bc
000001c0: cac2 7ebc f2ca 13bd 49b4 e73b 58be 7b3d
000001d0: 7dbc e7bc 33dd e5bc c44b 153d 5f4d c7bb
000001e0: ccd1 613d 3194 94bc 2805 873d 5b22 01bd
000001f0: f191 6cbd bb9c 86bc 69ab 37bd 58b2 87bc

transformer_enc.layers.0.self_attn.in_proj_weight f4 [384, 128]
0.03533106 -0.11457242 -0.07424285 0.09720161 -0.099587664 0.0959019 0.015389426 0.10398414
0.070563726 0.06908086 -0.077210166 0.053972095 0.08795298 0.09050729 -0.03701681 -0.07051678
-0.025665926 0.010386853 -0.099152975 -0.026318377 0.024154175 0.009938534 0.085156746 -0.018936353
0.09460373 0.05318349 0.083380915 -0.14203219 0.06289454 0.09039639 0.1176159 0.08017854
0.10457814 0.07231773 -0.010687062 -0.018535802 -0.035493597 -0.057312146 0.026761662 0.10981076
-0.057917513 -0.015271842 0.10001264 0.002502895 -0.14117877 0.07212803 0.046326015 -0.039740562
-0.036382005 -0.08275637 -0.08240652 0.0057007424 -0.06410826 0.006836458 0.017119922 0.09582664
-0.05130835 0.06946291 -0.0790544 0.09233739 0.028011782 -0.06569698 0.06018441 -0.078133926
0.066929765 -0.014317674 0.05980951 -0.06871778 0.004908407 -0.010702107 -0.0381005 -0.06352194
-0.051263157 0.02832406 0.07681839 -0.030326147 -0.06868558 -0.09808219 -0.037937474 0.011763409
-0.08393585 0.100657724 0.09068433 0.0004927773 0.091897026 -0.0994294 0.046036497 0.057521723
0.030355081 0.099914744 -0.004535189 0.03897568 -0.08296753 -0.117065385 -0.023676423 0.0144506935
0.10998846 -0.06614981 -0.09084389 -0.053662322 -0.02676043 -0.030165795 0.11082946 -0.035050537
0.011560126 0.01691699 0.007616028 0.024082318 -0.10252624 -0.051428773 0.06309189 0.06258453
0.042686395 -0.08060969 0.073181115 0.06633259 -0.056526013 -0.015916586 -0.08782454 0.030865397
-0.091705546 -0.017357606 -0.025715722 0.0051698163 0.14121398 0.047662944 -0.09608206 -0.07405331
-0.03041169 -0.022622656 0.02301948 0.053209834 0.044418614 0.018873295 -0.05520597 0.076301664
0.0843154 -0.08876436 -0.086018346 -0.13932006 0.08042925 -0.10690303 0.039006352 -0.041719202
-0.047081277 -0.06395337 -0.04141587 -0.03816227 -0.10403189 -0.07539387 -0.063838586 -0.03175739
0.03725449 0.04807732 0.032545745 0.021135034 -0.05678231 -0.09534865 -0.00021049561 0.029778138
0.07961494 0.07722692 0.039929014 -0.010281534 -0.0752232 0.0798774 -0.06877958 0.046174835
0.0827353 -0.09356085 0.057570707 -0.028506367 0.042989176 -0.0037360669 0.0869869 -0.0018484561
0.07924495 -0.1227756 -0.06715325 -0.0023100225 0.038591474 -0.020420382 -0.08864784 0.06984979
-0.049608346 0.03320119 -0.07380451 0.06544827 -0.05352901 0.12251724 -0.055286396 0.0075494074
0.022879371 0.016829021 -0.027137488 -0.04558306 0.04556724 -0.010726242 0.09957125 -0.09061619
-0.0645368 -0.022037126 0.08634633 0.036274787 -0.02415102 0.058908604 -0.0015353267 -0.114493854
-0.01553292 0.04579892 -0.06249174 0.004667104 -0.05071684 0.007314597 -0.12436941 -0.057562027
0.070015915 0.054668847 0.029973771 -0.064555936 -0.02010917 -0.018207273 0.07348437 0.030903988
-0.051718716 -0.018224474 -0.108970456 0.06712868 0.06642978 -0.04686285 -0.09317047 0.0019192228
-0.109347984 0.071119994 0.057089012 0.0034428847 0.09204155 -0.034089215 0.0059707966 0.02033414
0.044796858 -0.06017198 0.08881307 0.08209138 -0.053251345 -0.12618907 -0.006613233 0.11347567
-0.074641146 0.10563911 0.09781374 -0.09489391 -0.067746595 0.010085701 -0.0650142 0.034306295
00000000: 4db7 103d f2a4 eabd a30c 98bd a311 c73d
00000010: 9ef4 cbbd 3768 c43d ee23 7c3c a3f5 d43d
00000020: b783 903d 447a 8d3d 5d20 9ebd d811 5d3d
00000030: b120 b43d e35b b93d f09e 17bd 1a6b 90bd
00000040: 5941 d2bc 9e2d 2a3c b710 cbbd a399 d7bc
00000050: fade c53c 3cd5 223c a966 ae3d 6920 9bbc
00000060: 9abf c13d eed6 593d 9dc3 aa3d e370 11be
00000070: dace 803d be21 b93d 9be0 f03d a534 a43d
00000080: 102d d63d 511b 943d c918 2fbc 65d8 97bc
00000090: bc61 11bd 24c0 6abd 463b db3c 77e4 e03d
000000a0: ea3a 6dbd bf36 7abc 6dd3 cc3d 9c07 243b
000000b0: 2b91 10be dcb7 933d 59c0 3d3d 00c7 22bd
000000c0: 4c05 15bd 2c7c a9bd c0c4 a8bd 4bcd ba3b
000000d0: 314b 83bd 5e04 e03b 143f 8c3c c240 c43d
000000e0: b428 52bd 9242 8e3d 46e7 a1bd 631b bd3d
000000f0: f778 e53c 238c 86bd ee83 763d ae04 a0bd
00000100: 7912 893d ad94 6abc d1fa 743d e8bb 8cbd
00000110: b4d6 a03b e457 2fbc 450f 1cbd ca17 82bd
00000120: 51f9 51bd dc07 e83c f652 9d3d 8a6e f8bc
00000130: 06ab 8cbd 51df c8bd 5364 1bbd 50bb 403c
00000140: 8fe6 abbd a325 ce3d b5b8 b93d ba2d 013a
00000150: 8234 bc3d a4a1 cbbd c490 3c3d e69b 6b3d
00000160: 38ab f83c 1aa0 cc3d ec9b 94bb f6a4 1f3d
00000170: e1ea a9bd fabf efbd 0ff5 c1bc 9ac2 6c3c
00000180: a141 e13d 8d79 87bd 5d0c babd 06cd 5bbd
00000190: b038 dbbc 421e f7bc 8efa e23d 2791 0fbd
000001a0: af66 3d3c 8095 8a3c e08f f93b 4848 c53c
000001b0: 47f9 d1bd faa6 52bd 5236 813d 512c 803d
000001c0: eed7 2e3d b116 a5bd fbdf 953d 62d9 873d
000001d0: d287 67bd 8063 82bc 5add b3bd 6ed9 fc3c
000001e0: 1ed0 bbbd 8a31 8ebc c7a9 d2bc 9067 a93b
000001f0: 669a 103e 383a 433d acc6 c4bd 43a9 97bd
00000200: f021 f9bc 2653 b9bc 5993 bc3c 8ef2 593d
00000210: 4bf0 353d 2b9c 9a3c a81f 62bd 0c44 9c3d
00000220: 8dad ac3d 17ca b5bd 632a b0bd eba9 0ebe
00000230: 17b8 a43d faef dabd 20c5 1f3d c1e1 2abd
00000240: 4cd8 40bd fcf9 82bd b0a3 29bd 0a50 1cbd
00000250: ac0e d5bd 1a68 9abd cebd 82bd 0914 02bd
00000260: 2a98 183d b9ec 443d b04e 053d 6123 ad3c
00000270: 9194 68bd 2746 c3bd 7cb8 5cb9 48f1 f33c
00000280: 280d a33d 2629 9e3d 9b8c 233d e173 28bc
00000290: 9f0e 9abd c396 a33d 4fdc 8cbd d321 3d3d
000002a0: 2071 a93d d59c bfbd 43cf 6b3d 2f86 e9bc
000002b0: 6b15 303d cdd8 74bb 3026 b23d e547 f2ba
000002c0: 2d4b a23d c671 fbbd a587 89bd bf63 17bb
000002d0: 1812 1e3d a548 a7bc 008d b5bd 680d 8f3d
000002e0: 1f32 4bbd f9fd 073d d226 97bd be09 863d
000002f0: 3c41 5bbd 52ea fa3d fd73 62bd 0561 f73b
00000300: 856d bb3c 04dd 893c 704f debc 4db5 3abd
00000310: b7a4 3a3d 1fbd 2fbc 03ec cb3d fb94 b9bd
00000320: df2b 84bd 3487 b4bc 58d6 b03d df94 143d
00000330: 5cd8 c5bc 264a 713d 043d c9ba c17b eabd
00000340: ca7d 7ebc a697 3b3d 57f7 7fbd 82ee 983b
00000350: 76bc 4fbd 49af ef3b 64b5 febd 29c6 6bbd
00000360: 8164 8f3d 71ec 5f3d 8e8b f53c e735 84bd
00000370: fcbb a4bc 6b27 95bc f97e 963d 5c2a fd3c
00000380: 01d7 53bd 7e4b 95bc e72b dfbd c37a 893d
00000390: 560c 883d 43f3 3fbd 29d0 bebd 6e8e fb3a
000003a0: d6f1 dfbd 5ca7 913d 2bd6 693d 05a2 613b
000003b0: 4880 bc3d 22a1 0bbd aca6 c33b c893 a63c
000003c0: e97c 373d e576 76bd a0e3 b53d 871f a83d
000003d0: 151e 5abd b537 01be d2b3 d8bb ef65 e83d
000003e0: 75dd 98bd 5159 d83d 9252 c83d bd57 c2bd
000003f0: babe 8abd 7f3e 253c 2a26 85bd c284 0c3d
