mujoco_simulation/unified_scene/replans/replan_data/replan_ini_husky_25_20250308_224336/logs/2025_04_06_19_44_59/model_latest.pth (torch, 569302 bytes, 21 tensors)

tokenizing_net.0.weight f4 [128, 56]
-0.09180839 -0.02178471 -0.07580382 -0.03454705 0.005331456 -0.02309347 0.0979424 -0.020239
0.09757382 0.0073568453 -0.055703897 -0.10087447 0.016967151 -0.0820215 -0.10017789 0.0040524197
-0.09919674 -0.039753057 -0.019151622 -0.07001587 0.1122463 -0.03453201 0.09650782 0.06025463
0.10801258 0.10358023 0.01938856 0.011522192 -0.055851433 0.10735203 0.07677782 -0.074736066
-0.029900737 -0.033118512 0.010993955 -0.07103772 -0.003994506 0.035940886 -0.030530415 -0.011388253
-0.07478965 0.042194586 0.015791427 -0.016576113 -0.044326678 0.06930543 0.009218244 0.037343945
-0.13250363 -0.04153201 -0.11624202 0.05206017 0.11588837 -0.011147128 0.07911966 0.108036235
-0.092212364 -0.045745905 0.02953336 0.04114916 -0.10982483 -0.08476812 0.063534774 0.03098682
-0.12961654 0.102531254 0.13809344 -0.0943781 -0.056066934 0.050396558 -0.063974835 0.012987706
0.05731852 0.07563555 -0.058639538 0.07477249 -0.0026825182 0.051754136 0.077225685 -0.027212234
0.048391823 0.11358729 -0.10125679 -0.070515715 0.010198666 0.13131636 -0.055133365 0.018652763
0.035635047 0.036540367 -0.08159441 -0.10656567 0.029348746 0.046183325 0.090917915 0.09843591
0.082365036 -0.051739372 0.050011188 0.08066569 0.08542087 0.0746441 0.12754405 0.059044976
0.05639675 0.053084478 0.04593361 0.019738924 -0.061639406 0.11960128 -0.05480275 0.06277458
0.07868739 -0.063425526 -0.009708147 -0.1121518 -0.032585986 -0.057440035 -0.106447175 -0.11353423
0.09972147 -0.01692968 0.13177094 -0.09068274 0.008159065 -0.0916026 0.114729695 0.11149907
-0.08693912 0.04858373 -0.0400518 0.12733975 -0.09644707 0.07110927 0.017647378 0.046378475
0.03517391 0.093384914 -0.09208034 0.02976316 0.058854677 -0.10710993 -0.080846496 0.1058633
-0.044902653 -0.042797476 -0.043284412 -0.057608526 -0.007432187 -0.043221444 0.07744348 0.046906266
-0.008813383 -0.07195868 0.03881833 -0.05648931 0.12187753 -0.12638345 0.05431174 0.049530804
-0.03374598 -0.093834385 -0.036877528 0.11036575 0.060362518 0.121540524 -0.11551093 0.103366144
0.07610376 -0.091954805 0.03160136 -0.057204336 -0.08697071 -0.07389096 -0.090433486 -0.03719594
-0.109420046 -0.055332713 -0.117139265 0.0007956563 -0.06469617 -0.10570796 0.08589003 -0.023580782
-0.03108705 0.023251683 0.0141172465 0.052733276 0.08557798 -0.0039224783 0.11802786 -0.11320052
-0.05473942 0.1331641 -0.019490449 -0.10926791 -0.10054944 0.05781405 0.12639518 0.1117842
-0.036045004 -0.044257764 -0.015799629 -0.0024803095 0.070431635 0.11777161 0.013660227 -0.02326107
0.10367045 -0.10178554 -0.060215406 0.13949478 -0.051147755 0.06741273 -0.07622203 -0.05795764
-0.07250208 -0.06761241 -0.086822845 -0.08879983 0.0039994027 0.022213101 0.08808449 -0.018840063
-0.13932079 -0.08484183 -0.1418107 0.128174 0.092692144 -0.09965106 0.023377495 -0.05274959
0.031196203 0.07584172 0.0696241 -0.0043997415 0.09070921 0.0665775 -0.03630085 0.0031309482
-0.027866432 -0.018300174 -0.0223444 0.00097478926 0.060326077 -0.00756024 0.05035738 -0.031504657
-0.10540224 -0.12591769 0.0141222095 0.070642926 -0.078996904 0.051543664 -0.06276182 0.010843369
00000000: 0a06 bcbd d975 b2bc 083f 9bbd 3581 0dbd
00000010: 7fb3 ae3b 842e bdbc 0696 c83d 42cc a5bc
00000020: c8d4 c73d b111 f13b c529 64bd 4697 cebd
00000030: b2fe 8a3c e3fa a7bd 112a cdbd 29ca 843b
00000040: a927 cbbd 1ad4 22bd dde3 9cbc 7b64 8fbd
00000050: 63e1 e53d 7071 0dbd e4a5 c53d 8fcd 763d
00000060: b335 dd3d df21 d43d c2d4 9e3c 93c7 3c3c
00000070: 79c4 64bd 62db db3d b13d 9d3d 390f 99bd
00000080: 64f2 f4bc 47a7 07bd fd1f 343c 397c 91bd
00000090: 58e4 82bb c036 133d ec1a fabc cc95 3abc
000000a0: 512b 99bd 3bd4 2c3d 065d 813c a1ca 87bc
000000b0: e48f 35bd 01f0 8d3d 1e08 173c f7f5 183d
000000c0: 08af 07be 781d 2abd 4c10 eebd 0b3d 553d
000000d0: e256 ed3d 72a2 36bc 7d09 a23d 1a42 dd3d
000000e0: d6d9 bcbd 0f60 3bbd f2ef f13c 068c 283d
000000f0: d7eb e0bd e89a adbd 851e 823d 12d8 fd3c
00000100: 33ba 04be e8fb d13d 5e68 0d3e 4e49 c1bd
00000110: 71a6 65bd 9f6c 4e3d 3d05 83bd 63ca 543c
00000120: d3c6 6a3d d0e6 9a3d 0330 70bd 5222 993d
00000130: 30cd 2fbb 25fc 533d 8028 9e3d 31ec debc
00000140: 8136 463d 74a0 e83d b85f cfbd 8b6a 90bd
00000150: 4e18 273c cc77 063e 86d3 61bd aecd 983c
00000160: 0ef6 113d 5aab 153d f81a a7bd 1a3f dabd
00000170: c86c f03c ba2a 3d3d 2c33 ba3d c498 c93d
00000180: 00af a83d aaec 53bd 88d8 4c3d 0e34 a53d
00000190: 23f1 ae3d 02df 983d e89a 023e 25d9 713d
000001a0: 4700 673d 1c6f 593d e224 3c3d 86b3 a13c
000001b0: 9a79 7cbd 84f1 f43d d978 60bd f68f 803d
000001c0: db26 a13d 3ee5 81bd eb0e 1fbc d8af e5bd
000001d0: e278 05bd 3e46 6bbd fa00 dabd a284 e8bd
000001e0: c53a cc3d 1db0 8abc f6ee 063e dfb7 b9bd
000001f0: 99ad 053c 259a bbbd 67f7 ea3d a059 e43d
00000200: 230d b2bd bcff 463d 5b0d 24bd 5a65 023e
00000210: 0b86 c5bd bda1 913d 3c91 903c 5bf7 3d3d
00000220: 8512 103d 9740 bf3d 9e94 bcbd dfd1 f33c
00000230: 9a11 713d 735c dbbd d992 a5bd dcce d83d
00000240: d8eb 37bd 684c 2fbd ff4a 31bd ebf6 6bbd
00000250: b489 f3bb f808 31bd b09a 9e3d c920 403d
00000260: 0266 10bc 135f 93bd f8ff 1e3d 5661 67bd
00000270: ed9a f93d aa6a 01be fd75 5e3d d0e0 4a3d
00000280: 3a39 0abd 3e2c c0bd e40c 17bd 7007 e23d
00000290: b03e 773d 3dea f83d ff90 ecbd a1b1 d33d
000002a0: 4adc 9b3d cd52 bcbd 6d70 013d 184f 6abd
000002b0: b31d b2bd 2554 97bd 3135 b9bd c55a 18bd
000002c0: 9e17 e0bd 8ea4 62bd b6e6 efbd 9793 503a
000002d0: 6d7f 84bd 6a7d d8bd 1de7 af3d 7c2c c1bc
000002e0: 45aa febc 507a be3c 064c 673c d9fe 573d
000002f0: 8243 af3d 2288 80bb 97b8 f13d add5 e7bd
00000300: 7136 60bd 2b5c 083e 6faa 9fbc dbc7 dfbd
00000310: ddec cdbd 6dce 6c3d bd6d 013e 1def e43d
00000320: eda3 13bd a147 35bd 396e 81bc b08c 22bb
00000330: 763e 903d 3e32 f13d 25cf 5f3c 008e bebc
00000340: 2c51 d43d f074 d0bd 6ea4 76bd b8d7 0e3e
00000350: 4f80 51bd af0f 8a3d 4c1a 9cbd fe64 6dbd
00000360: f87b 94bd 6078 8abd 2dd0 b1bd afdc b5bd
00000370: 6c0d 833b 40f8 b53c a465 b43d 7a56 9abc
00000380: 1caa 0ebe 8ec1 adbd d336 11be 0c40 033e
00000390: 61d5 bd3d db15 ccbd 2982 bf3c f40f 58bd
000003a0: 2e8f ff3c e752 9b3d 1597 8e3d b52b 90bb
000003b0: c0c5 b93d c959 883d 33b0 14bd 9830 4d3b
000003c0: 2548 e4bc 3fea 95bc 9a0b b7bc 0089 7f3a
000003d0: 7a18 773d e4bb f7bb 8a43 4e3d 070b 01bd
000003e0: 21dd d7bd 91f0 00be d760 673c 3dad 903d
000003f0: 21c9 a1bd 731f 533d 4589 80bd 63a8 313c

tokenizing_net.0.bias f4 [128]
0.07430686 -0.031807348 0.010724704 -0.084450744 0.095955715 0.020630147 -0.122814976 -0.10409918
0.08751456 -0.014058262 0.080873325 -0.12993492 0.111859284 -0.12446387 -0.016068362 0.028748991
-0.035377853 -0.11743152 -0.10443335 -0.049160037 0.007518275 -0.10682498 -0.080322765 -0.07925718
-0.08930098 0.022927508 -0.08850501 -0.012295141 -0.10144683 -0.033923127 -0.12553315 -0.10666409
0.039850432 -0.045342207 0.006814488 -0.08990386 -0.04515613 -0.034269482 0.05771003 0.10830661
-0.035493355 -0.12655658 0.082944304 -0.06378149 -0.0961414 -0.12958643 0.048549183 0.0025514064
0.12558943 0.063156925 0.098368004 0.015907533 -0.008210291 -0.0042306576 -0.12485674 0.008333637
0.048623264 -0.12005913 0.10987272 -0.047914404 0.073016316 -0.09316293 -0.03673235 -0.028991096
-0.04982559 0.117610894 -0.047304492 -0.03348474 0.10499259 -0.022644484 0.0043551708 0.016926613
-0.05479947 -0.079757586 0.12816212 -0.045320276 -0.13184963 0.09984673 0.061077237 0.12424413
0.03869898 -0.0123715745 0.014080882 -0.084210485 -0.06841654 0.09552441 0.059544392 -0.050892375
0.020355163 -0.023026802 -0.017808357 0.026414497 0.03143491 -0.08136258 -0.038950223 -0.0675022
0.1331273 0.090115525 0.009757173 -0.10423963 -0.03889119 -0.014057442 -0.06209933 -0.092794724
0.08143325 -0.06552852 -0.13121203 0.032478742 0.13568537 0.027154293 -0.020764356 0.08897457
-0.029467046 0.06651569 0.109592505 0.12626421 0.038946386 -0.12681384 -0.055123515 -0.093851335
-0.09144531 -0.029467508 0.0031517053 0.10486794 0.01981219 0.105836585 0.03049185 -0.022429889
00000000: 322e 983d 6c48 02bd abb6 2f3c 83f4 acbd
00000010: 6e84 c43d 8e00 a93c 6b86 fbbd f331 d5bd
00000020: d53a b33d a054 66bc eaa0 a53d a90d 05be
00000030: 7b16 e53d eae6 febd cca1 83bc 0183 eb3c
00000040: 5ee8 10bd f07f f0bd 27e1 d5bd 095c 49bd
00000050: dd5b f63b 0ec7 dabd 4380 a4bd 9751 a2bd
00000060: 6fe3 b6bd 78d2 bb3c 1d42 b5bd 8f71 49bc
00000070: 5bc3 cfbd faf2 0abd c38b 00be b472 dabd
00000080: 353a 233d c0b8 39bd 124c df3b 841f b8bd
00000090: a2f5 38bd 285e 0cbd 5a61 6c3d dbcf dd3d
000000a0: 7b61 11bd 0c98 01be b4de a93d df9f 82bd
000000b0: c8e5 c4bd 4eb2 04be 82db 463d 7f35 273b
000000c0: 849a 003e 6b58 813d 2a75 c93d 8450 823c
000000d0: 7584 06bc 54a1 8abb e4b4 ffbd cf89 083c
000000e0: 3029 473d 90e1 f5bd f304 e13d e541 44bd
000000f0: 9489 953d 35cc bebd a974 16bd bc7e edbc
00000100: eb15 4cbd fbdd f03d 5bc2 41bd 4b27 09bd
00000110: 5b06 d73d ed80 b9bc d2b5 8e3b aea9 8a3c
00000120: 6975 60bd f257 a3bd ee3c 033e c1a1 39bd
00000130: 9703 07be 717c cc3d 202c 7a3d b573 fe3d
00000140: d282 1e3d 25b2 4abc 80b3 663c 8c76 acbd
00000150: f91d 8cbd 4da2 c33d d2e4 733d 8674 50bd
00000160: dfbf a63c b4a2 bcbc d5e2 91bc 3763 d83c
00000170: e4c1 003d 6da1 a6bd 458a 1fbd 983e 8abd
00000180: 8652 083e 7d8e b83d 8ddc 1f3c 967b d5bd
00000190: 5e4c 1fbd 2f51 66bc de5b 7ebd 290b bebd
000001a0: 7ac6 a63d d133 86bd 725c 06be 6e08 053d
000001b0: 1bf1 0a3e ae72 de3c 031a aabc 4d38 b63d
000001c0: e064 f1bc 6139 883d 0972 e03d 684b 013e
000001d0: 3f86 1f3d 7ddb 01be 32c9 61bd 2135 c0bd
000001e0: ae47 bbbd d865 f1bc d78c 4e3b 01c5 d63d
000001f0: 2d4d a23c dac0 d83d 0bca f93c e3be b7bc

tokenizing_net.1.weight f4 [128]
1.0019053 1.0096798 1.0134547 0.99771374 1.0145682 0.9975698 1.0096564 1.0017735
1.0010087 0.99721 0.9959312 0.9983697 0.99509007 1.000605 1.0034442 0.99941266
1.0033692 0.99558175 0.99987817 0.9967119 1.0028777 0.9959748 1.0012548 0.99848396
1.0000794 0.99644965 0.99840045 0.9939499 1.0019324 0.9960192 1.0075771 1.0018773
0.9992066 0.99432194 1.0009935 0.994599 0.99895495 1.0027297 1.0016364 0.99656624
0.9996551 0.99945897 0.9984188 1.000417 0.99526817 1.0074929 0.99800175 0.99969184
1.0062186 0.99473256 1.0006603 0.99430406 1.0017911 0.9941641 1.0057327 1.0047321
0.9996539 1.0007613 0.99773294 0.9931448 1.0171463 0.99658984 0.9950144 0.99758434
1.0039289 1.001761 1.0105557 1.0033531 1.0001751 0.99887013 1.010949 1.0189154
1.000189 0.9993226 1.011202 1.021009 1.0005852 1.0002975 1.0160604 0.99517065
1.0075152 0.9931992 0.9914521 0.9924591 1.0017748 1.0022547 1.0009823 1.0007538
0.9989827 1.0013732 1.0002594 0.99534327 1.0026225 0.9966878 0.99567693 1.0017201
1.0051559 1.0012211 1.0033511 0.99581665 0.9986227 1.0003752 0.99526566 0.9992832
1.0010265 0.994429 0.99934673 0.9965307 0.99917257 1.0084805 1.0037594 0.99931824
1.0051298 0.99751127 1.0128876 1.0063542 1.0041292 1.0037097 1.0181277 0.99920374
1.0048877 1.0078219 0.9982062 1.0040314 1.0063144 1.0025125 1.0020244 0.9956931
00000000: 6f3e 803f 303d 813f e2b8 813f 2b6a 7f3f
00000010: 5fdd 813f bc60 7f3f 6c3c 813f 1d3a 803f
00000020: 0e21 803f 2849 7f3f 59f5 7e3f 2895 7f3f
00000030: 39be 7e3f d313 803f dc70 803f 82d9 7f3f
00000040: 676e 803f 72de 7e3f 04f8 7f3f 8328 7f3f
00000050: 4c5e 803f 34f8 7e3f 1e29 803f a59c 7f3f
00000060: 9a02 803f 5317 7f3f 2c97 7f3f 8073 7e3f
00000070: 523f 803f 1dfb 7e3f 49f8 803f 843d 803f
00000080: 01cc 7f3f e28b 7e3f 8e20 803f 0a9e 7e3f
00000090: 83bb 7f3f 7259 803f 9f35 803f f71e 7f3f
000000a0: 66e9 7f3f 8bdc 7f3f 6098 7f3f aa0d 803f
000000b0: e5c9 7e3f 87f5 803f 0b7d 7f3f ceeb 7f3f
000000c0: c5cb 803f cba6 7e3f a315 803f b68a 7e3f
000000d0: b13a 803f 8a81 7e3f d9bb 803f 109b 803f
000000e0: 51e9 7f3f f218 803f 6d6b 7f3f bd3e 7e3f
000000f0: da31 823f 8320 7f3f 44b9 7e3f b061 7f3f
00000100: be80 803f b439 803f e459 813f e06d 803f
00000110: bd05 803f f4b5 7f3f c766 813f d26b 823f
00000120: 3106 803f 9bd3 7f3f 116f 813f 6cb0 823f
00000130: 2d13 803f c009 803f 440e 823f 81c3 7e3f
00000140: 42f6 803f 4e42 7e3f cecf 7d3f cd11 7e3f
00000150: 283a 803f e249 803f 3020 803f b318 803f
00000160: 55bd 7f3f ff2c 803f 8008 803f d1ce 7e3f
00000170: ef55 803f ef26 7f3f afe4 7e3f 5d38 803f
00000180: f3a8 803f 0328 803f cf6d 803f d7ed 7e3f
00000190: bda5 7f3f 4b0c 803f bbc9 7e3f 06d1 7f3f
000001a0: a321 803f e692 7e3f 30d5 7f3f a31c 7f3f
000001b0: c6c9 7f3f e415 813f 307b 803f 52d3 7f3f
000001c0: 18a8 803f e65c 7f3f 4da6 813f 37d0 803f
000001d0: 4e87 803f 8f79 803f 0252 823f d1cb 7f3f
000001e0: 29a0 803f 4f00 813f 718a 7f3f 1a84 803f
000001f0: e9ce 803f 5452 803f 5642 803f bee5 7e3f

tokenizing_net.1.bias f4 [128]
-0.0019973407 0.0024804214 0.0015731154 0.00072571455 -0.0018359418 -0.0050868005 0.0036860355 -0.0014425744
-1.1773724e-05 0.0034679843 -0.0026132672 -0.0008050388 -0.0015911927 -2.6933458e-05 0.0009845638 -0.0033024277
0.0012884806 0.0065865456 0.00078983937 0.0039014108 -0.0018759288 0.004453689 0.0032573573 0.0016836262
0.0020416644 -0.0032084724 -0.000268541 0.005630081 0.00044588133 0.0026245127 0.00038077577 0.00078634266
0.003216574 0.004144401 0.0014643155 0.0067943 0.00036706444 0.0004785606 -0.0014669233 0.003755709
-0.0023881153 -0.0011990957 0.0014187894 -0.00040775377 -0.0064002513 -0.0026167103 -0.0025540662 -0.0006122091
0.00019354529 -0.005148045 -0.00098853 -0.004504484 -0.0018184922 -0.0019323779 0.003816207 -0.0011026859
-0.0003259247 -0.0019110297 -0.0039703655 -0.001637878 -0.0005478187 0.0036789882 0.00661916 0.002196832
-0.0015479208 0.00052481977 -0.0033162176 0.0010963819 -0.00366651 -0.0014552101 -0.002401744 0.0016891953
-0.0010971779 0.0027153352 0.003460639 0.0019557988 -0.00046027362 -0.0001933386 -0.001625445 -0.0061306246
-0.0025255133 0.0013718012 -0.008174446 0.0028856199 0.00078069174 -0.00041265727 0.0016571586 -0.0015474668
-0.0013928592 -0.0009761871 0.00027049176 -0.0066384515 -0.0030123391 -0.003809772 -0.002740179 0.0024838494
0.0012273014 0.0021095155 0.0024739048 -0.004723002 0.0034658783 0.0016363367 0.0060114674 0.002198283
0.0015855542 0.004316146 0.0007022638 0.0017695989 0.0020487143 0.0020457509 -0.0012116333 0.00040187535
-0.0060346066 -0.0045213485 0.001462786 -0.0039359787 0.0005682994 -0.00071760983 -0.0038439655 0.0015767922
-0.00023281242 -0.0021198937 -0.0015332283 -0.00088962395 0.00020375068 0.0008089875 0.0030538724 0.0039153374
00000000: d1e5 02bb 918e 223b fe30 ce3a e13d 3e3a
00000010: fca3 f0ba 2daf a6bb 6a91 713b c414 bdba
00000020: c287 45b7 1f47 633b 5943 2bbb 3d09 53ba
00000030: 918f d0ba 29ef e1b7 7b0c 813a 8b6d 58bb
00000040: 3ce2 a83a f3d3 d73b 390d 4f3a d0ae 7f3b
00000050: bae1 f5ba 40f0 913b 6379 553b 1fad dc3a
00000060: 72cd 053b 3c45 52bb f7ca 8cb9 8b7c b83b
00000070: 2ec5 e939 0400 2c3b dca2 c739 9022 4e3a
00000080: 28cd 523b c1cd 873b 46ee bf3a b8a2 de3b
00000090: 8e72 c039 51e7 fa39 c745 c0ba 5722 763b
000000a0: ed81 1cbb fa2a 9dba acf6 b93a c9c7 d5b9
000000b0: 33b9 d1bb 1d7d 2bbb 1f62 27bb a87c 20ba
000000c0: 6bf2 4a39 eeb0 a8bb 9091 81ba 5a9a 93bb
000000d0: 795a eeba d847 fdba 5419 7a3b 0088 90ba
000000e0: dfe0 aab9 847b faba d719 82bb 11ae d6ba
000000f0: 7e9b 0fba 2e1b 713b 8ae5 d83b baf8 0f3b
00000100: 9ae3 caba 0f94 093a e654 59bb 79b4 8f3a
00000110: d549 70bb c0bc beba 9466 1dbb fd67 dd3a
00000120: 2ecf 8fba c4f3 313b e3cb 623b dc2c 003b
00000130: e150 f1b9 efba 4ab9 e20c d5ba 68e3 c8bb
00000140: 1583 25bb 03ce b33a 1dee 05bc ab1c 3d3b
00000150: 56a7 4c3a ec59 d8b9 0435 d93a 5fd4 caba
00000160: 9990 b6ba cfe6 7fba cad0 8d39 5e87 d9bb
00000170: aa6a 45bb 5ead 79bb 9394 33bb 14c8 223b
00000180: 67dd a03a cc3f 0a3b 3c21 223b 6ac3 9abb
00000190: ca23 633b 597a d63a d8fb c43b 1211 103b
000001a0: 5fd2 cf3a 756e 8d3b 2018 383a e3f1 e73a
000001b0: b943 063b 0112 063b abcf 9eba ccb2 d239
000001c0: f3bd c5bb d227 94bb f4ba bf3a 62f9 80bb
000001d0: edf9 143a fb1d 3cba 0aeb 7bbb 5eac ce3a
000001e0: 1c1f 74b9 eaed 0abb 9bf6 c8ba a735 69ba
000001f0: e8a5 5539 3b12 543a 7a23 483b 3b4c 803b

regression_net.0.weight f4 [128, 128]
0.049726944 -0.0772664 0.0795112 -0.07382787 -0.023202857 0.045105357 0.0027064448 -0.06821098
-0.0065579386 -0.0415025 -0.080817185 0.07329801 -0.08035186 -0.021273928 -0.027623946 0.07617962
-0.023175191 0.08564957 -0.01576395 0.0025080135 -0.0013652443 0.0265579 -0.042387176 0.06563718
-0.061752737 0.054821838 -0.047760557 0.022933347 0.03167719 0.0122581385 1.1417617e-05 -0.087579325
-0.04899784 0.038857494 -0.0018517709 0.025988527 -0.017358396 -0.08607078 0.050778043 -0.059481386
-0.044385955 -0.074275896 -0.033064276 0.045371305 -0.016880069 0.05843361 -0.031619594 -0.009875736
0.011514838 -0.06687021 0.0051308335 -0.07165772 -0.020970445 0.06354277 0.084467284 -0.008999313
0.072146334 0.07603039 0.079415366 0.036098532 -0.084695175 -0.087793395 -0.08660752 -0.0019092262
0.06971682 -0.011339265 0.030950513 0.09017428 0.01766795 -0.078749284 -0.03214678 0.07317085
0.075988226 -0.0040220963 0.0005049266 -0.03922595 0.019600792 0.020586008 -0.0011344311 0.016946184
0.06878 0.028296158 0.06412646 0.028252676 -0.07348791 -0.0634232 -0.07644273 -0.06941777
0.049937356 -0.053138416 0.045979068 0.016045999 -0.08405398 -0.05586249 -0.0001933743 0.0790564
0.08585259 -0.019977959 0.07427927 0.08293804 0.08433681 0.056928825 0.0098986225 0.05064012
0.047680795 -0.085151434 -0.039715536 0.014457625 0.06336525 0.046668846 0.07714965 0.01825621
0.01635012 -0.03134367 0.019340219 -0.055285357 0.05399433 -0.060788333 -0.015780717 -0.083649695
-0.027176239 -0.00018268364 0.068652056 -0.080379985 0.06608441 -0.07509594 -0.07581477 -0.044957586
0.040512133 -0.071027584 0.07631883 0.041495554 0.03543089 -0.022594865 -0.008168226 0.05251941
-0.054488115 0.06961939 0.08015753 -0.069959395 0.018006729 0.018796887 0.05103718 0.078563154
-0.0787778 -0.010377537 -0.07963284 0.038075462 -0.07295783 -0.06457556 0.0011196856 0.07893372
-0.034247193 -0.020302024 -0.04857448 -0.046038546 0.05593755 0.031002386 0.037509378 0.037512112
-0.07225091 -0.085240744 0.036816563 -0.04640301 -0.04262191 0.05866752 0.071584366 -0.06470954
0.0660394 0.075786 0.010866328 -0.05226838 -0.06864312 0.07289373 0.033480488 0.026808714
0.06784929 -0.02274405 -0.07463652 -0.02731936 0.043903917 0.027313938 0.06605023 -0.058046076
-0.06583421 -0.050546654 -0.012878475 0.050140545 0.028251229 0.022633584 0.06428051 0.0179292
-0.06728519 -0.049206853 0.040908266 -0.08066889 -0.08903102 0.0766054 0.07776941 -0.049619086
-0.041322283 0.054224763 -0.030105678 -0.07668729 -0.024667263 -0.025175659 -0.03824898 0.015778536
-0.081019536 -0.07862917 0.07805347 0.004975482 0.012931915 0.008163523 -0.028387502 0.03342278
-0.012489664 -0.026100138 0.06399846 0.036818005 0.002163452 -0.0487356 -0.015166599 0.022274569
-0.0124284625 -0.084330544 0.03372133 0.017768426 0.00778969 0.006099698 -0.036033954 -0.083264336
0.0024744521 0.043438483 -0.023841964 -0.07306096 0.08366451 0.044066466 0.07726368 0.043176167
0.06601198 -0.08491741 -0.015909621 -0.0058197277 -0.014716934 -0.084306195 -0.06041218 0.063524686
-0.0194587 0.08310012 -0.021690963 0.027780049 -0.004073342 0.02103014 0.031843778 0.046724368
00000000: 7bae 4b3d d93d 9ebd c5d6 a23d 1133 97bd
00000010: eb13 bebc 65c0 383d 9c5e 313b 33b2 8bbd
00000020: fae3 d6bb 87fe 29bd 7b83 a5bd 441d 963d
00000030: 848f a4bd a946 aebc 9d4b e2bc 1004 9c3d
00000040: e6d9 bdbc 0b69 af3d 6623 81bc 7c5d 243b
00000050: fff1 b2ba f48f d93c 2d9e 2dbd c96c 863d
00000060: 70f0 7cbd dd8c 603d 93a0 43bd b7de bb3c
00000070: f1bf 013d 5cd6 483c 4b8e 3f37 ca5c b3bd
00000080: f6b1 48bd 0929 1f3d 1fb7 f2ba e4e5 d43c
00000090: 3233 8ebc e145 b0bd a3fc 4f3d c1a2 73bd
000000a0: 0cce 35bd f61d 98bd 686e 07bd 43d7 393d
000000b0: 1248 8abc 1558 6f3d 8c83 01bd d7cd 21bc
000000c0: bba8 3c3c 40f3 88bd 8d20 a83b 48c1 92bd
000000d0: 36ca abbc b622 823d 2ffd ac3d db71 13bc
000000e0: 75c1 933d d2b5 9b3d 86a4 a23d 0edc 133d
000000f0: aa74 adbd 06cd b3bd 495f b1bd 003f faba
00000100: b1c7 8e3d 53c8 39bc ee8b fd3c 4bad b83d
00000110: 60bc 903c 4e47 a1bd 58ac 03bd 99da 953d
00000120: b79f 9b3d cacb 83bb 0d5d 043a 64ab 20bd
00000130: d791 a03c fda3 a83c 31b1 94ba b9d2 8a3c
00000140: 87dc 8c3d 58cd e73c bc54 833d 2872 e73c
00000150: d480 96bd 06e4 81bd 028e 9cbd e72a 8ebd
00000160: 1d8b 4c3d aba7 59bd 8c54 3c3d e672 833c
00000170: 7e24 acbd 11d0 64bd 85c4 4ab9 52e8 a13d
00000180: 7cd3 af3d d1a8 a3bc bb1f 983d 6bdb a93d
00000190: c7b8 ac3d 332e 693d d52d 223c 046c 4f3d
000001a0: f04c 433d e063 aebd c2ac 22bd addf 6c3c
000001b0: a4c5 813d d527 3f3d a300 9e3d 0c8e 953c
000001c0: b0f0 853c 3862 00bd 616f 9e3c e672 62bd
000001d0: 2929 5d3d 30fd 78bd 9046 81bc 8850 abbd
000001e0: b4a0 debc c48e 3fb9 7399 8c3d 439e a4bd
000001f0: 4357 873d e6cb 99bd c644 9bbd 7225 38bd
00000200: 0df0 253d e976 91bd 0c4d 9c3d 3ef7 293d
00000210: fb1f 113d de18 b9bc 06d4 05bc 981e 573d
00000220: ee2e 5fbd 9c94 8e3d a229 a43d df46 8fbd
00000230: d982 933c eefb 993c 5d0c 513d b8e5 a03d
00000240: 4156 a1bd 8c06 2abc 8b16 a3bd 04f5 1b3d
00000250: ea6a 95bd 3140 84bd 6ac2 923a 01a8 a13d
00000260: c946 0cbd 6e50 a6bc 09f6 46bd ea92 3cbd
00000270: c61e 653d b7f8 fd3c 6fa3 193d 4da6 193d
00000280: 49f8 93bd b392 aebd f7cc 163d 1511 3ebd
00000290: 5094 2ebd 5a4d 703d d39a 923d 6f86 84bd
000002a0: aa3f 873d b135 9b3d af08 323c 5e17 56bd
000002b0: c494 8cbd 4f49 953d d622 093d f39d db3c
000002c0: 92f4 8a3d bb51 babc 08db 98bd dacc dfbc
000002d0: 98d4 333d 7bc1 df3c 5845 873d b9c1 6dbd
000002e0: 16d4 86bd 020a 4fbd 3d00 53bc 2c60 4d3d
000002f0: 1f6f e73c 116a b93c 80a5 833d 42e0 923c
00000300: d1cc 89bd 208d 49bd 6d8f 273d bb35 a5bd
00000310: e555 b6bd 4be3 9c3d 9245 9f3d 623d 4bbd
00000320: 8e41 29bd c91a 5e3d 2fa0 f6bc 3a0e 9dbd
00000330: 0013 cabc 2f3d cebc f6aa 1cbd fd41 813c
00000340: 92ed a5bd 5508 a1bd 7fda 9f3d 5e09 a33b
00000350: 62e0 533c 4cc0 053c e88c e8bc 53e6 083d
00000360: 73a1 4cbc f5cf d5bc a011 833d 7ace 163d
00000370: b4c8 0d3b fb9e 47bd 547d 78bc 2879 b63c
00000380: c0a0 4bbc 7eb5 acbd 611f 0a3d 178f 913c
00000390: a840 ff3b fadf c73b 5798 13bd 7e86 aabd
000003a0: 6b2a 223b 8dec 313d 3950 c3bc fca0 95bd
000003b0: 4c58 ab3d 0a7f 343d 6c3c 9e3d 7ed9 303d
000003c0: 4a31 873d 2ee9 adbd e554 82bc 6ab3 bebb
000003d0: 4c1f 71bc baa8 acbd c372 77bd 3b19 823d
000003e0: da67 9fbc 6530 aa3d 3fb1 b1bc fc92 e33c
000003f0: ab79 85bb 6647 ac3c 9f6e 023d 0d62 3f3d

regression_net.0.bias f4 [128]
-0.0433007 -0.030925257 0.06765271 -0.079052694 0.031478092 0.0641049 0.024786593 -0.014809734
-0.073475435 -0.020362584 0.05121836 0.04323939 -0.02854366 -0.06155708 0.070837624 -0.077263765
-0.065739416 -0.023189735 0.021122871 -0.044019468 -0.054453876 -0.04818125 0.07085886 -0.0604446
-0.07194867 -0.020723918 -0.0044971216 0.017994123 -0.081486434 -0.06506139 -0.064810075 -0.053799517
0.08381212 0.056089737 -0.075979926 -0.06237211 -0.07756085 -0.08150524 -0.060356434 -0.026958259
0.06473189 0.052280847 0.05530052 -0.006937131 -0.038995318 -0.034801994 0.055149585 0.058012597
0.0021887373 0.08467866 0.05069576 0.066387996 0.06345216 0.0631792 -0.035731394 0.0709733
-0.026656274 -0.02746848 -0.013114552 0.06905901 -0.017470626 -0.06270692 -0.07558953 0.037571
-0.020230709 -0.056387294 0.004880621 -0.022735892 -0.008985297 0.064973705 0.04841657 -0.063441664
-0.02243011 -0.031293634 -0.021607526 -0.015254139 -0.028786587 0.010604851 0.02323109 0.03843986
0.0584962 0.067857474 -0.039730754 -0.037441034 0.075526185 -0.08858177 0.09109937 -0.085135974
0.05531011 -0.08471942 0.017780738 0.02513597 -0.012237914 -0.048253395 0.017856251 0.006737054
-0.020286826 0.026614474 0.0140551785 0.0462821 -0.024128929 0.02792246 0.04949067 -0.040667083
0.07767804 0.047875956 0.026645929 0.039766535 0.027465224 0.033117875 0.06701449 -0.052996643
-0.020931812 0.045205962 -0.010791945 0.0043130293 0.004241266 0.07595018 0.060680743 -0.022856247
0.045058925 -0.038756456 -0.0739161 -0.00739426 -0.053943716 0.0070383856 0.050666697 -0.06242899
00000000: 135c 31bd f756 fdbc 818d 8a3d 61e6 a1bd
00000010: 2cef 003d 6e49 833d 410d cb3c 87a4 72bc
00000020: 4a7a 96bd 6fcf a6bc 58ca 513d c91b 313d
00000030: 65d4 e9bc 4723 7cbd 5113 913d 773c 9ebd
00000040: 63a2 86bd 66f8 bdbc df09 ad3c c24d 34bd
00000050: 070b 5fbd b459 45bd 731e 913d c294 77bd
00000060: d359 93bd 35c5 a9bc 975c 93bb 6968 933c
00000070: 5ce2 a6bd e83e 85bd 25bb 84bd e25c 5cbd
00000080: b0a5 ab3d 5abe 653d 5d9b 9bbd e679 7fbd
00000090: 39d8 9ebd 38ec a6bd 4f38 77bd 91d7 dcbc
000000a0: 2792 843d 7124 563d cc82 623d df50 e3bb
000000b0: 8eb9 1fbd 898c 0ebd 88e4 613d 9e9e 6d3d
000000c0: eb70 0f3b 016c ad3d 5ba6 4f3d 6ef6 873d
000000d0: 35f3 813d 1964 813d 155b 12bd 735a 913d
000000e0: 425e dabc 9405 e1bc 6bde 56bc cf6e 8d3d
000000f0: 8f1e 8fbc 7c6c 80bd afce 9abd 0de4 193d
00000100: dfba a5bc 5df6 66bd 9eed 9f3b 9f40 babc
00000110: 1137 13bc ef10 853d 7450 463d b4ed 81bd
00000120: 5abf b7bc c12d 00bd 4402 b1bc 7fec 79bc
00000130: d9d1 ebbc f8bf 2d3c 204f be3c 1d73 1d3d
00000140: b699 6f3d dcf8 8a3d b7bc 22bd c55b 19bd
00000150: 79ad 9a3d 5c6a b5bd 4e92 ba3d c55b aebd
00000160: db8c 623d 6081 adbd e9a8 913c f3e9 cd3c
00000170: 8881 48bc 5aa5 45bd 4647 923c 81c2 dc3b
00000180: 8f30 a6bc 9906 da3c b147 663c 4d92 3d3d
00000190: 08aa c5bc a5bd e43c bbb6 4a3d 8792 26bd
000001a0: aa15 9f3d 9419 443d 9048 da3c 3ce2 223d
000001b0: c0fe e03c 9ca6 073d e53e 893d 0213 59bd
000001c0: 3179 abbc e329 393d b3d0 30bc 5054 8d3b
000001d0: 51fa 8a3b c58b 9b3d 5f8c 783d 063d bbbc
000001e0: b58f 383d 17bf 1ebd 5361 97bd 8c4b f2bb
000001f0: 16f4 5cbd 42a2 e63b e287 4f3d 8ab5 7fbd

regression_net.2.weight f4 [128, 128]
-0.07389984 0.049264293 -0.03918115 0.017943723 0.019393701 -0.047351368 -0.03735507 0.0013484013
-0.08803346 -0.07527538 -0.01117667 -0.011005495 0.06697455 0.025385132 -0.009319058 0.01432333
-0.08420494 -0.07020977 0.0792122 -0.040060773 0.084936395 -0.011296203 0.054500397 -0.041734
-0.026573038 0.08393717 -0.023556242 0.035944365 0.091703944 0.030334914 0.074184194 0.049378477
-0.028038848 0.04788985 0.01988106 0.072778925 -0.030912638 0.015864706 0.06837869 -0.0017533511
0.022039657 -0.013364255 0.04293968 -0.053179186 -0.09377896 0.05317047 0.07047717 0.013990878
-0.039765645 -0.07565585 0.014642322 -0.05920363 -0.043605775 0.004650353 0.04522582 -0.06226054
-0.07229924 0.094927415 -0.07527354 0.08940698 -0.008743727 -0.06997296 0.036310907 0.09635897
-0.022596726 0.0632362 0.09204009 -0.002047621 0.013147717 -0.042569835 0.034953628 0.04078777
0.011630103 0.07604175 0.07187554 -0.033685096 0.08873054 0.08527502 0.04062636 -0.06255064
-0.0943148 0.0088712275 -0.0078255525 -0.015299927 0.08584746 -0.06704815 -0.07424702 0.018331034
-0.04269889 0.071808465 0.046525735 0.04857052 0.023560854 -0.03243673 0.04723455 0.017951505
-0.012737025 0.05450265 -0.077132456 0.0624705 0.036565773 -0.07170398 -0.0601093 0.009443616
-0.06100519 -0.055438504 0.0022694664 0.026166396 -0.07015942 0.030748233 -0.053968262 0.023344766
0.06111196 -0.006390704 0.04208141 -0.048454996 -0.067691624 -0.047268823 -0.051568855 0.06602735
-0.055859752 -0.047519878 -0.048304267 -0.03496112 -0.034954194 -0.068761066 0.030205559 0.012966008
-0.04230946 -0.013127205 0.07967516 -0.018305315 0.006648185 0.0137894545 -0.011256012 0.07767991
-0.055929303 0.071884945 0.07239395 -0.0014405977 -0.053356547 -0.03138912 0.054765042 -0.0039539644
0.018063659 -0.009286276 0.066389866 -0.084982805 -0.027065143 -0.06522154 0.08024784 -0.06622445
0.017590046 0.0046825507 -0.031190237 0.04377637 0.008329522 -0.026595209 0.042754516 0.030687097
0.029461192 0.078370914 0.00037355712 -0.039409492 0.034810875 -0.005939294 0.038592715 0.010202612
0.009622793 0.032129183 0.038391683 0.036623515 0.07029465 -0.045785595 -0.058317937 0.09201477
0.06466266 0.075614005 0.08308006 0.060284507 -0.012421122 -0.016187401 0.07037313 -0.024857169
-0.064975105 0.0062336987 -0.024387568 0.0033059474 -0.0013534868 -0.056583565 0.080545515 -0.035934415
0.0030984466 0.042905543 -0.088395104 -0.049646974 -0.031690527 -0.08401972 0.08937303 -0.012796098
0.017838158 -0.01121645 -0.022698117 0.07235188 0.039434582 0.05009271 0.060300473 0.0013104114
-0.06816569 -0.05798275 -0.037188698 -0.0838534 0.07272198 0.05618994 0.096082255 0.082574435
-0.06693202 -0.034225486 -0.02535355 -0.045626186 0.07892119 -0.07988788 0.09293918 -0.044563476
-0.04081781 -0.033860464 0.05435474 -0.089156196 0.021594752 -0.030229725 -0.015944319 0.044363856
0.07251397 -0.00892278 -0.0021387227 0.03184744 -0.021950696 0.06430001 -0.003219515 0.07614658
-0.009007147 0.02185307 -0.06588542 -0.04840965 0.079901695 -0.072718956 0.070521235 0.0077067357
-0.021146988 0.044029746 0.07984706 -0.0007748603 -0.08663747 0.018896492 0.073632486 0.05916584
00000000: cd58 97bd 5bc9 493d 6a7c 20bd b7fe 923c
00000010: 8adf 9e3c 82f3 41bd a101 19bd d7bc b03a
00000020: e34a b4bd fa29 9abd 5a1e 37bc 6450 34bc
00000030: f429 893d 7bf4 cf3c f6ae 18bc 66ac 6a3c
00000040: a473 acbd 24ca 8fbd 023a a23d c416 24bd
00000050: 22f3 ad3d b613 39bc cf3b 5f3d 45f1 2abd
00000060: b3af d9bc 40e7 ab3d 05f9 c0bc 663a 133d
00000070: 47cf bb3d ed80 f83c e2ed 973d 1641 4a3d
00000080: bab1 e5bc 2628 443d 9bdd a23c 1e0d 953d
00000090: 803c fdbc b3f6 813c 200a 8c3d b3d0 e5ba
000000a0: 838c b43c c0f5 5abc 85e1 2f3d 6bd2 59bd
000000b0: 2f0f c0bd 47c9 593d 5656 903d ff39 653c
000000c0: 4de1 22bd 74f1 9abd 5ae6 6f3c 817f 72bd
000000d0: f89b 32bd fd61 983b b63e 393d e804 7fbd
000000e0: a011 94bd 4e69 c23d 0429 9abd 021b b73d
000000f0: d941 0fbc fc4d 8fbd bfba 143d da57 c53d
00000100: c51c b9bc fb81 813d 847f bc3d 6131 06bb
00000110: 8669 573c b55d 2ebd 892b 0f3d 1411 273d
00000120: 308c 3e3c c7bb 9b3d 7c33 933d 62f9 09bd
00000130: 5bb8 b53d aba4 ae3d d367 263d 8d1a 80bd
00000140: 1e28 c1bd a058 113c bf36 00bc 8cac 7abc
00000150: cbd0 af3d 8a50 89bd d20e 98bd f72a 963c
00000160: 08e5 2ebd 5110 933d c591 3e3d e2f1 463d
00000170: b102 c13c 60dc 04bd 0479 413d 090f 933c
00000180: f4ae 50bc 2c3e 5f3d 9ff7 9dbd 11e1 7f3d
00000190: fec5 153d 89d9 92bd 2b35 76bd 65b9 1a3c
000001a0: 94e0 79bd 7c13 63bd 54bb 143b e95a d63c
000001b0: beaf 8fbd b8e3 fb3c d30d 5dbd 863d bf3c
000001c0: 8950 7a3d 1c69 d1bb 8e5d 2c3d bf78 46bd
000001d0: e8a1 8abd f49c 41bd dd39 53bd 5939 873d
000001e0: 32cd 64bd 34a4 42bd b2da 45bd 6433 0fbd
000001f0: 212c 0fbd 9ad2 8cbd a671 f73c 616f 543c
00000200: af4c 2dbd 7d13 57bc bb2c a33d 07f5 95bc
00000210: 05d9 d93b 2aed 613c 236b 38bc a516 9f3d
00000220: 2016 65bd 6a38 933d 4743 943d 70d2 bcba
00000230: 658c 5abd e191 00bd 4f51 603d 4290 81bb
00000240: 3dfa 933c 7725 18bc 69f7 873d 770b aebd
00000250: b8b7 ddbc df92 85bd fb58 a43d afa0 87bd
00000260: 0019 903c 1570 993b ab82 ffbc da4e 333d
00000270: 8c78 083c 32de d9bc 5c1f 2f3d 8263 fb3c
00000280: 9958 f13c ee80 a03d fdd9 c339 d96b 21bd
00000290: d995 0e3d 699e c2bb 6513 1e3d db28 273c
000002a0: eba8 1d3c e499 033d 9940 1d3d 8a02 163d
000002b0: a4f6 8f3d ad89 3bbd cade 6ebd 3d72 bc3d
000002c0: db6d 843d 84db 9a3d e125 aa3d e3ec 763d
000002d0: f681 4bbc 719b 84bc ca1f 903d 43a1 cbbc
000002e0: ab11 85bd 0e44 cc3b 70c8 c7bc 98a8 583b
000002f0: 7b67 b1ba 2bc4 67bd 0cf5 a43d f72f 13bd
00000300: 4f0f 4b3b b9bd 2f3d 7e08 b5bd a05a 4bbd
00000310: edcd 01bd 8812 acbd 3509 b73d baa6 51bc
00000320: 5421 923c 33c5 37bc 67f1 b9bc 392d 943d
00000330: 2886 213d 032e 4d3d a1fd 763d 1cc2 ab3a
00000340: 749a 8bbd 527f 6dbd 2d53 18bd 55bb abbd
00000350: 43ef 943d 6c27 663d c6c6 c43d c91c a93d
00000360: a813 89bd 0630 0cbd 40b2 cfbc 86e2 3abd
00000370: 6fa1 a13d 429c a3bd e656 be3d 3188 36bd
00000380: 9330 27bd 45b1 0abd 13a3 5e3d 8697 b6bd
00000390: 7ae7 b03c 54a4 f7bc a99d 82bc e0b6 353d
000003a0: 3482 943d da30 12bc d029 0cbb 7672 023d
000003b0: f2d1 b3bc b9af 833d 80fe 52bb bdf2 9b3d
000003c0: b692 13bc 3605 b33c efee 86bd 3249 46bd
000003d0: 80a3 a33d aded 94bd 706d 903d c988 fc3b
000003e0: 733c adbc 8958 343d db86 a33d ff1f 4bba
000003f0: fc6e b1bd d1cc 9a3c a1cc 963d e157 723d

regression_net.2.bias f4 [128]
0.03073605 -0.04726096 -0.048336916 -0.077443644 -0.081875145 0.027892662 -0.004692106 -0.070693895
0.070650004 0.008958323 0.048710376 -0.014157768 -0.032086805 0.06814408 -0.030835817 -0.07059713
0.0317393 0.048998166 -0.062697716 -0.023045875 0.034558646 -0.052843135 -0.014051911 -0.033646222
-0.052292068 -0.00709982 0.03459056 -0.0038200705 0.059357345 0.048783563 -0.08611382 0.028985057
0.08875833 -0.023403842 -0.0680629 -0.06906494 -0.042748533 0.042043064 -0.0041425037 -0.032289583
-0.075762466 -0.002542258 -0.04144347 0.04515594 -0.07596719 0.07362276 0.027618408 0.09110596
-0.084036835 -0.064242765 -0.012642174 0.068600886 0.04589482 0.075954534 0.059947766 0.0008084689
0.03152244 -0.0012713155 -0.009747043 0.026720546 -0.005077013 0.07328796 -0.01031523 0.029844569
0.052840345 -0.0060576987 0.072499044 0.003474919 -0.051835783 -0.0028136391 0.064262524 -0.07588025
0.02984368 0.016020771 0.08476859 -0.061229974 0.071106575 0.07005814 -0.034514003 0.011689035
-0.08768 0.06069003 -0.033818156 -0.049319524 0.023541672 0.01772536 -0.051433213 -0.05060291
0.055801433 0.014539334 -0.08586568 0.06385803 -0.059366096 -0.054466955 0.06305778 -0.06519613
-0.09009646 -0.06805333 -0.076005146 0.07960733 -0.07791376 0.08355867 0.02898646 -0.07465762
0.051479023 -0.080312796 0.06770637 -0.056019258 0.049667448 0.011535974 -0.07035603 -0.003348966
0.03039907 -0.07417248 0.059338387 -0.046962578 0.049063884 0.08620327 -0.0005740288 0.057969455
0.055980172 -0.027710196 -0.02564043 -0.075004354 0.022561677 -0.06170194 -0.054005403 0.05135221
00000000: 2bca fb3c b594 41bd eefc 45bd c69a 9ebd
00000010: 28ae a7bd 277f e43c 3dc0 99bb f6c7 90bd
00000020: f3b0 903d eec5 123c 8884 473d fcf5 67bc
00000030: 746d 03bd 208f 8b3d 659b fcbc 3a95 90bd
00000040: 1101 023d 4db2 483d a967 80bd b4ca bcbc
00000050: 5e8d 0d3d 0b72 58bd fd39 66bc 9fd0 09bd
00000060: 3530 56bd 9ba5 e8bb d5ae 0d3d 265a 7abb
00000070: b020 733d 46d1 473d 715c b0bd 1272 ed3c
00000080: edc6 b53d 6ab9 bfbc 9064 8bbd eb71 8dbd
00000090: 1619 2fbd 5935 2c3d d7bd 87bb 1542 04bd
000000a0: 5a29 9bbd 039c 26bb a1c0 29bd 6ff5 383d
000000b0: b094 9bbd 88c7 963d 0040 e23c c395 ba3d
000000c0: 811b acbd b691 83bd 1f21 4fbc 9f7e 8c3d
000000d0: 35fc 3b3d 0d8e 9b3d ca8b 753d 6eef 533a
000000e0: ad1d 013d 45a2 a6ba 10b2 1fbc 0ce5 da3c
000000f0: 125d a6bb ff17 963d 3601 29bc 997c f43c
00000100: 1e6f 583d a97f c6bb 617a 943d 77bb 633b
00000110: c251 54bd 0865 38bb 129c 833d 1b67 9bbd
00000120: bc7a f43c fe3d 833c 289b ad3d 48cc 7abd
00000130: 53a0 913d a47a 8f3d 8e5e 0dbd 5e83 3f3c
00000140: 9291 b3bd 1c96 783d e884 0abd 4503 4abd
00000150: 77da c03c c634 913c a2ab 52bd ff44 4fbd
00000160: 0b90 643d 6336 6e3c 58da afbd 00c8 823d
00000170: dd29 73bd be18 5fbd 7024 813d 8c85 85bd
00000180: 7e84 b8bd 8b5f 8bbd 96a8 9bbd 2b09 a33d
00000190: 4091 9fbd cf20 ab3d 0375 ed3c 18e6 98bd
000001a0: abdb 523d 097b a4bd a3a9 8a3d 7374 65bd
000001b0: 1870 4b3d 6201 3d3c d216 90bd 537a 5bbb
000001c0: 7807 f93c bee7 97bd cf0c 733d d55b 40bd
000001d0: 36f7 483d 578b b03d 6c7a 16ba 6171 6d3d
000001e0: 774b 653d 7e00 e3bc e10b d2bc e29b 99bd
000001f0: 44d3 b83c 2cbb 7cbd c534 5dbd b256 523d

regression_net.4.weight f4 [1, 128]
-0.07028337 -0.024576465 0.07963474 -0.020039909 0.0772085 0.037033472 -0.025175042 -0.03911922
-0.03566247 -0.045409974 0.0074428855 0.0177071 -0.0136589715 0.07891366 0.022595566 0.056998454
0.036081303 0.056802686 0.029597856 -0.01901558 -0.089809716 -0.09349164 -0.026676945 -0.021311106
-0.065881625 0.022715528 -0.06330179 0.0026446248 -0.075435415 0.0006596597 0.016907457 -0.032208763
-0.03537087 -0.016640292 0.04756936 -0.015357182 -0.06757872 0.04861888 -0.011770613 0.042760737
0.00887044 0.019427162 -0.06469603 0.07765531 0.049833223 0.019951994 0.0006532951 -0.049294334
-0.012309729 -0.038870204 -0.024460597 0.011327596 -0.091091916 -0.09276449 -0.076188475 -0.042097107
0.06587715 0.06849789 -0.07802813 0.048366442 -0.0184324 -0.05067224 0.05616626 -0.029102875
0.0025379902 0.088669114 -0.053105276 -0.08965325 -0.015210107 -0.06384045 0.06001857 -0.06922102
0.07812222 0.0019643581 0.0679299 -0.024750642 -0.078391865 0.060191397 -0.08566812 0.08018469
-0.075637646 -0.028077327 0.0070443302 -0.08056401 -0.09290843 -0.04345903 -0.07667626 0.04432612
-0.004216767 -0.026830684 -0.023536038 -0.06685278 0.0680138 -0.038602322 0.038203154 0.0026575804
-0.027353175 0.04576805 0.003995932 0.047442928 -0.022981232 -0.015821673 -0.029138237 -0.041403744
0.082149856 0.0060956497 0.018947523 0.00953273 -0.028736856 0.042728156 -0.023286687 0.050329812
-0.053718947 0.011902033 -0.07027816 -0.0011102743 0.009454246 -0.09269731 0.07597083 0.015892051
-0.00717437 0.016327942 -0.05913966 0.01770885 -0.026557041 -0.06507566 -0.0539742 -0.045873556
00000000: baf0 8fbd 9554 c9bc 8a17 a33d bc2a a4bc
00000010: 7d1f 9e3d 69b0 173d e43b cebc 7a3b 20bd
00000020: cf12 12bd cfff 39bd 73e3 f33b 7b0e 913c
00000030: e1c9 5fbc 7c9d a13d 561a b93c 3677 693d
00000040: fdc9 133d efa9 683d 3477 f23c 90c6 9bbc
00000050: 28ee b7bd 8c78 bfbd 9c89 dabc a194 aebc
00000060: f2ec 86bd ea15 ba3c 5ea4 81bd 7151 2d3b
00000070: e27d 9abd 03ed 2c3a 8281 8a3c 56ed 03bd
00000080: 0ce1 10bd 3951 88bc 17d8 423d b19c 7bbc
00000090: b666 8abd 9724 473d 87d9 40bc e225 2f3d
000000a0: 5255 113c b625 9f3c 5a7f 84bd bf09 9f3d
000000b0: ec1d 4c3d 5d72 a33c e441 2b3a dbe8 49bd
000000c0: bfae 49bc 5d36 1fbd 9761 c8bc 6297 393c
000000d0: 668e babd 4ffb bdbd b408 9cbd 046e 2cbd
000000e0: 99ea 863d 9f48 8c3d 36cd 9fbd e41b 463d
000000f0: 8bff 96bc b28d 4fbd 980e 663d 2769 eebc
00000100: 6954 263b 2798 b53d eb84 59bd 209c b7bd
00000110: d033 79bc c8be 82bd 08d6 753d c0c3 8dbd
00000120: 8bfe 9f3d 76bc 003b d51e 8b3d dcc1 cabc
00000130: ea8b a0bd 418b 763d c472 afbd df37 a43d
00000140: e9e7 9abd 6c02 e6bc 20d4 e63b befe a4bd
00000150: c646 bebd 1902 32bd 7108 9dbd 4e8f 353d
00000160: ce2c 8abb 06cc dbbc a6ce c0bc 1cea 88bd
00000170: d24a 8b3d 781d 1ebd e97a 1c3d cd2a 2e3b
00000180: c413 e0bc 4777 3b3d 4ff0 823b 8453 423d
00000190: 2343 bcbc 749c 81bc 50b3 eebc f996 29bd
000001a0: 2f3e a83d 04be c73b d637 9b3c 2b2f 1c3c
000001b0: 8e69 ebbc b803 2f3d b9c3 bebc a226 4e3d
000001c0: 6608 5cbd bf00 433c ffed 8fbd a086 91ba
000001d0: fbe5 1a3c 16d8 bdbd 9896 9b3d 0c30 823c
000001e0: fa16 ebbb 2dc2 853c 6e3c 72bd 2612 913c
000001f0: 278e d9bc 6346 85bd 0d14 5dbd e9e5 3bbd

transformer_enc.layers.0.self_attn.in_proj_weight f4 [384, 128]
-0.021179404 0.09918056 0.06617926 -0.086123504 -0.051045258 0.04427716 0.08878119 0.05104929
-0.054055303 0.030499281 0.029301824 0.118554525 0.037284702 0.007521636 -0.11412858 -0.0709644
0.016293822 0.067911915 0.041668504 0.059890818 0.046883952 -0.08469986 0.084625654 0.069976896
0.006755306 -0.0072808024 0.048514422 0.023531292 -0.041631114 -0.099002086 -0.062486764 0.12009641
0.050465938 0.07147549 -0.04367645 -0.031631984 -0.073907726 0.06779315 -0.06320997 0.018298842
-0.053040385 -0.02649038 -0.060171057 0.04382331 0.0016385602 0.10125994 0.06605572 -0.031113295
-0.09654368 -0.018911524 0.093722165 -0.053266887 0.030788554 0.08094552 0.007945634 0.05240724
-0.014032303 0.06258333 0.005423158 0.09545007 0.11002083 -0.015504447 -0.055799905 0.0995182
0.0426773 0.0917184 -0.045249123 -0.09563003 0.09168675 0.10988769 0.007376091 -0.05746666
-0.031155068 -0.057888273 -0.011338722 0.05498706 -0.026913716 -0.06598447 0.035884 0.031427283
-0.0035788175 0.04939811 -0.024271153 -0.03643334 -0.022404287 -0.031620637 0.08997612 -0.04380232
-0.043079965 0.0095826825 0.10967836 -0.082002886 0.020622687 -0.086965166 0.057310812 0.037891768
-0.03402187 0.08161165 -0.0037157561 0.07887287 0.04124902 -0.08427856 -0.06295847 0.023617849
0.074068286 -0.0643131 -0.06787434 0.04660846 0.012753521 -0.02641729 -0.023012353 -0.0833217
0.040733837 -0.0012891128 0.09013786 -0.090326004 -0.013849438 0.073003754 -0.06640752 0.07185273
0.041628588 0.07772426 0.036948893 0.063509606 -0.019122371 0.08606292 -0.03615821 -0.071660645
-0.09030135 -0.028680487 -0.045139976 -0.06547159 0.05300125 -0.07501553 -0.071752585 -0.03493348
-0.025476018 -0.04828175 -0.02562093 -0.043900408 -0.08916379 0.010068337 0.04090109 -0.07006253
-0.03042412 -0.09634716 0.06320998 0.03333826 -0.053899553 0.027183112 -0.029057372 -0.08871948
-0.049520157 0.085414425 0.096738495 -0.018160818 0.095796965 -0.039733075 -0.00903338 0.08989442
-0.08266521 0.070132464 0.0020305475 -0.05334932 0.090704344 0.059748724 0.025240704 -0.00024444447
0.07357064 -0.0024824194 -0.05194138 0.013497799 0.04721089 0.10792001 0.051600188 0.027619878
-0.023253847 0.10848481 0.05587275 0.059383813 -0.024080375 -0.07750971 0.051036663 0.07428114
0.11131344 0.10561988 -0.073855564 -0.050268598 -0.078971155 0.08736787 -0.004451561 -0.026903622
0.03894578 -0.05325087 -0.03352023 -0.049108233 -0.10121104 -0.036060613 0.07461848 -0.029970989
0.068486124 -0.106175356 -0.058180787 -0.018111119 -0.059621647 0.086986534 0.029577848 0.049456086
0.10533925 0.04096755 -0.00028320018 0.03812848 -0.099866346 0.07783729 -0.054126207 -0.06861963
0.059416387 -0.07218062 -0.0025036798 -0.038390473 0.035222877 -0.08715415 -0.07932913 -0.051916186
-0.0977021 0.094508424 -0.04940613 -0.037858777 0.104692765 0.10022941 -0.037475806 -0.05295045
0.034830563 0.075452246 0.04471265 0.010702331 0.0336461 -0.11119701 -0.03246454 -0.0073281545
-0.07881655 0.047482267 -0.03733174 -0.005720797 0.010567315 0.0076016085 -0.06495769 -0.05050487
0.037138723 0.111357205 0.10894535 0.04490896 -0.036976863 0.07023272 -0.070187256 -0.10252319
00000000: 6e80 adbc 2d1f cb3d fe88 873d 8561 b0bd
00000010: d514 51bd f85b 353d ead2 b53d 0f19 513d
00000020: 1869 5dbd a1d9 f93c 610a f03c b7cc f23d
00000030: d8b7 183d 0e78 f63b 3fbc e9bd c955 91bd
00000040: 9f7a 853c 6715 8b3d 98ac 2a3d 1350 753d
00000050: 6309 403d 1f77 adbd 3750 ad3d 0c50 8f3d
00000060: 9d5b dd3b cc93 eebb 0fb7 463d b2c4 c03c
00000070: 6385 2abd 9bc1 cabd 1ff2 7fbd 1bf5 f53d
00000080: 5fb5 4e3d be61 923d 14e6 32bd 8a90 01bd
00000090: ef5c 97bd 23d7 8a3d 3b74 81bd 74e7 953c
000000a0: e040 59bd 5a02 d9bc ed75 76bd 1280 333d
000000b0: f5c4 d63a 5f61 cf3d 3948 873d 4fe1 febc
000000c0: b1b8 c5bd 57ec 9abc 68f1 bf3d 612e 5abd
000000d0: 4738 fc3c c4c6 a53d 682e 023c f9a8 563d
000000e0: bfe7 65bc b02b 803d bfb4 b13b 547b c33d
000000f0: 9a52 e13d 5d06 7ebc 718e 64bd 33d0 cb3d
00000100: 64ce 2e3d dbd6 bb3d 2557 39bd add9 c3bd
00000110: 43c6 bb3d cc0c e13d 23b3 f13b 2962 6bbd
00000120: ea38 ffbc 411c 6dbd 0cc6 39bc 1d3a 613d
00000130: 277a dcbc de22 87bd 1afb 123d e5b9 003d
00000140: 988a 6abb ac55 4a3d 4cd4 c6bc 203b 15bd
00000150: 3289 b7bc a484 01bd 6645 b83d 106a 33bd
00000160: 9e74 30bd af00 1d3c 0c9f e03d 21f1 a7bd
00000170: e9f0 a83c cb1a b2bd bebe 6a3d 6634 1b3d
00000180: 845a 0bbd 0224 a73d 0b84 73bb 1988 a13d
00000190: bbf4 283d 3d9a acbd 5ff0 80bd 387a c13c
000001a0: 1db1 973d 96b6 83bd b401 8bbd 83e8 3e3d
000001b0: 25f4 503c 1369 d8bc 6784 bcbc 91a4 aabd
000001c0: 86d8 263d 73f7 a8ba 339a b83d d7fc b8bd
000001d0: c1e8 62bc fe82 953d aa00 88bd 8627 933d
000001e0: bd82 2a3d e62d 9f3d b957 173d 5311 823d
000001f0: 85a6 9cbc c241 b03d a21a 14bd d1c2 92bd
00000200: eaef b8bd 57f3 eabc b2e4 38bd f815 86bd
00000210: d717 593d bea1 99bd 05f3 92bd 6916 0fbd
00000220: 15b3 d0bc 16c3 45bd fce2 d1bc ead0 33bd
00000230: 819b b6bd abf5 243c e787 273d f27c 8fbd
00000240: 013c f9bc a951 c5bd 3c74 813d b38d 083d
00000250: c7c5 5cbd 1eaf de3c ba09 eebc 8fb2 b5bd
00000260: a6d5 4abd c2ed ae3d d51e c63d ffc5 94bc
00000270: 3331 c43d 26bf 22bd be00 14bc 911a b83d
00000280: 614c a9bd 9ca1 8f3d ef12 053b d184 5abd
00000290: 33c3 b93d 14bb 743d 98c5 ce3c c828 80b9
000002a0: 34ac 963d 16b0 22bb 7cc0 54bd df25 5d3c
000002b0: 3560 413d 2b05 dd3d b85a 533d 1543 e23c
000002c0: da7e bebc 492d de3d d3da 643d 713c 733d
000002d0: 3544 c5bc 69bd 9ebd d20b 513d b620 983d
000002e0: 4df8 e33d 3c4f d83d 9641 97bd 72e6 4dbd
000002f0: a1bb a1bd eded b23d 66de 91bb fc64 dcbc
00000300: 9c85 1f3d 961d 5abd 824c 09bd b725 49bd
00000310: bc47 cfbd 4bb4 13bd 93d1 983d b885 f5bc
00000320: 7442 8c3d 7772 d9bd fa4e 6ebd c55d 94bc
00000330: d435 74bd ff25 b23d 3e4d f23c 7792 4a3d
00000340: 1bbc d73d 97cd 273d 7c7a 94b9 9c2c 1c3d
00000350: ba86 ccbd 2869 9f3d 71b3 5dbd 7388 8cbd
00000360: 995e 733d 6fd3 93bd c714 24bb 543f 1dbd
00000370: dd45 103d e07d b2bd 5077 a2bd 11a6 54bd
00000380: 0a18 c8bd a28d c13d 155e 4abd ce11 1bbd
00000390: 2969 d63d 1445 cd3d 3b80 19bd 92e2 58bd
000003a0: 7eaa 0e3d b586 9a3d 9d24 373d d458 2f3c
000003b0: 7ed0 093d 42bb e3bd 8af9 04bd 0421 f0bb
000003c0: 926a a1bd c47c 423d 2be9 18bd 8675 bbbb
000003d0: 8822 2d3c ea16 f93b 8a08 85bd 32de 4ebd
000003e0: c61e 183d 3f0f e43d bd1e df3d 75f2 373d
000003f0: 0d75 17bd 2cd6 8f3d 56be 8fbd aef7 d1bd
