mujoco_simulation/unified_scene/replans/replan_data/replan_ini_random_520_20250308_225030/logs/2025_03_09_21_06_25/model_latest.pth (torch, 567446 bytes, 21 tensors)

tokenizing_net.0.weight f4 [128, 52]
000000 11 88 a6 3d f8 f4 26 bd 54 17 b6 3d 6a 39 75 3d
       0.08131421 -0.040760964 0.08891168 0.059869207
000010 f8 71 00 3e c5 a8 b6 bd c1 83 a8 bd 60 73 db bc
       0.12543476 -0.08918909 -0.08228255 -0.026788414
000020 d4 68 ee bd 48 c9 d9 3d ca b0 15 be 7d 66 90 3d
       -0.11641088 0.106340945 -0.14618221 0.07050798
000030 72 c8 04 3e 64 c7 31 bd ca 5d 39 bd 1a 77 e6 bd
       0.12967089 -0.043403044 -0.04525546 -0.112531856
000040 c5 ed f8 3d ac b8 df 3d 8d c9 fb 3d 5e 1e 20 bd
       0.12154726 0.10923895 0.12294302 -0.03909146
000050 73 34 d3 3d 0f 5f 17 3d 69 87 62 3c 64 2b dd bd
       0.10312738 0.03695589 0.01382623 -0.10799292
000060 64 b5 f7 bd 7f 21 99 bd d5 d2 ad ba 99 3c a5 3c
       -0.120951444 -0.07477092 -0.0013261685 0.020170497
000070 ee c5 00 3e 9d ff d2 bc 01 1b 02 3e c6 9e 7b 3b
       0.12575504 -0.025756652 0.12705614 0.0038394197
000080 c7 9b 81 bc 04 bd c6 3d 46 f6 20 3d 16 e0 06 bc
       -0.01582135 0.097040206 0.039297365 -0.008232137
000090 62 d5 00 be 78 55 96 3d d8 90 e0 3d c0 bc ba 3d
       -0.12581399 0.073405206 0.10965127 0.091180325
0000a0 e4 77 c6 bd 0b df 18 bd fb ea 26 3d e5 77 8c 3d
       -0.09690836 -0.037322085 0.04075144 0.068588056
0000b0 db ae a1 3d 66 d6 55 bd aa d6 b8 bc b4 08 b6 bd
       0.07894679 -0.05220642 -0.022563297 -0.08888379
0000c0 ca 44 05 3e f7 e8 0d be 79 17 b8 bd 2e a6 de 3d
       0.13014522 -0.138584 -0.08988852 0.1087154
0000d0 7f d3 b8 3d ed 94 8b bc d1 49 aa bd a8 7d 81 3d
       0.09024715 -0.017038787 -0.083148606 0.06322795
0000e0 34 6b ac 3d 85 b4 c9 3d 22 fe b8 3d 7c c6 c8 bb
       0.08418885 0.098488845 0.09032847 -0.006127177
0000f0 d6 a4 a4 3b 33 a2 9d 3d e3 c8 e2 bd 81 48 d9 bc
       0.005024533 0.07696953 -0.11073472 -0.02652383
000100 41 87 52 3d 38 9e ac bb cf 53 b0 bd 90 42 23 bd
       0.05139852 -0.0052678846 -0.08609735 -0.0398584
000110 0d ac d4 3d db ac fb bd 56 e2 f6 bd 55 1a 14 bd
       0.103843786 -0.12288829 -0.12054889 -0.036157925
000120 62 17 b1 3d 56 74 b0 3d 8a 59 45 bb 54 20 f2 3d
       0.08647038 0.08615939 -0.0030113184 0.11822572
000130 35 e1 2c 3c a9 7d b0 bd 02 46 ed 3d 6a 6c 2a bc
       0.01055174 -0.08617718 0.115856186 -0.0104018245
000140 a0 16 d7 3d e1 91 03 3e fd 55 45 bd 1c 46 e4 bd
       0.10502362 0.12848617 -0.048177708 -0.11146185
000150 1a 96 fe bc fe d5 36 bc 17 15 ef 3d fb 79 e1 3d
       -0.031077433 -0.011159418 0.116739444 0.11009594
000160 3d d1 3c 3c 36 f7 06 be 49 1f 97 bb 62 5c e1 3d
       0.011524496 -0.13180241 -0.004611884 0.11003949
000170 1e 60 06 3e dc 04 b9 3d 0f 14 00 bd 03 c0 eb 3d
       0.13122603 0.0903413 -0.03126913 0.11511233
000180 7e fe 11 be 79 df 04 be ae c7 69 3d 03 bb d2 3d
       -0.14257237 -0.12975873 0.057075195 0.10289576
000190 f5 01 3a bd 79 24 b1 3d f5 28 08 3d 7d 78 c6 bd
       -0.045412023 0.08649535 0.033242185 -0.0969095
0001a0 f9 70 60 b9 7e e3 f2 3d 11 bb f0 bd 55 4f e6 3d
       -0.0002140439 0.11859797 -0.1175443 0.112456
0001b0 52 2c b5 3c 93 e1 9a bd bf 8e 28 3d 8e 11 b4 bd
       0.02211586 -0.07562556 0.04115176 -0.08792411
0001c0 71 be ae 3d 76 d8 79 bd ad a5 07 be f4 46 b1 bd
       0.085324176 -0.06099745 -0.13246794 -0.08656111
0001d0 f8 3a fe 3d 2e 2a 0f 3d b3 19 cf 3b 70 59 08 bd
       0.12413591 0.034952335 0.0063202023 -0.03328842
0001e0 f8 66 c3 3c 88 32 d0 bd 75 90 cb 3b 4d 94 cb bb
       0.02385281 -0.10165888 0.006212289 -0.006212747
0001f0 bf 80 d9 bd 7b 98 f6 3d dd c8 fa 3d 9f ab e7 3d
       -0.106202595 0.12040802 0.12245343 0.11312031
000200 08 73 f8 3d 25 91 e5 bd 0e 7a fc bd d1 99 0c 3e
       0.121313155 -0.11209325 -0.123279676 0.13730551
000210 ce c2 8e 3d 22 e9 0e be 24 86 a5 3d 45 cc d3 bd
       0.0697075 -0.1395612 0.08082226 -0.10341696
000220 c9 6d 4e bc bc 28 c9 bd 75 a4 b5 3d ae ea 6a 3d
       -0.012599417 -0.098222226 0.08869258 0.057352714
000230 93 85 c2 bd d1 63 d7 bc 16 1a c0 3a c3 65 e1 3d
       -0.094981335 -0.026292713 0.0014656212 0.11005738
000240 a4 a0 01 3e 1b 02 2f bc d4 0e 03 3e 79 ac 1a 3c
       0.12658936 -0.010681654 0.12798625 0.009440535
000250 d4 8e dd 3d fb a8 ab bd 69 b2 a8 bd ee 60 56 3c
       0.10818258 -0.0838184 -0.08237154 0.013084633
000260 23 5c c8 bd 63 95 66 3d 7d 8e a6 bc f5 84 45 3d
       -0.09783199 0.05629481 -0.020331616 0.0482225
000270 69 4a 7b bd bb bd fa 3d 75 4b 00 3e ec 5e 2d be
       -0.06135026 0.122432195 0.12528785 -0.16930741
000280 00 61 a0 3d 19 1a d7 bc 74 2e 82 3d 8a 9e ed 3d
       0.07831001 -0.026257562 0.063565165 0.116025046
000290 3f af 16 bc 01 e0 f5 ba 7e c1 31 3c 70 0a 02 bd
       -0.009197055 -0.0018758775 0.010849355 -0.031748235
0002a0 2b 1a 81 bc 8c 19 c7 3d f8 7c da bc d3 fb d8 bd
       -0.015759548 0.097216696 -0.026670918 -0.10594907
0002b0 3d f5 bc bd c7 81 6f bc 0b 20 da 3d 92 66 66 bd
       -0.09226463 -0.014618344 0.10650643 -0.056250162
0002c0 5d 08 c1 3d 4e e6 5d bc 0c e8 c6 3d 3b df b5 bc
       0.09425423 -0.013543678 0.09712228 -0.022201171
0002d0 17 e4 83 3c 40 c9 f5 bc db 3b cd 3d cb bf 44 3d
       0.016099973 -0.03000319 0.10021182 0.04803447
0002e0 c3 c1 91 3d 8b 96 67 3c 22 65 f0 3d 7c 06 7f bd
       0.07117035 0.014135013 0.117380396 -0.062262043
0002f0 84 2d fe 3d f9 50 1f bd 1d 8e ba bc 0d 6d b8 3d
       0.12411025 -0.03889558 -0.022772843 0.09005175
000300 a3 c1 14 be 3b 87 c4 3d 33 a6 c0 bd 90 9b a6 bd
       -0.14526992 0.09596106 -0.094067 -0.0813514
000310 23 d7 3b 3c a7 3d 0e be 00 a3 be 3d b6 9e a0 3d
       0.011464867 -0.13890706 0.093084335 0.07842772
000320 75 32 4e 3d 50 06 82 bd 75 5c 4a bd ab fc 88 3d
       0.05034109 -0.0634886 -0.04940458 0.066888176
000330 40 00 5e bd 3d 7d 06 3d e9 18 26 3d e9 8e 3d bd
       -0.054199457 0.03283428 0.0405511 -0.046278868
000340 76 0f d8 bd 3a ad e3 3d 03 10 92 3d 73 9b 65 3d
       -0.10549824 0.11117025 0.0713196 0.05605645
000350 0d 2a 99 3d 10 cf f0 3c 56 4a d0 3d fc 2a a7 bd
       0.07478724 0.02939561 0.101704285 -0.081624955
000360 b9 cc c7 bd bf bf f5 bd 10 6c 91 3d 47 f4 4c bd
       -0.097558446 -0.11999463 0.071006894 -0.05003765
000370 11 b5 cc bd 1c 96 85 bd c9 07 02 3e 57 bb 86 bc
       -0.09995473 -0.06522772 0.12698282 -0.016446752
000380 85 1a a0 bb a1 73 75 bd 35 4c eb bb 45 17 0d bd
       -0.004885974 -0.059924725 -0.0071807154 -0.03444602
000390 72 a9 dd bd 5c 24 55 3d f9 48 9b 3d bd fe 57 3d
       -0.10823335 0.052036628 0.07582278 0.05273317
0003a0 de a6 16 3c 3c ca 7b 3c c1 6d 55 bc 84 62 ea 3c
       0.009195058 0.015368041 -0.013026656 0.028611429
0003b0 ab ed bb 3d 8b dc 0c 3e a0 c8 48 3d a9 f2 77 bb
       0.09176191 0.13756005 0.049019456 -0.0037833846
0003c0 35 99 22 bd 03 cc 1d bd 8e 2f 29 bd c3 08 16 3e
       -0.03969689 -0.03852464 -0.041305117 0.1465178
0003d0 60 94 96 bc ae 0f e2 bc 61 09 ab 3d 62 23 86 bd
       -0.018381298 -0.027595367 0.08351398 -0.065497175
0003e0 a3 b0 91 3c 1c b0 bc bd 69 e2 ef 3d f0 ec 5c bd
       0.017784422 -0.09213278 0.11713106 -0.0539369
0003f0 9e 74 ca 3d 5a 5b 9a bc 3f b9 83 3d bd a2 3d bc
       0.09885524 -0.018842388 0.06431817 -0.011574444

tokenizing_net.0.bias f4 [128]
000000 3d 87 c4 3d c4 41 c4 3d e3 15 fb bc c8 07 48 3d
       0.09596107 0.09582856 -0.030650085 0.048835546
000010 14 94 05 3e 31 17 83 bd 4b ba 47 bd 23 b5 cd bd
       0.13044769 -0.06400908 -0.048761647 -0.10044315
000020 95 2e 81 bd 8b ce cb 3c 2c 3c 84 bd 5c ca e3 3d
       -0.06307713 0.02487876 -0.064567894 0.11122581
000030 ff 03 bb bd 77 c6 30 bc 58 a9 26 bd 3a 6d 2b 3d
       -0.091316216 -0.010789505 -0.040688843 0.041852213
000040 44 d1 bb bd d7 6a 99 3c c3 9d 9c bd 5f 00 30 bd
       -0.091707736 0.018727703 -0.07647278 -0.042969104
000050 a4 71 9f bc f0 fb 8b 3b 56 19 03 3e 19 34 a3 3d
       -0.019463368 0.0042719766 0.12802634 0.07968921
000060 b5 9b df 3d 97 d9 0f 3d a2 46 dd 3c 05 55 db bd
       0.10918371 0.03511962 0.02701122 -0.107095756
000070 d1 f7 0a be 67 c0 32 3d 52 b4 ec bc de e8 cc 3d
       -0.13571097 0.04364052 -0.028894577 0.100053534
000080 c9 ef f0 bd ff f7 ac bd 7d a8 4c 3d c8 4c da bd
       -0.117644854 -0.08445739 0.04996537 -0.10659176
000090 3b 17 9c bd fe 4d c5 3c 73 5f f3 3c 04 04 e0 bd
       -0.07621618 0.024085041 0.0297086 -0.10938266
0000a0 2d ef ef bc a1 d2 4b bd 43 8b 4a 3b a8 42 f9 bc
       -0.029288853 -0.04976142 0.003090576 -0.030427292
0000b0 61 70 04 3e 9a 25 14 3c 59 dc 4d bc 27 75 16 3d
       0.12933494 0.009042168 -0.012564742 0.03673282
0000c0 51 9e c2 bd 30 6d 7d bb 9b 78 10 3c e3 48 c3 bd
       -0.09502853 -0.0038669817 0.008817817 -0.095353864
0000d0 6f 8d e9 bd 0e 8c bf bd 5b 6a be bd de 79 01 3e
       -0.114039294 -0.09352885 -0.092976294 0.12644145
0000e0 d5 40 bd 3d 3c f6 3a 3c d1 bb 66 bd 32 79 02 3e
       0.09240881 0.011411246 -0.05633146 0.12741545
0000f0 28 a2 f0 bd a8 aa 81 bd c3 ed a5 3d bf f0 4e bc
       -0.11749679 -0.06331378 0.0810199 -0.0126306405
000100 77 ff c4 3d a8 1c c9 3d 4f 52 e6 3b 0c 4f 06 be
       0.096190386 0.09819919 0.007028855 -0.13116091
000110 0d 0b e9 bd e0 aa 17 bc 0b 49 93 bd ec 83 f4 3d
       -0.11379061 -0.009257048 -0.07191666 0.119392246
000120 94 4b b3 bd 21 c6 8b bd d2 cf 92 3d 08 16 a2 3c
       -0.0875465 -0.068248995 0.07168545 0.019785896
000130 fc 4d 8a 3d a9 a4 04 3e e4 2d 41 3d 50 80 25 3d
       0.067531556 0.12953438 0.047162905 0.04040557
000140 81 eb 09 be e2 64 7c bd 8f 65 d8 bc de 07 b1 3d
       -0.13468744 -0.061619647 -0.026415614 0.08644079
000150 59 02 f8 bd 51 3c 08 3e f2 e7 8c 3d f3 f8 42 bd
       -0.12109823 0.13304259 0.068801776 -0.047600698
000160 05 b2 bb bd 87 f2 d0 3d ed 77 f9 3c 93 77 66 bd
       -0.09164814 0.102025084 0.030452693 -0.05626638
000170 ea 6c b0 3d 62 77 01 3d 40 66 9f 3d 95 0a 0c 3e
       0.08614524 0.031607993 0.077831745 0.13675912
000180 f8 6e 51 3d c7 f4 e3 bd d0 73 f7 bd 1c 5d 9e 3d
       0.05113122 -0.11130672 -0.12082636 0.07732603
000190 85 b7 04 be db db 1f 3d 32 4e ae bd 5e 47 76 bd
       -0.12960632 0.03902803 -0.08511008 -0.060126655
0001a0 43 2e f7 3d 42 ce 70 bd cb e4 17 3d 0c e3 f7 3d
       0.120693706 -0.058790453 0.03708343 0.12103853
0001b0 b9 40 47 3d 21 87 22 bd 56 51 a3 bd 1a d5 91 3d
       0.04864571 -0.03967965 -0.07974498 0.07120724
0001c0 e4 8f 20 3d d0 d0 c5 bd 35 29 17 3c ae f5 aa bd
       0.039199725 -0.096589684 0.009226133 -0.08347641
0001d0 bb 90 c0 3d 4b 19 d5 3d 9f 9e 9b 3d 43 2c fa 3d
       0.09402605 0.10405215 0.07598614 0.122154735
0001e0 6f 4a da bd 63 d7 da bd 1d 30 dd bd d3 e3 d1 bd
       -0.10658728 -0.10685613 -0.108001925 -0.10248532
0001f0 d3 a2 05 be 8a 99 01 3e ca 77 e9 3d b1 03 36 3d
       -0.13050394 0.12656227 0.11399801 0.044437114

tokenizing_net.1.weight f4 [128]
000000 6a 3a 7e 3f c1 d8 7c 3f ca c0 7f 3f d8 96 7f 3f
       0.9930788 0.9876824 0.9990355 0.99839544
000010 b8 42 7d 3f 5c 24 7f 3f d0 38 7f 3f 7c d2 7e 3f
       0.9892993 0.99664855 0.99696064 0.99539924
000020 39 78 81 3f 91 f3 7e 3f 91 4d 80 3f 17 33 7e 3f
       1.0114814 0.995904 1.0023671 0.99296707
000030 b0 eb 7e 3f d8 c5 7a 3f e1 67 80 3f 8f b5 7e 3f
       0.9957838 0.97958136 1.0031701 0.99495786
000040 89 01 7e 3f 33 eb 7d 3f 4b 44 82 3f 1e 65 7e 3f
       0.9922109 0.9918701 1.0177091 0.9937304
000050 d2 bc 80 3f d9 60 83 3f 03 29 7f 3f db ff 7e 3f
       1.0057623 1.026393 0.99671954 0.99609154
000060 b9 43 7e 3f 43 e8 83 3f 86 01 80 3f 73 70 82 3f
       0.99322087 1.0305256 1.0000465 1.0190567
000070 57 6a 7f 3f 58 d1 7c 3f 64 ac 80 3f ad bd 80 3f
       0.99771637 0.98756933 1.005261 1.0057884
000080 30 8c 82 3f 82 00 7f 3f 81 1d 81 3f 9f d7 82 3f
       1.0199032 0.9961015 1.0087129 1.0222052
000090 52 f6 7d 3f 27 62 80 3f 00 3a 7f 3f 94 4d 7d 3f
       0.9920398 1.0029954 0.99697876 0.989465
0000a0 87 f7 7d 3f d0 68 82 3f 3d ef 7c 3f 33 45 81 3f
       0.9920582 1.0188236 0.9880255 1.0099243
0000b0 3e 30 82 3f f0 a5 7f 3f 3f 19 7f 3f 73 94 80 3f
       1.0170972 0.99862576 0.996479 1.0045303
0000c0 6a ba 7f 3f b0 9e 7f 3f f5 29 7e 3f de 60 7f 3f
       0.9989382 0.9985151 0.9928277 0.9975718
0000d0 47 01 81 3f 51 76 7f 3f 22 2e 7c 3f 2a 75 7f 3f
       1.0078515 0.9978991 0.98507893 0.99788153
0000e0 5a 96 7f 3f 54 62 7e 3f 1e 18 80 3f 69 5d 80 3f
       0.99838793 0.99368787 1.000736 1.0028507
0000f0 3d fd 80 3f a9 2b 7f 3f 64 2b 7e 3f 62 95 7e 3f
       1.0077282 0.99675995 0.9928496 0.9944669
000100 6d d3 7f 3f 86 46 80 3f 25 de 7e 3f 55 d0 7f 3f
       0.99931985 1.0021522 0.99557716 0.99927264
000110 a8 fb 7e 3f 0b 0d 7f 3f bb 52 7e 3f e4 49 7e 3f
       0.99602747 0.99629277 0.99344987 0.993315
000120 50 31 80 3f 89 aa 81 3f 29 90 7e 3f a5 78 81 3f
       1.0015049 1.0130168 0.9943872 1.0114943
000130 f6 c8 7d 3f 03 14 7e 3f 61 82 7d 3f 9e 96 7f 3f
       0.9913477 0.99249285 0.9902707 0.998392
000140 93 4d 7f 3f dc b2 80 3f ab 9c 82 3f 82 7e 80 3f
       0.99727744 1.0054584 1.0204061 1.0038607
000150 6d 2a 82 3f 24 64 80 3f 82 10 7d 3f 33 57 81 3f
       1.0169197 1.003056 0.98853314 1.0104736
000160 03 0c 7d 3f 5d 12 7f 3f fd 2f 80 3f 36 22 7e 3f
       0.98846453 0.99637395 1.0014645 0.9927095
000170 8c 04 80 3f ea 60 82 3f bd f2 7e 3f 91 46 7f 3f
       1.0001388 1.0185826 0.9958914 0.9971705
000180 de 80 82 3f d5 e0 7f 3f 3d b5 82 3f d2 8b 7f 3f
       1.0195577 0.9995244 1.021156 0.99822724
000190 45 ae 82 3f 9f 9b 7d 3f 66 55 80 3f c5 98 7e 3f
       1.0209433 0.99065584 1.0026062 0.9945186
0001a0 25 6d 81 3f 10 4a 7f 3f 08 2b 7f 3f 49 d1 7a 3f
       1.0111433 0.99722385 0.99675035 0.97975594
0001b0 43 29 81 3f 99 15 7f 3f f9 e5 7e 3f c1 4c 81 3f
       1.0090717 0.9964233 0.9956966 1.0101548
0001c0 04 94 81 3f 5d 8d 7f 3f f8 03 86 3f f6 a7 7e 3f
       1.0123296 0.9982508 1.0469961 0.9947504
0001d0 24 17 81 3f f0 cf 7f 3f ab 99 7d 3f 0d 9d 80 3f
       1.0085187 0.9992666 0.99062604 1.0047928
0001e0 2c d8 80 3f b1 27 80 3f 83 34 7d 3f a9 ce 7d 3f
       1.006597 1.0012113 0.9890825 0.99143463
0001f0 f3 a0 80 3f c7 35 7f 3f 97 2c 81 3f 6e 45 7b 3f
       1.0049118 0.9969143 1.0091733 0.98152816

tokenizing_net.1.bias f4 [128]
000000 2f 85 08 bc 5b b2 37 bc e6 ce 8b ba 13 08 12 bc
       -0.008332535 -0.011211957 -0.0010666519 -0.008913058
000010 06 70 5e bb 0a 7b 1d 3b 12 8f 03 3c 0d 60 95 3b
       -0.0033941283 0.0024029636 0.008029716 0.0045585693
000020 f1 5d 2c 3a 8b a6 b4 bb e2 c5 83 bb d7 f4 a3 3b
       0.00065752777 -0.0055130175 -0.004021392 0.0050035524
000030 9f 82 ce bb 78 77 1f 3c e8 51 08 3a 73 66 c5 bb
       -0.0063021923 0.009733073 0.0005200193 -0.006024176
000040 44 6f d6 3b 50 0f 30 3c d8 95 a6 3b 55 c8 a3 bb
       0.0065440256 0.010745838 0.0050837807 -0.0049982467
000050 14 f3 5e 3b b6 02 9e 3a 5a bb c0 bb ed 2f 27 bb
       0.0034019398 0.0012055251 -0.005881709 -0.0025510744
000060 a4 28 21 3c df a3 af ba 90 27 00 bb 04 61 28 bb
       0.00983635 -0.0013400278 -0.001955483 -0.0025692591
000070 90 a3 ae ba 53 41 35 3c 05 aa f7 3a 89 6f 94 bb
       -0.0013323892 0.011062938 0.0018895274 -0.0045298976
000080 98 a4 56 ba dc 5d 60 3b 7f c8 a7 3b 12 d5 98 bb
       -0.00081879785 0.0034235632 0.0051203365 -0.004664072
000090 00 aa bb 3a 12 2e d4 3b 3a 2d ab ba 73 76 12 3c
       0.0014317632 0.0064752186 -0.0013059743 0.008939373
0000a0 43 95 9b 3a 4c 3d 20 ba f3 ab 24 3c 96 3c e6 3a
       0.0011870045 -0.00061126496 0.0100507615 0.0017565663
0000b0 bc 00 8c ba 10 c2 65 bc 2b 2d e3 bb 64 49 46 3a
       -0.0010681371 -0.014023319 -0.0069328747 0.00075640366
0000c0 20 fa a3 bb 9f 94 89 3b 7a d2 8b ba b2 24 f3 3b
       -0.0050041825 0.004198625 -0.0010667585 0.007420146
0000d0 46 d0 07 bb f3 72 bb bb b4 82 ca 3a 1f 3c a3 bb
       -0.0020723506 -0.00572049 0.001545033 -0.004981532
0000e0 28 04 43 bb 80 70 fe 3b 0b e5 14 3b 35 ad 08 3a
       -0.0029757116 0.007764876 0.0022719528 0.0005213798
0000f0 3b 09 9e bb a6 97 9a 3b 08 a7 e3 3b 04 f8 01 bc
       -0.0048228777 0.004717785 0.006947402 -0.007932667
000100 c4 ae 1e ba 51 0b 29 3a c1 3b 5b bb ac 9f 85 bb
       -0.0006053264 0.00064485247 -0.0033452364 -0.0040778723
000110 d8 b6 91 bb 42 bf c1 ba ce 53 1b 3c 72 46 0d bc
       -0.0044468455 -0.0014781731 0.00948043 -0.0086227525
000120 80 8e 14 bb a3 8b 92 38 6a ac 80 3a 54 39 51 3b
       -0.0022667944 6.987832e-05 0.0009817008 0.003192504
000130 48 52 c2 3b 2a 7d 46 3c 4b a8 c5 bb 5c c3 17 bc
       0.005930219 0.012114802 -0.006032025 -0.009262886
000140 9b 33 82 3a 5f 7d 65 39 56 ee eb 3a 5a 85 fd 3a
       0.0009933593 0.00021885846 0.0018000107 0.001934211
000150 d1 5e fb ba 35 26 33 bb e3 eb 2a 3c 81 c5 e1 ba
       -0.0019178038 -0.0027336006 0.010432216 -0.0017224998
000160 49 13 d0 bb 95 c2 10 bb c8 d1 76 3a 13 69 1f bc
       -0.006349955 -0.0022088636 0.0009415415 -0.0097296415
000170 ad cd 87 bb 0f bf c0 b9 b8 af f7 ba 05 41 02 bb
       -0.0041443915 -0.00036763443 -0.0018896973 -0.001987518
000180 9f 11 e4 39 22 42 b5 3b 35 68 9c ba 18 6b 68 bb
       0.00043500678 0.0055315653 -0.0011932912 -0.0035464223
000190 9d 66 cf ba 64 f3 75 bb 77 ea 37 3c 25 1f ff ba
       -0.0015823428 -0.0037529105 0.011225334 -0.0019464238
0001a0 5b b7 9e 39 9a 2b cd 3a fa b3 c7 3b 28 8a bf bb
       0.0003027272 0.0015653253 0.006094453 -0.005845327
0001b0 b7 fe 20 3a 48 71 a3 bb bc 0d 1c ba 64 85 2f 39
       0.0006141471 -0.0049878694 -0.00059529743 0.00016738992
0001c0 76 97 55 3a da 97 18 bc b8 75 21 3b 5a 38 1e bb
       0.00081478746 -0.009313548 0.0024636816 -0.0024142475
0001d0 50 0d 00 bb 7d 23 4d 3b d6 42 03 bc 76 50 12 bb
       -0.0019539185 0.003130167 -0.00801154 -0.002232579
0001e0 8e 41 c3 bb 32 75 31 39 4d a6 99 3b 97 aa 1b 3c
       -0.0059587425 0.00016923694 0.004689014 0.009501121
0001f0 f8 8f 8e 3b 3c b9 83 bb 7b 0b 5e 3b 84 1d 1d bb
       0.0043506585 -0.0040198844 0.0033881355 -0.0023973892

regression_net.0.weight f4 [128, 128]
000000 ac 06 a2 bd bf c9 8c bc 27 78 e9 3c 4b f4 a5 3d
       -0.07911429 -0.017186044 0.028499676 0.08103236
000010 dc b6 7a 3d c3 36 9f 3d 54 5f 3d bd aa d6 5f bd
       0.061209545 0.07774117 -0.04623349 -0.05464808
000020 5f 60 9f bc 0c 51 75 3c ae 05 9d bd b7 e5 7c 3d
       -0.019455133 0.014972936 -0.07667099 0.06174251
000030 f0 96 2a 3d d9 ac 80 3c 62 64 83 bd 35 87 b4 bd
       0.04164785 0.01570742 -0.06415631 -0.08814851
000040 3a b5 20 bd af 1f bd 3d b2 fa 84 bb 03 32 1a bb
       -0.03923533 0.09234559 -0.0040582055 -0.0023528344
000050 d7 c0 8b 3d f5 b6 64 bd 4c 20 77 bd bc 24 27 bc
       0.06823891 -0.055838544 -0.060333535 -0.010201629
000060 61 e3 e6 bc 3a 4f 6d bd 94 be 9d 3c c5 4e 9b 3b
       -0.028184595 -0.057936884 0.019255914 0.0047396147
000070 e5 43 6b 3c ca 0e 5e 3d 30 3f 33 3d 65 79 a6 3c
       0.014359449 0.054213323 0.043761432 0.020321557
000080 24 34 c8 3c 83 05 91 3d 53 04 83 3d f3 58 3a 3c
       0.024438925 0.070811294 0.06397309 0.011373746
000090 13 bf 5e 3d 0d 65 a8 bb 9b 32 fc bb 27 78 21 3d
       0.05438144 -0.0051389993 -0.0076964623 0.039421227
0000a0 ff f3 3d bc 6a 61 05 bd 51 49 a6 bd 19 2c 47 bc
       -0.011593818 -0.032563604 -0.08119453 -0.01215651
0000b0 16 cd 40 bd f2 85 cc 3c 8f 3b 37 3d f6 1d 54 3d
       -0.047070585 0.024966214 0.044734534 0.051786385
0000c0 ab ae a0 bc 65 75 fd bc b1 c3 a4 bc bf 65 06 bd
       -0.019614538 -0.030939767 -0.020112844 -0.032811876
0000d0 68 90 cf 3b c1 c8 85 bd 81 3f 92 bd ea 0b 12 bd
       0.0063343532 -0.065324314 -0.07141019 -0.035655893
0000e0 cd ff 95 bd 42 f7 5c 3d a1 ae 3c bd ee 7b d1 3c
       -0.07324181 0.05394674 -0.046064977 0.02557179
0000f0 87 48 6a 3d 40 f7 24 bd 97 13 d7 3c e1 ed 5a bd
       0.057198074 -0.04027486 0.026254458 -0.053449515
000100 86 0d 6c bd 69 6d cb bb ea 4f 9c bd 1d 33 79 3d
       -0.057630084 -0.006208111 -0.0763243 0.06083976
000110 af 95 05 3d 4b 52 94 3d f8 0a 3d bd 46 55 54 3d
       0.032613453 0.07242259 -0.04615304 0.051839136
000120 d4 50 4a bd 9b 93 77 3d e8 d6 67 bd 44 5a c2 3c
       -0.04939349 0.060443502 -0.056601435 0.023724683
000130 82 d5 94 3d 99 64 79 3d 9a c2 83 bd 1f fb c9 3c
       0.07267286 0.060886953 -0.06433602 0.024655877
000140 e3 53 bf 3c c7 fe cb 3b e2 24 ef 3b 50 fc 8d bb
       0.02335543 0.00622544 0.007298098 -0.0043330565
000150 b3 9d 02 3c 06 db 02 bc 17 02 7f 3d e4 6a 58 bd
       0.007972169 -0.00798679 0.062257852 -0.052836314
000160 22 18 c6 bd a4 fa 37 3d c0 9c c0 bc ee 4e f7 bc
       -0.09672572 0.044916764 -0.023512244 -0.030189004
000170 9f 04 9d bd 7b 1c 99 bd 35 cf 84 bc cd c9 b6 bd
       -0.07666897 -0.07476135 -0.016212085 -0.08925209
000180 19 69 46 3d 6b 85 40 3d 44 44 7a bc f8 9b 94 3d
       0.048440073 0.047002237 -0.015275065 0.07256311
000190 9f 4b ac 3c 59 17 1a 3d fe 40 89 3c a8 ef 01 3d
       0.021032153 0.037619922 0.016754624 0.031722695
0001a0 19 58 38 bd e7 8d 7e 3d 28 7c 95 3d f0 62 2d bd
       -0.04500589 0.062147047 0.072990716 -0.042330682
0001b0 d9 14 9c 3d 98 65 a1 bd 29 db f9 bb 22 d1 50 bc
       0.07621164 -0.078807056 -0.007625003 -0.012745174
0001c0 bc 07 92 3c a1 b9 b0 3d 84 83 b5 3c 4b cd 2e bc
       0.017825954 0.08629156 0.022157438 -0.010669063
0001d0 90 be c3 3c ec 99 98 3d 96 03 2b bb 3f 65 a2 3c
       0.023894578 0.07451233 -0.0026094667 0.019823669
0001e0 e2 ed d4 3c 0d 43 98 bd 4d ad 02 bd f0 6f 9d 3d
       0.025992338 -0.07434664 -0.031903554 0.07687366
0001f0 72 b1 1e bd 87 a9 73 bd 00 8a c8 bc 09 be 28 3d
       -0.038743444 -0.059487846 -0.024479866 0.041196857
000200 33 d9 36 bd cf 89 9d 3d 84 5a 35 bd a3 4c 90 bd
       -0.04464073 0.076923005 -0.044275776 -0.07045867
000210 be 97 f7 3c 91 68 43 3d ad 1d f2 39 05 ec f8 3c
       0.030223724 0.047707144 0.00046179947 0.03038598
000220 6f ad ac bb 28 ab 8c bc 85 88 82 bd b0 bd 8e bd
       -0.0052696983 -0.017171457 -0.06373695 -0.06969774
000230 ed b1 d5 3c c5 ac 8e 3c 10 f3 dd bb 2a 99 86 3d
       0.026085818 0.017416367 -0.00677336 0.065721825
000240 3d 58 09 bc 35 1e aa bd 94 b9 97 3d e0 40 53 bc
       -0.008382854 -0.08306543 0.07408443 -0.012893885
000250 74 95 2b bc c5 49 ab bc b4 6a 42 3d af a2 1e ba
       -0.010472644 -0.0209092 0.04746504 -0.00060514634
000260 cd cc 0d bd 44 8c 25 bd ee b2 9e bd bb 9b 16 3d
       -0.03461914 -0.04041697 -0.07748972 0.03676961
000270 bf 86 00 3d 1c bd 97 bd 81 5b 95 bd c1 ea 69 3d
       0.031378504 -0.074091166 -0.072928436 0.057108644
000280 31 ba 65 bd 9e 39 7a bd b1 9d 75 3d 24 a2 af 3c
       -0.05608577 -0.061090104 0.05996484 0.02143962
000290 31 dd 0b bd 0e f3 32 3d ab 89 8d 3d 65 af 74 3c
       -0.03414649 0.043688826 0.06911024 0.014934395
0002a0 e1 20 85 bd 25 8a aa 3c 90 18 33 bd ec 0f 36 bd
       -0.06500412 0.020817826 -0.043724597 -0.044448778
0002b0 a4 62 9f bd 1c 4b b2 3d 15 a4 a2 bd 5d 12 13 bd
       -0.07782486 0.08705732 -0.079414524 -0.035906184
0002c0 62 3b 64 ba 83 8e db 3b 64 ec 6b 3c 61 a8 3e 3d
       -0.00087063585 0.0067003383 0.014399622 0.046547297
0002d0 45 b2 b9 bd d0 e0 e5 3c a7 cd 89 3c 59 bc d6 bb
       -0.09067205 0.0280613 0.016821695 -0.0065532145
0002e0 0b c0 b7 bc 28 db 72 bc 2b bc b3 3d b8 7a a4 3a
       -0.02243044 -0.014822759 0.087761246 0.001254878
0002f0 51 80 8e 3d 09 aa 8e bd 27 15 88 3d c7 d8 99 bd
       0.06958068 -0.069660254 0.066446595 -0.0751205
000300 22 1c cc bc aa d8 9d bd 23 0d 8a 3d d3 f7 e6 3c
       -0.024915759 -0.07707341 0.06740787 0.028194344
000310 37 26 5b 3d 33 ae 47 3d 3e 2a ef 3c 3c 12 41 3d
       0.05350324 0.048750114 0.029194947 0.04713653
000320 53 9a e8 bc dd e6 85 bd 34 42 e9 bc 2b b7 9e bd
       -0.0283939 -0.06538174 -0.02847395 -0.0774978
000330 43 a0 6c bd ab 8e db 3c d5 0b db 3c 5a ba 46 bd
       -0.057770025 0.026801428 0.02673904 -0.048517562
000340 e7 2f 98 bc a5 6b 4e 3d 55 df 56 3d 1c 36 93 3d
       -0.01857753 0.050395627 0.05245908 0.07188055
000350 f1 b4 15 3d e2 ed c9 bb e5 0c 46 3c 22 5c ad bb
       0.036549512 -0.006162391 0.012088035 -0.005290524
000360 e9 61 9e bd 76 f3 f4 bb 27 2e cb bc 0d d3 69 bc
       -0.07733519 -0.007475312 -0.02480228 -0.01427151
000370 23 3f b6 3d 03 a6 8b bc 0d b5 52 3d eb 93 d8 bc
       0.08898761 -0.017046934 0.051442195 -0.02643772
000380 06 82 ad 3d 22 74 a6 bd d3 ea 85 3c ff 0c fa ba
       0.08472066 -0.08127619 0.016347324 -0.001907736
000390 55 39 89 3d 2a c8 50 bc 9f bd 7f bd df c4 10 3c
       0.06700388 -0.012743035 -0.062436696 0.008836
0003a0 8b 89 7c bd 55 af 26 3d c6 85 75 bd 52 6e 7b 3d
       -0.06165461 0.040694553 -0.05994203 0.061384507
0003b0 68 08 7f 3d 92 1c 1a 3d 7e 1b 04 bd 5c 43 b2 bc
       0.062263876 0.037624903 -0.03225278 -0.021760635
0003c0 58 ea 19 bd d8 2e 2d 3a 91 c0 13 bd 2e ef fc bc
       -0.037577003 0.00066064065 -0.036072318 -0.030875769
0003d0 98 5c 53 3d 31 e0 91 3d 5d d7 f1 ba f0 35 8e bb
       0.051601976 0.07122839 -0.0018451024 -0.004339926
0003e0 08 df 74 bd 21 a2 81 3c aa 36 68 bd 1c 35 3c bd
       -0.05978301 0.01582438 -0.056692757 -0.045949087
0003f0 92 f5 fe 3b 52 8c 45 bb 26 29 c8 bb a8 65 85 bd
       0.007780739 -0.0030143452 -0.006108421 -0.0651353

regression_net.0.bias f4 [128]
000000 9e a2 01 ba 85 e2 3b 3d a6 62 73 bd 79 10 a9 bd
       -0.00049451913 0.045870323 -0.05942025 -0.08255095
000010 15 2d de bc 09 08 a2 bd ec 1a 0b bd 87 37 d9 3c
       -0.027121106 -0.07911689 -0.03396122 0.026515735
000020 20 82 95 3c c5 6e 53 bd f1 f5 99 3b 34 10 b7 3d
       0.018250525 -0.05161931 0.004698508 0.089386374
000030 40 00 82 bc 37 d1 96 3d b5 4a c7 3c 94 26 47 bd
       -0.01586926 0.07364123 0.024327615 -0.048620775
000040 81 46 22 3c 38 38 3c 3d 62 01 72 bd 3f 01 9b bd
       0.009904505 0.045952052 -0.05908335 -0.07568597
000050 36 61 13 bc 83 97 07 3c f1 ba 6c 3d f7 d3 1b 3d
       -0.008995345 0.008275869 0.05779547 0.038043942
000060 da cc af bd db 13 98 3c a7 17 1b 3d 06 b4 9c 3d
       -0.08583994 0.018564155 0.037864354 0.07651524
000070 24 16 97 bb d1 1b 8a 3d 36 8c a7 bc 20 cb 2c 3d
       -0.0046107937 0.06743587 -0.0204526 0.042185903
000080 f5 d8 08 bc 75 51 ab bd 9a 5e a6 3d 90 3a 74 bd
       -0.008352508 -0.08365146 0.081235126 -0.059626162
000090 78 14 4e bd af d3 1e 39 e7 43 00 bd 9f 45 ac bd
       -0.05031249 0.00015146912 -0.031314757 -0.08411717
0000a0 72 79 89 3d 1b cc f3 3a 25 f9 4e bd 25 b5 83 3d
       0.06712617 0.0018600257 -0.05053057 0.06431035
0000b0 07 54 16 3d b6 68 2e 3d 0c a1 e4 3c ec 19 80 3d
       0.03670123 0.04258033 0.027908824 0.06254944
0000c0 9f 75 80 3d 37 5f b0 bd 47 8d 7e bd 91 a8 33 3d
       0.062724344 -0.08611911 -0.06214645 0.04386193
0000d0 59 b5 3c 3c 2a f5 ab bb 5b 2a a0 3d 23 67 f5 3c
       0.011517846 -0.0052477317 0.07820579 0.029956406
0000e0 56 8d 9f bb 01 8b c6 3c d4 87 2a bd 98 74 7c 3d
       -0.0048691435 0.024236204 -0.041633442 0.06163463
0000f0 ab 41 a1 bd 82 0a 40 3d e3 fc 76 3d 9c 10 8f 3c
       -0.07873853 0.04688502 0.060299765 0.017463975
000100 82 a6 94 3d 4c a1 6a 3d 45 b8 f6 bb 30 87 92 3d
       0.07258321 0.05728273 -0.007529291 0.07154691
000110 93 f3 51 3d d7 62 60 bd 0d 4b 2e bd 25 5c 67 3d
       0.05125768 -0.05478176 -0.042552043 0.05648436
000120 9e 7f 5e 3d 66 b9 a6 bd cf ef 2b bd 9b 52 80 bc
       0.054320924 -0.08140831 -0.041976746 -0.01566439
000130 3c d2 d6 3c 7c 91 19 3d da 82 04 bd 84 d1 f5 3c
       0.026223294 0.03749226 -0.032351352 0.030007131
000140 b2 1d 9c 3d f7 56 bb bd b8 5b ef 3c 53 02 13 3d
       0.076228514 -0.091474466 0.02921854 0.03589089
000150 0e c1 e0 3c 47 be 82 bd e6 5b 6a bd b5 11 0e 3d
       0.027435806 -0.06383949 -0.057216547 0.034684855
000160 b0 61 8c bd 83 11 7c bb 47 9f 92 bd ce bd 67 bd
       -0.0685457 -0.0038462586 -0.07159286 -0.056577496
000170 93 82 03 bd 97 95 4c bd 51 2d d7 bc 2c 95 3b 3b
       -0.032106947 -0.049947347 -0.026266726 0.002862285
000180 5f c1 c0 bc 1b f6 80 bd da d3 e3 bc 6a 88 1d 3c
       -0.023529707 -0.06296941 -0.02781098 0.009615043
000190 e6 c8 96 bb 22 44 ab bc ca b8 df 3c f0 db 8f 3d
       -0.0046015857 -0.020906512 0.027309794 0.070243716
0001a0 b6 3b 2f bd c2 9c 82 bd 63 ad 11 bd d5 88 88 3d
       -0.042781554 -0.063775554 -0.035565745 0.06666724
0001b0 7d a2 9b 3c 8d 7c 84 bc 64 88 5a bd 1d da 89 bd
       0.018998379 -0.016172672 -0.05335273 -0.06731055
0001c0 4c bb cf bc 63 cc 26 bc da 72 6d 3d 3c e0 86 bd
       -0.025357865 -0.0101805655 0.05797086 -0.06585738
0001d0 d8 5a 5f 3d 1e 3c d2 bc 60 6e 66 3c f3 a6 aa bd
       0.054529995 -0.025663432 0.014064401 -0.08332624
0001e0 b3 ae c4 3b 01 04 3a 3d 4e 34 a8 3d a5 61 45 bd
       0.006002271 0.045413975 0.08213101 -0.048188824
0001f0 e5 8e 80 3d 8b e7 79 bd 10 d4 56 3d ce b3 3d 3d
       0.06277255 -0.061011832 0.052448332 0.046314053

regression_net.2.weight f4 [128, 128]
000000 ad 49 c2 3b 07 a5 8f bd 72 5a c1 bd 70 50 41 3c
       0.005929193 -0.07013898 -0.09441079 0.011798963
000010 16 56 d0 3c 4c 59 ba bd aa 19 6b 3d 95 b2 11 3d
       0.025431674 -0.09099063 0.057397522 0.0355707
000020 44 b9 36 3d 0d c7 4f 3d 3d a8 6b 3d ff 73 5b bc
       0.044610277 0.05072694 0.05753349 -0.013394355
000030 b0 34 63 bd 47 c5 ea 3c ba fc af 3d a4 dd 0a bd
       -0.05547017 0.028658522 0.08593126 -0.03390278
000040 f6 88 23 3d cb 7a 20 bb 10 8f 7e 3c f2 c4 17 bc
       0.039925538 -0.0024487253 0.015537038 -0.009263264
000050 08 10 26 3d 0d 04 98 3d e5 1c 95 3b ff c4 34 3d
       0.040542632 0.074226476 0.0045505636 0.044133183
000060 eb 59 42 3d b6 55 95 bd 78 cd 07 bd 3e 9e 81 bc
       0.047449034 -0.07291739 -0.033154935 -0.015822526
000070 fb ab 83 bd 4a 06 31 3d d7 50 81 3c 3c b8 8f 3d
       -0.06429287 0.04321889 0.015785618 0.07017562
000080 61 9f ff bc 52 c6 67 bd 13 1b 91 bd ec 73 88 3d
       -0.031203927 -0.056585617 -0.07085242 0.06662735
000090 30 f2 79 bd 91 42 8a 3d d6 93 27 3d 72 bd db 3c
       -0.061021984 0.06750978 0.04091247 0.026823733
0000a0 94 2a 74 3b 13 2d f0 3c 35 6f 4d 3d 72 92 51 bc
       0.0037256824 0.029318368 0.050154883 -0.012791263
0000b0 6b b7 6a 3d 86 36 2d 3b 67 45 a1 3a 1c 8b 22 bd
       0.057303827 0.0026430204 0.0012304009 -0.039683446
0000c0 88 cc a7 bc e3 66 2a bd 4d 2a 4e bd b4 88 54 bd
       -0.02048327 -0.041602027 -0.05033331 -0.051888183
0000d0 ea eb 8e 3d 1e f3 a4 3d d8 ac 64 bd 91 7d 78 3d
       0.06978591 0.080541834 -0.0558289 0.060666624
0000e0 ba 1d 94 bd 2d f2 00 bc da c8 a5 3d 30 c6 83 3c
       -0.072322324 -0.007870239 0.0809495 0.016085714
0000f0 9e 22 53 3d dc 09 37 3d f6 b9 f4 bc f8 ad be 3c
       0.051546685 0.044687137 -0.02987383 0.023276314
000100 47 6f e0 bb ca cc 2f bc af 28 21 3d a7 9a 9f bd
       -0.006849203 -0.010729978 0.03934544 -0.077931695
000110 54 7c 8d bd 01 55 87 3d 8e 95 a4 3d fd 8d 96 bd
       -0.06908479 0.0660801 0.08036338 -0.07351301
000120 a8 e5 d6 bc 5c 5d 45 3c 40 9e 17 3c 2d 3a 14 3c
       -0.026232556 0.012046184 0.009254038 0.009047073
000130 6b da 49 3d e2 07 9d bd d8 e0 a4 bc 97 ad 34 bd
       0.049280565 -0.07667519 -0.020126745 -0.04411086
000140 44 e8 82 3d fa 72 9b bd 86 01 a0 bd 40 81 ad bb
       0.063919574 -0.075902894 -0.078127906 -0.005294949
000150 04 e8 68 3d 8f 26 1a bd dc 6a 93 bd c9 ef 6f bd
       0.056861892 -0.03763443 -0.07198116 -0.058578286
000160 d0 f2 5c bd bb d1 ad bd 08 4a a8 bd 4b af bf 3d
       -0.0539425 -0.084872685 -0.08217245 0.09359606
000170 41 ee 4d 3d 33 60 1c 3d 1d 27 aa 3d c2 fd 77 bd
       0.050276045 0.03817768 0.083082415 -0.060544737
000180 30 04 68 bd a9 24 c8 bb f8 47 ec 3c 74 35 7c bd
       -0.05664462 -0.006107886 0.028842911 -0.061574414
000190 49 ed 9c bd 10 d0 8b 3d 10 8e ad bd d9 57 0f 3d
       -0.07662446 0.06826794 -0.08474362 0.034995887
0001a0 5f fc dd 3c 59 20 93 bd 94 7e a3 bd 81 ef a5 bd
       0.027097879 -0.07183904 -0.07983127 -0.08102322
0001b0 09 08 07 3d a0 37 15 3d 1a 40 89 bd fd ff bc bb
       0.032966647 0.03643 -0.067016795 -0.005767821
0001c0 ae 8f 52 bd 8b c6 75 bc a5 29 7c bd 97 97 01 bd
       -0.051406555 -0.01500095 -0.061563153 -0.031638708
0001d0 d7 da 92 bd 7d 57 c3 bd 15 36 8d bc e9 e4 56 3d
       -0.07170647 -0.095381714 -0.017237702 0.0524644
0001e0 0e 7a 0e 3d 46 44 31 3a 1a 2b cd bd 8a 1e 79 bd
       0.03478437 0.00067621877 -0.100179866 -0.06082014
0001f0 28 f4 37 bd 31 fc 18 3d 9c 35 2e bd 45 3d 18 3c
       -0.04491058 0.037349883 -0.042531595 0.009291952
000200 b3 60 7a bb 09 be 26 bd ae d5 96 bc 00 07 9a bd
       -0.003820461 -0.040708575 -0.018412437 -0.075208664
000210 9b 5f a3 bd 10 fd 26 bd 90 cb ca 3c ab d7 92 3d
       -0.0797722 -0.040768683 0.02475527 0.07170042
000220 69 2b 10 bd 7b 2c 5f 3d 7d 65 14 bd a9 0f 8a 3d
       -0.03519765 0.05448578 -0.0362296 0.06741268
000230 dd ff 8d 3c 9d 60 94 3c b4 ab 13 bd dd e7 37 3d
       0.01733392 0.018112475 -0.03605242 0.044898856
000240 e4 0f ad 3d 79 d7 33 3d 99 da a5 3d 6b 89 51 3c
       0.084502965 0.043906663 0.08098335 0.012789111
000250 bc f6 cf 3b 52 07 5f bd f5 22 96 bd e4 10 bb bd
       0.0063465517 -0.05445034 -0.07330886 -0.09134081
000260 49 86 4c bd 03 be b7 bc 65 78 77 3d a7 a8 15 bd
       -0.04993275 -0.022429472 0.06041755 -0.036537793
000270 7b eb 64 3d 1f 80 aa bd 25 65 ad 3d 9b 98 a8 3c
       0.055888634 -0.083252184 0.084665574 0.02058058
000280 c9 dc cf 3d 5b 0c 8e 3c df 31 0a bc 11 e7 8d 3d
       0.10149533 0.017339876 -0.008434742 0.06928838
000290 1d 3c 82 bd 31 46 8b 3d 7c 92 95 3c 82 80 9f bd
       -0.06359122 0.06800497 0.018258326 -0.07788183
0002a0 6c 23 fd bc c6 fb ea 3c e0 4e ab bd 35 cf e9 bc
       -0.03090068 0.028684508 -0.083646536 -0.028541187
0002b0 17 d7 21 bd 49 1f cb 3c c9 60 a0 bd 3c 52 60 bd
       -0.039511766 0.024795191 -0.0783096 -0.054765925
0002c0 b8 79 8c 3d 5f 1f 42 bc 5f bb 80 3d 57 91 23 bd
       0.068591535 -0.0118483 0.06285738 -0.03993353
0002d0 d6 95 42 3d 9f 01 4d 3d e0 37 8a 3c 1a 8d 62 bd
       0.047506176 0.050050374 0.016872346 -0.055310346
0002e0 7b 9f a7 3b 7c f5 82 3d 46 8c 2c bd ac ec c8 bd
       0.005115447 0.06394479 -0.042125963 -0.098107666
0002f0 1d 8a e3 3c 5b 74 91 bc 95 c6 1a bb 0b b2 47 bc
       0.027775818 -0.017755678 -0.00236169 -0.012188445
000300 69 0d ba bd 0f 13 9c bd a8 e2 da bc ba ae d2 bc
       -0.09084589 -0.07620823 -0.026719406 -0.025718082
000310 76 dd d4 ba 75 5d 33 bc d5 ef 90 bd 63 12 de bc
       -0.0016240317 -0.010947575 -0.07076994 -0.027108377
000320 05 48 91 bd 31 52 a8 bd a8 ce 81 3d c4 67 84 3d
       -0.07093815 -0.08218802 0.06338245 0.06465104
000330 8d 79 07 3d 26 a3 d0 3c 85 74 76 bb 98 e0 70 bc
       0.033074904 0.02546842 -0.0037606072 -0.014701985
000340 aa 5d ab 3c 58 61 ee bc f1 43 26 3b 00 41 a9 bd
       0.020918686 -0.029099151 0.0025370086 -0.08264351
000350 de c8 91 bd f9 80 9c bd a4 29 0a 3d 5d a2 c0 bd
       -0.071183905 -0.07641787 0.033731118 -0.09405968
000360 f8 7d f3 3c 50 89 0e bd eb 0a 9c bc 9c db 63 3d
       0.029723153 -0.03479892 -0.019048175 0.055629358
000370 2b 49 d4 bd 38 9d 73 bd 1e 27 7d 3c e0 e7 83 3c
       -0.10365518 -0.059476107 0.015451221 0.016101778
000380 a8 8f 98 bc fa d7 ad bc 93 98 8d bd f0 17 9c bd
       -0.018623188 -0.02122115 -0.06913867 -0.07621753
000390 d1 df 1e bd 5b ba 6f bc fb a7 46 bd ba 0b 85 3d
       -0.038787667 -0.014631833 -0.048500042 0.06496377
0003a0 be 31 80 bd 57 f2 8b 3c 8d 0f cf 39 d7 73 25 3d
       -0.062594876 0.01708333 0.00039493703 0.040393677
0003b0 88 d0 3f bd 3d e6 0d 3d 5d 48 40 bd 3d a4 72 3c
       -0.04682973 0.0346434 -0.04694401 0.014809665
0003c0 50 08 84 3d 46 27 6b 3d 92 80 2b 3d a6 f4 9a bd
       0.06446898 0.0574105 0.04187066 -0.07566194
0003d0 fe 51 be bc c1 b4 e2 bc 03 80 b4 bd c1 d3 62 3c
       -0.023232456 -0.02767408 -0.08813479 0.013844431
0003e0 fa 57 04 3d 60 df c2 bc a4 8c 5f 3d 95 1e b2 bd
       0.032310463 -0.023788154 0.054577485 -0.08697239
0003f0 ac 21 1e 3d b1 c9 96 bd 71 10 2c bd fa b1 36 3d
       0.03860633 -0.07362688 -0.042007867 0.044603325

regression_net.2.bias f4 [128]
000000 17 4f 4b bd 15 9b 68 3d db b7 ed bc 56 08 84 3d
       -0.049635973 0.056788523 -0.029018333 0.064469025
000010 cb f7 72 3d 9f 88 15 3d cd cf a9 3d 54 8b 29 3d
       0.059318345 0.036507245 0.08291588 0.04139264
000020 75 da b1 3d e6 20 34 bd f3 70 26 3d 3f e1 95 3d
       0.086842455 -0.043976687 0.04063506 0.07318353
000030 1d cc ba 3c 9c 87 9e 3d 8d 34 5c 3d 4e 0e 33 bd
       0.022802407 0.07740709 0.053761054 -0.043714814
000040 b2 fd 5f 3d 98 00 8b bb f8 6b 12 bc 8e 52 5b ba
       0.054685302 -0.004242014 -0.008936875 -0.00083664886
000050 1e f6 51 bd 90 2d a9 3c a1 e7 2e 3d 02 c2 b5 bd
       -0.051260106 0.020651609 0.042701367 -0.08874895
000060 58 93 97 3d 99 1c 32 bd 12 68 83 3d 9d b8 79 3d
       0.074011505 -0.043484304 0.06416334 0.060967077
000070 9e e4 9a 3d 3a b3 7e 3d 19 20 00 bd fe 2a b1 bd
       0.075631365 0.062182643 -0.03128061 -0.08650778
000080 a7 2a 81 bd 73 37 98 bc b2 f6 38 3a d5 88 64 3d
       -0.063069634 -0.018581128 0.00070558034 0.055794556
000090 27 fe 9d bc 27 3a 92 bd c0 15 71 3d ef 96 93 bd
       -0.019286228 -0.07139998 0.058858633 -0.07206523
0000a0 69 3b 4d bd 14 d0 f2 3c 89 2b 1b 3d bf e2 84 bd
       -0.050105486 0.029640235 0.037883315 -0.06488561
0000b0 63 a1 3b bc 29 a3 89 3b e7 7a 11 bd c8 97 ae 3c
       -0.011452052 0.0042003584 -0.0355176 0.02131261
0000c0 13 1e 01 bc 68 96 4e 3d a3 48 1c 3c 67 aa 96 3a
       -0.007880705 0.050436407 0.009538802 0.0011494876
0000d0 9d 31 d5 3c 6d 8e 93 3d dc b9 91 bc 76 85 09 bd
       0.026024634 0.072049 -0.01778882 -0.033574544
0000e0 34 8c 65 3d 11 dd 16 bd 33 10 9b 3d 24 de 8b bd
       0.05604191 -0.03683192 0.07571449 -0.06829479
0000f0 e5 d3 de 3c 8d 67 57 3d 71 29 91 3d d5 38 8d bd
       0.027200649 0.052588988 0.070879824 -0.068956055
000100 3b 6e ad 3a 77 4d 96 bd f7 a8 b0 bb 48 65 f2 bc
       0.0013231704 -0.07338994 -0.005391236 -0.02958931
000110 0e a4 9d bd 44 2f a4 bd cc 3b a0 bd a6 46 80 3d
       -0.076973066 -0.08016828 -0.07823905 0.06263475
000120 f3 36 4f bd cc ff f4 3c 43 fc 0f bd e3 51 6a bd
       -0.050589513 0.02990713 -0.035152685 -0.057207
000130 0b 22 2c 3c 52 e0 90 3c 0f 91 1a bd bc 09 d6 bc
       0.010506163 0.01768509 -0.037735995 -0.026127689
000140 e6 0e 30 bc c4 6b 47 3d a1 d6 a8 3b 6c d1 9b 3d
       -0.01074574 0.048686758 0.005152539 0.076083034
000150 88 b4 14 bd ed 75 61 bb c2 8e 80 3d 9b 9e 48 3d
       -0.03630498 -0.0034402565 0.06277229 0.048979383
000160 8d c6 bb bd 19 f4 1a bd bf 80 88 bc e7 01 b0 3b
       -0.0916873 -0.037830446 -0.016662953 0.0053713205
000170 84 15 63 bd 03 50 02 3b 11 a6 b3 bd ff a1 58 3a
       -0.05544044 0.0019884116 -0.08771909 0.00082638854
000180 28 14 9d 3c 20 40 89 bd 28 8f 91 bd c6 d3 04 bd
       0.01917465 -0.06701684 -0.07107383 -0.032428525
000190 18 17 c8 bc 00 eb 75 3d 10 e7 7e 3d a8 dc 47 bd
       -0.024425074 0.060038567 0.062232077 -0.04879442
0001a0 50 99 16 ba 93 50 57 bc 25 ba c6 bd 53 5c bb ba
       -0.0005744891 -0.013141769 -0.09703473 -0.0014294483
0001b0 a1 bf 65 bd 6a 27 ab 3d 61 2d 81 bd 55 26 4b bd
       -0.056090955 0.08357127 -0.063074835 -0.049597103
0001c0 59 0b 2e 3d 15 74 92 3d a5 b0 76 3c 8c 04 94 3d
       0.04249129 0.07151047 0.015056764 0.0722743
0001d0 37 6b 85 3c 1c a3 b7 3c 66 49 bd 3d a2 32 d4 bc
       0.016286476 0.022416644 0.09242515 -0.02590305
0001e0 a5 16 75 3d 2d 07 86 bc a9 2c 86 bd a0 47 ec bb
       0.05983605 -0.016360844 -0.06551487 -0.007210687
0001f0 89 56 37 3d 11 dc 11 3d 49 7d 79 bd d7 43 40 3d
       0.04476026 0.035610262 -0.060910497 0.046939697

regression_net.4.weight f4 [1, 128]
000000 ad c3 f3 bc b9 ba b1 3b e6 6b 37 3d 16 4b 99 bd
       -0.029756391 0.0054238704 0.044780634 -0.07485025
000010 53 03 6b 3d d9 48 8e bd 3c 40 b1 3c 5d 58 5d 3d
       0.057376217 -0.06947488 0.021637075 0.054039348
000020 20 aa b3 3d 83 d5 95 bd c0 7a 8f bd a9 d9 8a 3d
       0.08772683 -0.07316115 -0.070058346 0.06779797
000030 89 a5 a9 bd ea 06 8f 3d c0 46 ac 3d 2e 4b a9 39
       -0.082835265 0.06983741 0.08411932 0.00032290205
000040 19 85 1a ba 0d ea ee 3b 06 04 82 3c fe 92 2a bd
       -0.0005894467 0.0072910846 0.01587106 -0.04164409
000050 5c 84 83 3d ac 52 4f 3d 25 e9 8c 3d 4f b5 9b 3d
       0.0642173 0.05061595 0.06880406 0.07602941
000060 62 03 e1 ba 69 31 ca bc d6 5f a5 bd 9c 2e a7 bd
       -0.0017167146 -0.024681764 -0.0807492 -0.08163187
000070 ec e6 c9 bc 16 2c 9d bd fe 18 4d bd 81 c9 67 bd
       -0.024646245 -0.07674424 -0.050072663 -0.056588653
000080 73 cb a6 3d 09 c7 c4 bc 0d f7 d9 3c bf d2 7c 3d
       0.081442736 -0.024020689 0.02660706 0.06172442
000090 6c 49 82 3a 8c b9 34 bc 41 86 37 3d 9b d1 a7 bd
       0.0009940094 -0.011030566 0.04480577 -0.08194276
0000a0 23 2f 75 3d d1 ad 2a bd f7 96 7a bd 1a 20 e6 3c
       0.059859406 -0.04166967 -0.061179128 0.02809148
0000b0 68 91 3b 3d 85 36 53 3d 5e fc 3c 3c 96 ca 4c 3c
       0.045792967 0.051565666 0.011534778 0.012499472
0000c0 14 59 15 bc 82 57 17 3d 95 f2 b2 3c 56 d6 bf 3a
       -0.009115476 0.03694869 0.021844188 0.0014636021
0000d0 b1 a8 a0 bd a3 30 75 bd 12 1e a0 ba cc 50 5c 3c
       -0.07844675 -0.059860837 -0.0012215993 0.013446998
0000e0 d3 c3 e7 3b ba 33 9a bd 65 da 66 bd 7f 67 3a bd
       0.0070729046 -0.07529397 -0.05636062 -0.045508858
0000f0 6d 3e 94 3d 51 e2 67 3d aa 14 9e bd 6e 6a 04 3d
       0.07238469 0.056612317 -0.07718785 0.03232806
000100 fe c4 aa bd 4f 58 a8 3c 3d 5e 41 3d 21 26 a6 bd
       -0.083383545 0.020549921 0.047209013 -0.08112741
000110 3f 5d 91 3d f2 b5 87 3c 13 16 dd 3c a9 7a 21 bd
       0.070978634 0.01656625 0.026988065 -0.03942362
000120 d2 9e e6 3b 2b c6 8b 3d 28 29 11 3d b3 13 0a 3d
       0.007037976 0.06824907 0.03543964 0.033710193
000130 2a e8 a3 3d 75 f3 7b bd de 00 4f 3d 7c 27 87 3b
       0.08003266 -0.061511476 0.050537936 0.00412458
000140 74 fb 45 bd 4e 4f b4 3c fa 7a a1 3d 74 78 7d 3c
       -0.048335508 0.022010472 0.07884784 0.015470613
000150 92 ef 1e 3d c2 96 2e bd 6f 95 98 bd 56 13 cb 3c
       0.03880269 -0.042624243 -0.07450377 0.024789494
000160 8d 2c 27 bd 44 05 86 3d 7d 91 81 bd f9 53 39 3d
       -0.04081397 0.06543973 -0.06326578 0.0452461
000170 f4 1b d2 3b 84 95 0a 3c a8 5d 79 3d e8 d8 04 bc
       0.0064120237 0.008458499 0.060880333 -0.008108355
000180 fa 62 6c bd bd 0e 59 3d 18 d5 a0 3d 3d 6a ac bd
       -0.05771158 0.05299257 0.078531444 -0.08418701
000190 db 41 9d bd 46 9a 17 3d 57 21 8e 3d 38 92 9a bd
       -0.076785766 0.03701236 0.06939953 -0.0754742
0001a0 14 95 aa 3d 7d 8a 81 3d be 83 9b 3b 3e bc 05 bd
       0.08329216 0.06325243 0.0047459295 -0.032650225
0001b0 3a a6 20 3d 81 2f 29 bd fa 41 9b 3d 25 66 c8 bb
       0.039221026 -0.04130507 0.075809434 -0.006115692
0001c0 89 10 65 bd 79 3b c8 3c 72 54 bf 3c 93 50 5b bd
       -0.055923972 0.024442421 0.023355696 -0.05354364
0001d0 ce 05 63 bc 83 4e d9 3c b5 7b 2c bd b6 e6 7c bd
       -0.013856364 0.026526695 -0.042110164 -0.06174346
0001e0 fd ad 1e 3b e2 c9 96 bd fe 7a 85 3a 20 ed 02 3d
       0.0024212592 -0.07362725 0.0010183749 0.03196442
0001f0 3c 00 0c 3d 67 92 98 bd 6e 42 16 bb e1 13 af bd
       0.03417991 -0.07449799 -0.0022927779 -0.085487135

transformer_enc.layers.0.self_attn.in_proj_weight f4 [384, 128]
000000 65 5e 6d 3d ec 62 2b bb e8 24 b0 bc e5 ca 51 bd
       0.05795135 -0.0026151491 -0.021501973 -0.051218886
000010 ea 03 b4 bd 9a d6 30 bd b7 e0 be bb 1c 8f 7f 3d
       -0.08789809 -0.04317341 -0.005825128 0.06239234
000020 00 3a 3e 3d b1 65 c5 bd f8 da f5 3d a4 0e 97 bc
       0.04644203 -0.09638537 0.120046556 -0.018439598
000030 9b 84 ab 3d 4e 4f 8c bd 60 3f b4 bd 1b 0f 96 3d
       0.08374902 -0.06851064 -0.0880115 0.073271
000040 a5 3a 1e 3d c8 3d be bd fc 53 9c 3c 79 f9 75 bd
       0.038630147 -0.092891276 0.019083016 -0.06005237
000050 95 c8 bc 3d bc 8b d6 3c dd 5d 15 bd fa 06 57 bd
       0.092179455 0.026189677 -0.036466468 -0.052496888
000060 e1 92 85 bd f8 b2 2a bd 3f 14 c9 ba 7c 37 09 3d
       -0.065221556 -0.041674584 -0.0015341117 0.03350018
000070 46 25 18 bc 96 7f c8 3d 02 b2 22 bd 0a c5 92 3b
       -0.00928623 0.0978996 -0.039720543 0.0044790553
000080 a6 3a 34 bd a6 f9 24 bd ca a9 9c 3c a5 90 d6 bc
       -0.044001244 -0.040277146 0.01912393 -0.026192019
000090 e9 e9 8d bd 97 5d c7 3d dd b4 23 3d 25 3f 44 3d
       -0.069293804 0.09734648 0.039967407 0.04791178
0000a0 ea cb de 3d d1 35 09 bd c5 7f e1 bd ea a9 e4 3d
       0.10878737 -0.03349859 -0.11010698 0.11165221
0000b0 87 18 34 bc 2e 31 9a 3d bb ab a3 bc 5b 3d 50 bd
       -0.010992176 0.075289115 -0.019979348 -0.050839763
0000c0 47 0a ce bb 9e df 08 bc 9e 04 62 3c f9 49 46 3d
       -0.0062878462 -0.008354096 0.013795046 0.04841039
0000d0 c6 02 81 bd 70 c1 d4 3d 95 11 f1 3b 41 94 d4 3d
       -0.06299357 0.10388458 0.0073568323 0.1037984
0000e0 04 27 79 3d 07 ad af bd 52 bd 26 3d 61 e1 6c 3d
       0.060828224 -0.08577924 0.040707894 0.057832126
0000f0 37 b2 98 bb d5 fa c4 3d 1d a3 48 b9 66 50 a6 3d
       -0.0046599167 0.09618155 -0.00019134251 0.081208035
000100 3c b3 47 bd 0a 55 41 bc aa 2d c3 3c ea 81 44 3c
       -0.048754916 -0.01180006 0.023825485 0.011993865
000110 3f 9d 65 bc b4 32 e0 bd 06 89 bb 3d 0a 8e af bd
       -0.014014541 -0.10947171 0.091569945 -0.08572014
000120 2e 1b 17 bd 2a 3c 78 bd 6b 5c ac 3d f5 4d 7e 3d
       -0.036891155 -0.060604252 0.08416065 0.062086064
000130 fb a5 90 3d ed 46 be 3d 6f e4 8d bd 69 48 bd bc
       0.07062908 0.09290872 -0.06928336 -0.023105817
000140 6c d8 a5 3d 06 44 d3 3d 8c f7 8f bd 87 e1 41 3d
       0.0809792 0.10315709 -0.07029638 0.04733422
000150 87 f8 40 bd 22 e0 8b 3d 0d 22 92 bd a1 62 57 bd
       -0.047112014 0.06829859 -0.07135401 -0.052584294
000160 15 1d 45 bd 0a 54 b6 3d dd 40 7d 3c 4b 20 95 3d
       -0.048123438 0.08902748 0.015457359 0.0728155
000170 5b de 1b 3d b0 10 cb bd df 92 a2 3d 8e b8 60 3b
       0.03805385 -0.09915292 0.0793817 0.003428969
000180 01 3d f2 bd 5d 55 cd bd 24 b2 be 3c 69 c9 a4 3d
       -0.11828042 -0.100260474 0.023278303 0.080462284
000190 03 ba 94 bb 83 b1 99 bc d6 64 fe bc 3a eb 30 39
       -0.004538776 -0.018761402 -0.031053942 0.00016872297
0001a0 fe 7c 7b 3d 56 73 fb bd e3 1e 4f 3d ea 32 d3 bd
       0.0613985 -0.12277858 0.050566565 -0.103124455
0001b0 27 71 b5 3c 15 a7 a7 bd a4 ef 06 bd 8e 9d 72 3d
       0.022148682 -0.08186165 -0.032943383 0.059232287
0001c0 37 47 03 bc 0a 24 26 3a 28 5d 9a bd 0a e4 97 3d
       -0.008012584 0.00063377677 -0.075372994 0.07416542
0001d0 f4 ee 4b 3b f4 bd a9 3d 1f c6 d0 bd 9b b9 dd 3b
       0.003111777 0.08288184 -0.101940386 0.0067665107
0001e0 45 48 f9 3c da 35 c8 bd af a5 e1 bc 4d 52 ae 3d
       0.030429969 -0.09775896 -0.027544824 0.085117914
0001f0 b0 54 c5 bd 08 0a db 3c ba 12 ea bd ec 52 d0 3d
       -0.096352935 0.026738182 -0.11429353 0.10172066
000200 26 44 49 bc fe 35 78 bc b7 a5 94 3d 45 c3 00 bc
       -0.012284314 -0.0151495915 0.0725817 -0.007859056
000210 e8 f3 c9 3d 2a e8 93 bd d7 6f 03 bd 4b 3a b9 bd
       0.098609746 -0.07222016 -0.03208908 -0.090443216
000220 35 1c 7f bd 71 80 4d 3d 67 7b 9b 3d 50 c1 42 3d
       -0.06228276 0.05017132 0.075918965 0.04754764
000230 53 14 6f 3d a6 c9 d3 3d 5a 10 89 3c 52 94 24 bc
       0.058368992 0.10341196 0.01673143 -0.010045128
000240 43 f4 29 3c d8 4c 8b 3b 1b b4 df 3d 1c 97 c3 bd
       0.010373178 0.004251104 0.10923024 -0.09550306
000250 ec 38 48 bd a7 bd 9a bd 22 63 95 bd fd f7 ec 3d
       -0.04888241 -0.075557046 -0.07294299 0.115707375
000260 fd 72 80 3d 19 ad c6 bd 8c 7e 9c 3d ae 18 e2 bd
       0.06271932 -0.097009845 0.076413244 -0.110398635
000270 55 63 a9 bd 13 38 46 bd da 1a b3 3d c7 ea e5 bd
       -0.08270899 -0.04839332 0.08745356 -0.11226421
000280 b8 f5 9b bd a1 d3 72 3a 1d 91 6c bd 22 35 69 bd
       -0.076152265 0.00092631025 -0.05775558 -0.056935437
000290 30 a7 95 bc 5a ed f3 bd c5 42 ad 3d 5a fa 42 bb
       -0.018268198 -0.119105056 0.08460001 -0.0029751272
0002a0 30 f7 81 3c a0 96 3a bc 32 d6 bf 3d 1e f0 a8 3a
       0.015864938 -0.011388451 0.093670264 0.0012888943
0002b0 04 a6 f4 3b 54 36 a1 3d 3a cd d1 3d b0 52 67 3d
       0.0074660797 0.078716904 0.10244222 0.05647534
0002c0 fe 6f 5c 3d 31 be b6 3c 0b e9 7e 3d ff 3a 27 bd
       0.05381774 0.022307487 0.062233966 -0.040827747
0002d0 62 69 51 bd 18 a1 c6 3d 6d 26 1a 3c 33 c6 bc bb
       -0.05112589 0.09698695 0.0094085755 -0.005760932
0002e0 b0 07 b1 bd 8a 7c 2b 3d 45 a7 df 3c 03 bc bf 3c
       -0.086440444 0.041866817 0.02730144 0.02340508
0002f0 28 f6 c7 bc 3c bd a9 bb 37 8e cc bd 9c e7 d6 bc
       -0.024409369 -0.005180029 -0.09988063 -0.026233487
000300 7b d8 73 3d 01 23 ba bd b1 32 52 3c ce ce a0 3d
       0.059532624 -0.09088708 0.012829469 0.07851945
000310 9a f3 25 bb f8 a1 af 3d c6 61 fb 3c 56 d3 a7 bd
       -0.00253222 0.08575815 0.03068627 -0.08194606
000320 8c cf 93 bd be a6 ac 3d c8 f2 da 3c fb 8e 2d bd
       -0.07217321 0.08430241 0.026727095 -0.042372685
000330 b5 dc 86 3d 7a 73 98 bc 89 de be 3d ca c0 5b bd
       0.06585065 -0.018609751 0.09319789 -0.053650655
000340 53 12 9b bc c9 71 1e 3d 84 40 0d 3d 55 e6 4c bd
       -0.018929636 0.038682733 0.034485355 -0.05002435
000350 d2 f4 c6 3c 54 35 ab bd 65 9a 58 3d 21 07 8c 3d
       0.024286661 -0.08359781 0.052881617 0.06837297
000360 b6 0d 0c 3c f3 ac a1 bd 3a 09 c0 bd 35 76 7d bc
       0.008548191 -0.078943156 -0.0937676 -0.015470077
000370 c9 f0 97 bd db f5 c6 3d 7f 38 ba bc fd 91 95 3d
       -0.07418973 0.09714862 -0.022732018 0.07303236
000380 8e 40 7a 3d 99 e0 db 3d 36 44 97 3d 51 bb 28 bd
       0.06109672 0.10736198 0.07386057 -0.041194264
000390 8a c3 4f 3d 1f 72 c5 3d 0d 38 09 bb 50 f7 8c bd
       0.05072359 0.096409075 -0.002093795 -0.068831086
0003a0 a4 92 08 bd 2d 33 c5 bd 2e 90 dc 3c 8c 3e 70 bd
       -0.033342972 -0.09628902 0.026924219 -0.0586534
0003b0 82 73 d5 3d 72 26 eb bc 09 1a 65 3d ef f0 da bd
       0.10422422 -0.028704856 0.055933032 -0.10690486
0003c0 e2 90 ba bd c2 e6 99 3c d8 dc 69 bd 6f fa ab bd
       -0.091096655 0.018786792 -0.05709538 -0.08397376
0003d0 26 af 41 3d 2a d3 61 3d 91 66 cd 3c 85 0e cd bd
       0.047286175 0.055133022 0.025073322 -0.10012535
0003e0 da ef 6e 3d 36 c9 a2 bd 2e 64 19 bc 28 54 4a bc
       0.05833421 -0.07948534 -0.009362264 -0.012349166
0003f0 25 02 71 bd 40 5b 8d bd 87 4f 0b bd 96 8e 02 bd
       -0.058839936 -0.0690217 -0.03401139 -0.03187426
